mlartifacts/0/cdf9112da5ce4f1d8cf6d99303157296/artifacts/mnist_mlp/data/model.pth (torch, 896116 bytes, 6 tensors)

weight f4 [250, 784]
000000 fa 1c d4 3c da 36 df 3c dc 2e 76 bc 3c 15 76 bc
       0.025892723 0.027247835 -0.015025821 -0.015019711
000010 8a 6a e1 bc 4a a4 db bc fc 7b 48 bc 37 3c 1e bc
       -0.027516622 -0.026811738 -0.012236591 -0.009657911
000020 7e 3b 8d bc 2c 7b a0 3c 33 10 7d bc 93 54 ef 39
       -0.017240282 0.019589983 -0.015445757 0.00045648645
000030 80 19 0e bb ca c7 3d bc 65 61 d0 3c 0a 6b 8a bc
       -0.002168268 -0.011583278 0.025437066 -0.016896743
000040 e5 e4 b2 3c ee 14 12 bb b7 ca 98 3b e6 62 02 bd
       0.021837661 -0.0022290307 0.0046628374 -0.0318326
000050 ed 3d 09 3d 9c 8d 13 3c 83 33 bc 3c fc 77 6e bc
       0.033506323 0.00900593 0.022973781 -0.014554974
000060 4e eb 63 3c 9d 88 0e 3d d1 04 d7 3c 2c 52 e4 bc
       0.0139110815 0.034798253 0.026247414 -0.027871214
000070 13 2b d4 3c ca 7d 02 3d 65 0d 88 bb 7c a0 93 3c
       0.025899446 0.031858243 -0.0041519874 0.01802086
000080 c1 07 ca bc aa 57 ef 3c 02 f5 32 bd 78 64 9b bd
       -0.0246619 0.029216606 -0.04369069 -0.07587522
000090 ec 29 88 bd 93 ef 87 bd 96 fd 9f bd bc 89 3d be
       -0.06648621 -0.06637492 -0.078120396 -0.18509573
0000a0 8b cf 81 be 8f 5f 89 be 5b 23 02 bd a1 5b 05 bd
       -0.25353655 -0.26830718 -0.031772 -0.032558087
0000b0 32 2b 6b bc 77 c1 11 bd d7 fe a3 bc f0 73 e3 3c
       -0.01435356 -0.035584893 -0.020018978 0.027765244
0000c0 f2 03 04 bc c4 3c 15 bc 5c 27 bd 3c aa 01 a1 bc
       -0.008057581 -0.009108726 0.023090057 -0.019654114
0000d0 78 be 74 bc 78 b7 75 bc a5 f8 72 bb b7 0b ca bb
       -0.014937989 -0.014997356 -0.0037074473 -0.0061659473
0000e0 d7 b3 8b 3c 52 06 10 bd 6e 66 d2 ba e6 aa 06 3d
       0.017053528 -0.035162278 -0.0016052255 0.032877825
0000f0 41 23 35 bc da 66 c4 bc 42 b5 50 bd d5 7e 61 be
       -0.0110557685 -0.023974825 -0.05095411 -0.22021039
000100 33 5b 09 3f fd e0 26 3f 63 17 2f 3f 2c 30 3a 3f
       0.53654784 0.65187055 0.6839506 0.72729754
000110 5d b8 1e 3e 54 6a 31 be 08 1f 69 be 51 25 07 be
       0.15500017 -0.17325717 -0.22765744 -0.13197829
000120 66 38 56 be f9 4f 83 be 9e c0 12 be 15 28 a5 bd
       -0.20919952 -0.25646952 -0.1433129 -0.08064286
000130 f0 f1 5a bd eb f6 b7 bd 53 db ff 3b f7 b7 9f bc
       -0.053453386 -0.08982643 0.007808128 -0.019496901
000140 ab c1 43 bc 35 7d 79 bc 67 78 8c 3c 73 72 65 3c
       -0.0119480295 -0.015227606 0.017147256 0.014004338
000150 8a 7f 2b bc 20 82 01 3d 19 80 d4 3d 47 1e be 3d
       -0.010467419 0.031618237 0.10375995 0.09283119
000160 bc d0 ec bc 1a de 77 3e 47 16 c2 3e 93 65 b7 3e
       -0.028908126 0.24205819 0.3790762 0.35819682
000170 2e 5e 8a 3e a1 0b 18 3f 97 24 2a 3f e8 06 c1 3e
       0.27024978 0.59392744 0.6646208 0.37700582
000180 bb 28 69 be be 58 25 bf 2f bc 29 bf a9 a1 31 bf
       -0.22769444 -0.64588535 -0.6630277 -0.693873
000190 58 ab cf be 36 29 85 be fd 6e c0 bd 57 f2 6a be
       -0.40560412 -0.26008004 -0.09396169 -0.22944008
0001a0 41 f5 37 be bf 07 7a be 2a b0 be bd 29 2a 2a bd
       -0.1796465 -0.24417017 -0.093109444 -0.041544113
0001b0 d3 d0 2f bb e0 68 3e 3b 88 e3 e0 bc d3 9b c3 3b
       -0.002682735 0.002905421 -0.027452245 0.0059695034
0001c0 ca 77 ca 3c 13 26 81 3d ae 6c 03 3e 1b 80 f1 3d
       0.024715323 0.0630609 0.12834427 0.11792012
0001d0 4f 1b 83 be d9 28 61 3b af cf 86 3e 9e dc ba 3d
       -0.25606772 0.0034356622 0.26330325 0.09124111
0001e0 85 d7 f0 3e fc ec c4 3e bd 44 08 3f 3f c6 18 3f
       0.47039428 0.38462055 0.53229886 0.596775
0001f0 e4 df 18 3d cf d6 09 bf d4 7f f8 be 13 38 a8 be
       0.037322894 -0.53843397 -0.48535025 -0.3285528
000200 e3 5d 58 be 9a 26 87 be c7 f1 3b be 7e bb a3 be
       -0.21129565 -0.26396638 -0.1835395 -0.31978983
000210 83 2a f6 be aa 89 b6 be 42 34 87 be c9 16 07 be
       -0.4807931 -0.35651904 -0.26407057 -0.13192286
000220 32 c3 f5 bd 0b c7 4f be d0 92 10 bd 11 4d d9 bc
       -0.12000121 -0.20290773 -0.03529626 -0.026526006
000230 e5 6b 1b bc 0c de 81 bc 1c 97 2c 3e e6 5a 93 3e
       -0.009486173 -0.01585295 0.16854519 0.28780288
000240 57 35 9d bd 7a 8c 42 be ad fb 86 3c 1d 0c f0 3d
       -0.076761894 -0.189989 0.01647743 0.117210604
000250 5d da 33 3e 76 d3 98 3e 1c 6e ea 3e 74 a1 05 3f
       0.17563768 0.29848832 0.45787132 0.5219948
000260 43 b8 ab 3e 8a 4b 64 bd a9 10 82 be 49 56 93 be
       0.33539018 -0.055736102 -0.25403336 -0.28776768
000270 19 6f 1d be 14 22 7e be 94 57 87 be f2 60 ca be
       -0.15374412 -0.24817687 -0.26434004 -0.39527088
000280 3c db ee be 90 b3 f2 be f3 1e a2 be 7c 1c b4 bc
       -0.46651638 -0.4740262 -0.31664237 -0.021986239
000290 ef d9 cd bd de e1 cb bd cc 54 ee bd c5 bd 02 bc
       -0.10051333 -0.0995519 -0.116372675 -0.007979815
0002a0 4a f4 6f bc 4a 2e cf bb 21 37 df 3d 9d a3 92 3e
       -0.014645645 -0.0063226568 0.10899187 0.28640452
0002b0 fc 9d 8b 3e fb e2 15 3d bc 34 34 3d 09 41 58 bd
       0.2726897 0.03659342 0.043995604 -0.052796397
0002c0 55 30 ac 3e 36 31 c2 3e cc 7a 9b 3e d1 71 61 3e
       0.33630624 0.3792817 0.30367124 0.22016074
0002d0 cd 75 5e 3e 34 02 e6 3d 9b be 49 bd b5 10 7d be
       0.21724625 0.11230889 -0.04925404 -0.24713404
0002e0 19 64 2a be 42 04 81 be bd 1d 97 be 44 b6 80 be
       -0.16639747 -0.2519856 -0.29514876 -0.25139058
0002f0 23 96 89 be 03 fe 9b be 2f 4c 91 be a3 08 6d bd
       -0.26872358 -0.30467233 -0.28378436 -0.057869565
000300 e9 1e 0c 3d 0f 5b 0e be 1f e1 e1 bd 1d bd a7 bd
       0.034209166 -0.13901924 -0.110292666 -0.08190367
000310 5a 00 e4 3c d6 30 35 3e 8d e9 58 3e 10 f0 56 3e
       0.027832199 0.1769441 0.21182843 0.20990014
000320 20 48 8f 3e 65 f5 15 3d ce 65 64 3d d2 1a 5b be
       0.27984715 0.03661098 0.05576115 -0.2139695
000330 be 50 14 3e 70 0a 9f 3d a8 57 89 bd b7 42 65 bd
       0.14483926 0.07765663 -0.06706172 -0.055971827
000340 a7 e6 dc 3c b8 8a 50 3e 15 9b 8a 3d 61 d0 52 be
       0.026965452 0.20365417 0.06767861 -0.20587303
000350 25 87 11 be c2 85 54 be 7e de a5 be fa bb 46 be
       -0.1421171 -0.2075415 -0.3239631 -0.19407645
000360 08 2f 2a be 03 b6 81 be 08 03 6d be 0e 55 a2 bd
       -0.16619503 -0.25334176 -0.23145688 -0.07926379
000370 70 48 de bc 94 26 24 be bf b2 e7 bd 9c 7c 83 bd
       -0.02713415 -0.16030341 -0.1131339 -0.06420252
000380 ae 7f d3 3d ca b2 b3 3d 1e c6 ba 3d 49 d3 69 3e
       0.10327087 0.08774336 0.09119819 0.22834505
000390 b9 0c 31 3e 86 93 52 be 8f a4 e4 bd 6e 0f ac be
       0.1729001 -0.20564088 -0.111641996 -0.33605522
0003a0 7c c0 fb bd 64 92 94 bc 92 9a 7f be 42 03 a5 be
       -0.12292573 -0.01813621 -0.24961308 -0.32229048
0003b0 76 92 07 be c0 91 e7 3d 9b fe b6 3d 14 f0 d9 bd
       -0.13239464 0.113070965 0.08935281 -0.106414944
0003c0 a3 0c 00 be 65 2a 28 be 53 a1 7e be ef 02 84 be
       -0.1250482 -0.16422422 -0.24866228 -0.25783488
0003d0 3f 1a 06 be b9 1c 77 be c2 1c 1a be 3d 44 89 bd
       -0.1309595 -0.2413205 -0.15050033 -0.067024685
0003e0 0e cc f8 bd 9a 6d 39 be 27 f4 c4 bd cb bb 69 bd
       -0.12148295 -0.18108216 -0.09616881 -0.05706386
0003f0 cc 4e 6a 3e 53 3a 12 3e b8 bc 37 3e 3f 4d 2e 3e
       0.22881621 0.14280061 0.17943084 0.17021655

bias f4 [250]
000000 96 ff 59 be b6 8c 3f 3d 75 ce 1b be 5f 6e 7d bd
       -0.21288905 0.04676505 -0.15215476 -0.061872836
000010 0b 2c 25 bd d0 0f c3 3d cb bb 9d be 79 7e 0f bd
       -0.040325206 0.095245 -0.30807337 -0.035032723
000020 73 2c 9b 3d 56 ed f8 be b6 71 4a be 6d 03 e0 be
       0.075768374 -0.48618573 -0.1976994 -0.43752614
000030 7b 9a 2a be ea fc ec be 83 7b e1 3e 5f c5 95 bd
       -0.16660492 -0.46286708 0.44039544 -0.07313036
000040 3e 64 81 3d 5e d7 3b 3d 7e ed 28 bd 42 1a 7a bd
       0.06317948 0.045859687 -0.041242115 -0.061060198
000050 35 19 84 3e 47 2e 38 be 24 6c d5 bd 75 c8 24 be
       0.2580048 -0.17986403 -0.10421017 -0.16092093
000060 e9 20 49 be 99 f4 73 bd 1c 09 bf 3e d9 64 a6 be
       -0.1964146 -0.05955944 0.37311637 -0.32498816
000070 b2 31 45 3c 04 ec 7f 3d ab 18 26 be cb f2 19 be
       0.012035774 0.06248094 -0.16220348 -0.15034024
000080 a6 ea 43 be 6c b0 9e bd 0c 65 be bd dd 33 20 3d
       -0.1913248 -0.077484936 -0.09296617 0.03911196
000090 79 95 9b bd 6a e0 11 3e 6b a7 28 3e 19 ed 82 be
       -0.07596869 0.14245763 0.16470115 -0.25571516
0000a0 47 8e 16 bd 8d 33 93 be 07 4a 5e be 57 7b 82 bd
       -0.03675678 -0.28750268 -0.21707927 -0.063711815
0000b0 a2 5b b6 be ed fd d8 3c 2e c8 36 be f2 24 27 bd
       -0.35616785 0.026488269 -0.178498 -0.04080672
0000c0 e1 d9 be bd f5 eb a6 bd e8 2a 0b bb c1 21 a3 bc
       -0.09318901 -0.08150474 -0.002123529 -0.019913556
0000d0 48 5d cd bd 7c 17 04 bf 6d 2b ab 3e c8 aa 2f be
       -0.100275576 -0.51598334 0.3343157 -0.17154992
0000e0 44 3e 0e 3d 35 62 82 be 4e 73 92 bd 1a 61 d4 bd
       0.03472735 -0.2546555 -0.07150899 -0.10370083
0000f0 e3 24 10 be e7 7b 13 3e 80 df 41 bd 24 12 52 be
       -0.14076571 0.14402734 -0.047332287 -0.20514733
000100 d7 a7 2a be b9 f8 cb be 7a 2e f9 3d ed fb 82 3c
       -0.16665588 -0.39838198 0.12167068 0.015989268
000110 06 bf a2 be 8a ac 89 bd 7c 9f 1f 3e b0 c7 d2 be
       -0.31786364 -0.06722362 0.15588182 -0.41167974
000120 56 16 8a bd 5d 51 18 be 11 3e 75 bd bf b9 54 3e
       -0.067425415 -0.14874788 -0.059873644 0.20773982
000130 1b f4 03 be a1 35 1f be 95 66 b3 bd 1c f0 0f bf
       -0.12886088 -0.15547802 -0.087598 -0.5622575
000140 a1 59 34 bd 6e d7 32 be 3e 02 50 bd 1a 9d aa 3e
       -0.04403079 -0.17464992 -0.05078339 0.33322984
000150 78 4e f2 be 50 5c ff 3d 85 24 e3 3d 9e 85 32 bd
       -0.47325492 0.12468779 0.1109095 -0.04358446
000160 09 4c b9 bd 89 df 42 be 48 e1 ab 3e cd 17 27 bd
       -0.09047706 -0.19030584 0.33570313 -0.040794183
000170 cd ad 7c be 2c b0 de bd 10 a1 b8 3d 1c f2 9c bd
       -0.24675675 -0.10873446 0.09015095 -0.07663366
000180 8b b3 73 bd 4d 24 9e be f6 8d 3b 3d 45 ce 18 bd
       -0.059497397 -0.3088707 0.04578968 -0.03730609
000190 d9 52 25 bd 31 47 b6 bd 2b 37 d3 bd ef d4 dc bc
       -0.040362213 -0.089002974 -0.10313257 -0.026957003
0001a0 4c cb ba be a6 19 a9 bd 07 dc 04 bf 1f 29 10 bd
       -0.36483228 -0.08256845 -0.51898235 -0.035195466
0001b0 a3 45 e6 bd ed 6a 04 3c 24 17 c5 bd 43 95 02 3e
       -0.11243751 0.008082134 -0.09623554 0.12752251
0001c0 e8 25 09 be 02 de 6b bd 11 b1 e5 bd d9 72 cc bc
       -0.13393366 -0.05758477 -0.11215413 -0.024957107
0001d0 be 66 88 bd be 11 bc be e3 71 ef be dd 77 4c 3e
       -0.066602215 -0.36732286 -0.46766576 0.19967599
0001e0 19 1a fa 3b af 84 81 be 42 8e b6 bd e8 01 94 be
       0.0076325056 -0.25296542 -0.08913852 -0.28907704
0001f0 9b bc 80 be a2 4a c0 be 13 a1 56 be 2f d1 ba 3e
       -0.25143895 -0.3755694 -0.20959882 0.3648772
000200 ff 5a 13 3e 5c 51 c9 bd 35 f3 4b bd e8 71 9c bd
       0.14390181 -0.09829971 -0.049792487 -0.076389134
000210 19 66 22 be 48 83 f3 bd 76 72 24 bd 78 a1 03 bf
       -0.1585926 -0.11890274 -0.04014822 -0.51418257
000220 89 a6 19 bb af 2f 3c be b3 f5 40 3e 21 57 94 bd
       -0.002344521 -0.18377565 0.18843727 -0.07243181
000230 84 4d 3a bd 79 de fd be 07 fc 2a bc f5 5c 24 3d
       -0.04548408 -0.49583796 -0.010436065 0.040127713
000240 c7 65 1a be 44 07 60 be e3 4b 67 bf ba 92 85 bd
       -0.15077887 -0.21877772 -0.9035017 -0.065221265
000250 3b 94 4e be e2 ef 36 bd 66 98 11 be bd e2 ca bd
       -0.20173733 -0.044662364 -0.14218292 -0.09906528
000260 a8 9f 12 bf 6a 80 97 be da 1d 30 bf 39 d4 06 3e
       -0.57274866 -0.2959016 -0.6879555 0.13166894
000270 47 ce b4 bd 17 18 9d be c8 ff 0d be 17 d5 8d bd
       -0.08828407 -0.30682442 -0.13867104 -0.06925409
000280 1d 1e e2 bd 2f 6a ce be 3a 4a cd be 59 7f b4 3d
       -0.110409 -0.40315387 -0.40095693 0.08813352
000290 2b 2b 3b 3e bd 1f 80 bd 02 0d 4f 3e ca d9 42 be
       0.18278186 -0.062560536 0.20219806 -0.19028392
0002a0 58 8d 3b be 3d b3 ba 3e 4a 24 e0 bd 69 92 f4 bd
       -0.18315637 0.36464873 -0.109444216 -0.11941988
0002b0 1b 9e 52 bd 26 ac cd be 5d bc cb bc 2f b7 01 be
       -0.051420312 -0.401704 -0.024870092 -0.12667535
0002c0 63 79 71 be 93 09 13 be 3c 0c 51 bd ab d4 a3 be
       -0.23581462 -0.14359121 -0.05103706 -0.3199819
0002d0 12 0a af be b0 7c 8e bd fc 98 d6 bd 86 99 67 be
       -0.3418737 -0.06957376 -0.10478398 -0.22617158
0002e0 84 f2 6d be 44 57 93 be fa 26 93 bd e5 22 0b bf
       -0.23237044 -0.28777516 -0.071851686 -0.5435012
0002f0 2a 2b 92 bd 4d 40 92 3d 3f a9 8d bd e9 35 6e be
       -0.07137139 0.07141171 -0.06917047 -0.23262753
000300 27 d7 4e be f0 a8 b5 be 99 bd b0 bd 5c ff af bd
       -0.20199262 -0.35480452 -0.08629913 -0.08593628
000310 b0 cc e3 bb 5c 2e 54 be eb fe 1c be 54 bd ff 3d
       -0.006951891 -0.2072081 -0.15331618 0.12487283
000320 de bc e5 bd f4 69 56 be 59 2a 73 3e fa d8 a4 be
       -0.11217664 -0.20938855 0.23746623 -0.3219679
000330 58 2b 0a bf d4 a2 9a 3e 81 d7 f9 be 5a 32 0e bf
       -0.5397239 0.30202353 -0.4879723 -0.5554558
000340 61 21 8d 3e 19 85 08 be f6 fb 32 be 81 a1 61 bd
       0.2756453 -0.13332023 -0.17478928 -0.055085663
000350 1b 47 66 3e 67 26 00 be a3 fb fb bd 1a da 3c 3e
       0.22488062 -0.1251465 -0.12303855 0.18442574
000360 b8 d8 7c bb 18 b5 ad be 42 80 9f bd 8b b9 1b be
       -0.0038581323 -0.33927226 -0.07788135 -0.15207498
000370 03 4b 8e bd 29 4d b6 3d c7 9e b6 bd 30 1e 9d bd
       -0.06947901 0.08901436 -0.08917003 -0.076717734
000380 84 d5 22 3e cf f9 be bd 7c 29 60 bd a3 46 b9 bd
       0.15901762 -0.09324991 -0.054727063 -0.09046676
000390 8b a3 60 3d 6f 8c a4 3e ee 5a 84 bd dd ce e8 bc
       0.054843467 0.32138392 -0.06462656 -0.028418953
0003a0 b2 b2 a4 bc c2 31 bb be bf 20 2c be 52 e8 a0 be
       -0.02010474 -0.365614 -0.16809367 -0.31427246
0003b0 e6 bf 2c be 34 19 c9 bb d8 f0 00 be 45 12 8b be
       -0.16870078 -0.0061370376 -0.12591875 -0.27162376
0003c0 87 ae 8a bd a9 9e 2d bd b3 88 db bc be 43 e1 3d
       -0.0677157 -0.04238764 -0.026798582 0.10999249
0003d0 44 5e 1d 3e d3 9f 97 bd f4 53 2c bd 2b 32 91 3b
       0.1536799 -0.07403531 -0.04207225 0.0044310293
0003e0 fc a8 b1 bd fd f0 c1 3d
       -0.08674809 0.09469793

weight f4 [100, 250]
000000 7b 9b 1c be 7c 89 15 bf 88 c3 2c 3d 04 fd 5e 3d
       -0.15293686 -0.5841291 0.04217866 0.054440513
000010 cb 47 8e 3d 14 58 21 3e a1 66 69 3e 59 18 fa 3d
       0.06947287 0.15756255 0.22793056 0.12211675
000020 78 eb 45 3d 42 59 5c 3f e4 db 1c 3d e0 5b c5 3e
       0.048320264 0.86073697 0.03829564 0.38546658
000030 72 5f e8 3d 23 3b 9b 3e 0d 5b 7b 3b b9 0a a9 3d
       0.1134633 0.30318555 0.003835383 0.08253998
000040 8c 70 9d be 6f 39 0b bf 70 55 97 bd 7e 0c 2c be
       -0.3074993 -0.5438451 -0.07389343 -0.1680164
000050 4e f3 31 3e 91 9b 15 be 24 bf a5 3d 4a b3 84 3e
       0.1737797 -0.14610125 0.08093098 0.25918037
000060 fe 9d 4e 3e 20 63 e2 bb 5a eb 6b 3c 2d fd 5d be
       0.20177457 -0.0069087893 0.014399374 -0.2167861
000070 13 22 60 be 5c a1 04 3d ac 6f 38 bf c4 ef 2f 3e
       -0.21887998 0.032380447 -0.720454 0.17181307
000080 40 e0 10 bf 27 68 3b 3d 1a 3f f8 3d 41 01 87 be
       -0.5659218 0.045753624 0.12121411 -0.26368144
000090 f5 90 a4 3c 1c 20 0d 3f ea a6 14 bf b3 67 eb 3d
       0.020088652 0.5512712 -0.5806719 0.114943884
0000a0 fa f5 3a bb fa 4b af 3d 57 01 6c 3d 1b d1 32 3c
       -0.002852796 0.08559413 0.057618465 0.010914112
0000b0 30 d9 18 bd 93 c5 02 bf 47 74 76 3d 87 b0 17 3b
       -0.0373165 -0.51082724 0.060169484 0.002314599
0000c0 22 b7 1c bd 78 fd a1 3a 2b 93 88 3e 76 25 09 bf
       -0.038260587 0.0012358865 0.2667478 -0.53572786
0000d0 ad 0d 1e 3f 7b af be be e0 6e a8 be 09 c4 71 be
       0.6173962 -0.37243256 -0.3289709 -0.23609938
0000e0 2a 94 03 3f fb ba fc be a1 77 e8 bd 8f d3 e1 be
       0.51397955 -0.49361405 -0.113509424 -0.4410672
0000f0 4d b6 57 3e 50 9d e8 3e 56 42 ca be ca f0 b9 be
       0.21065636 0.4543252 -0.39503735 -0.3631652
000100 a7 6f 7c be 4d e0 0e be dc cf 4a bf f2 39 d3 be
       -0.24651967 -0.13952751 -0.7922342 -0.41255146
000110 8d 2d 99 3e 36 84 8f bc 04 eb 19 3d 1f 74 c9 be
       0.29917565 -0.017519098 0.037577644 -0.39346406
000120 1f d9 2d be 94 18 b8 be 99 14 97 3e 01 7f 86 be
       -0.16977356 -0.35956252 0.29507902 -0.2626877
000130 f5 75 92 bf 84 03 cf 3d e0 e3 b7 3b 82 d9 8a 3e
       -1.1442248 0.101080924 0.0056118816 0.2711907
000140 ba 7c b6 bd 27 fe 03 3d f1 55 59 be d9 c3 05 bf
       -0.089105085 0.0322248 -0.2122419 -0.52251965
000150 5d 61 b5 3d ec 69 48 be 48 a5 9a be b5 4c 1b bd
       0.08856461 -0.19571656 -0.30204225 -0.03791495
000160 eb c8 e4 3d 06 43 0f bf b7 8e f9 be 88 c4 23 3e
       0.111711346 -0.55961645 -0.48741695 0.1599294
000170 5a d5 16 be e5 67 2b be 4f 5e 05 bd 03 c0 e2 3d
       -0.14729825 -0.16738851 -0.032560643 0.110717796
000180 c4 48 80 3d 3f d9 07 3f 58 d4 ed be 03 4e 86 bd
       0.06263879 0.53065866 -0.46451068 -0.06557848
000190 cf ab 1c 3d a9 be f3 3b 66 51 63 bc 73 81 c3 bc
       0.038249787 0.0074385 -0.013874387 -0.023865437
0001a0 c1 f0 9f be f1 bc 2e bd 0d e7 29 3e 23 22 43 3e
       -0.31238368 -0.042660657 0.16592045 0.19055991
0001b0 60 0a bf 3e 4a 1b 96 bf f7 3b 44 bf 50 9a b0 be
       0.37312603 -1.1727078 -0.76654 -0.3449273
0001c0 00 10 93 3d 34 7e ae be c1 12 e7 3d 70 c7 f4 3d
       0.07180786 -0.3408066 0.11282874 0.11952102
0001d0 c7 ba 90 bd 26 20 a6 be a9 7f 03 3f 34 e6 e9 be
       -0.07066875 -0.32446402 0.5136667 -0.45683444
0001e0 c2 fb d5 bd 3c 7f 04 bf e7 91 34 3f 78 69 20 be
       -0.104484096 -0.51756644 0.7053513 -0.15665233
0001f0 70 1f 21 bd 53 a5 ba be 2a 8b be bb f2 16 2a bf
       -0.03933662 -0.36454257 -0.0058149295 -0.6644126
000200 e8 44 19 be 6a 36 13 be cd 11 14 bf 77 49 0d 3d
       -0.14967692 -0.14376226 -0.5783966 0.03449389
000210 0b b2 6c 3e a1 48 50 3e 4a 22 0c 3c 9a a8 8e 3c
       0.23114793 0.20340206 0.008553097 0.01741438
000220 9f d4 69 bf c9 fc f7 bd 90 6d bb 3e 26 2c 5a bf
       -0.9134006 -0.12108762 0.36607027 -0.85223615
000230 ca e0 cd be 8b aa 06 3f 7e e2 cf be 52 b6 84 bd
       -0.40210563 0.5260398 -0.40602487 -0.06480087
000240 10 33 c3 3e 3a d6 df 3b 45 9b c6 3e b9 41 f7 bf
       0.38124895 0.0068309577 0.38790336 -1.9316932
000250 bc db 49 be 99 13 44 bf 5f bf 8c 3e a3 21 03 bf
       -0.19712728 -0.76592404 0.27489755 -0.512232
000260 2c fd 15 3e fe f1 70 3e 62 96 02 3f 39 5a 2d be
       0.14647359 0.23529813 0.51010716 -0.16928948
000270 5a e9 1f 3c 7d 8d 99 bc da 97 37 3b 9d f0 c3 bd
       0.009760225 -0.018744225 0.0028014095 -0.09567378
000280 8e 20 0f 3e 43 a1 07 bd c3 6e eb 3e ef 76 97 3e
       0.13977262 -0.033112776 0.45982942 0.29582927
000290 ee 0a 94 be ec 05 92 3d 51 04 ce be 9a 33 19 3e
       -0.2891459 0.07130036 -0.40237668 0.1496109
0002a0 e6 f3 24 bb 68 55 a8 be 85 86 b2 3e 51 aa 13 be
       -0.002516979 -0.3287766 0.34868255 -0.1442044
0002b0 9b 3f 48 3d 60 b6 27 3e 77 9c ee 3b 6d 7d 4a 3e
       0.048888784 0.16378164 0.0072818357 0.19774409
0002c0 be 9f 20 3f 33 d5 c5 3e a7 38 eb 3c 8d 7e d2 bc
       0.6274375 0.3863922 0.028713537 -0.02569511
0002d0 8a ef 90 3d 7e 63 28 bd dd a4 80 bd d7 7f 36 bd
       0.070769385 -0.04111051 -0.06281445 -0.04455551
0002e0 de e7 45 bd 08 e3 c0 3c 7b ad af bc 38 bf 69 3e
       -0.04831683 0.023545757 -0.021445027 0.2282685
0002f0 e4 9a 8e 3d dd c1 18 bf 66 67 d1 3c 26 bf ad be
       0.06963137 -0.5967081 0.025562 -0.33934897
000300 1d 44 00 3f f7 7f 25 bd dc ac e2 3c 29 44 44 bc
       0.5010393 -0.04040524 0.027670316 -0.011979141
000310 e9 94 88 bd d7 02 b9 be 97 cb af 3e a3 88 0a 3f
       -0.06669027 -0.3613498 0.34335014 0.5411474
000320 ce d5 fa be 5c af bb 3e d6 03 17 bf 76 3f c5 3d
       -0.48991245 0.36657226 -0.5899023 0.09631245
000330 88 c0 7e 3d d8 3a 4e bf 50 b3 a5 be cc 57 56 be
       0.06219533 -0.8055854 -0.32363367 -0.2093193
000340 fb 2e 0e bf a2 b7 b1 3d 27 4e c8 3e b2 e9 0b 3d
       -0.55540437 0.08677603 0.39122126 0.034158416
000350 9c 9e 8e bd 5f 1a c5 3e 45 d8 ac 3e 74 86 c2 be
       -0.06963846 0.38496682 0.3375875 -0.37993205
000360 5a df 71 bf 76 3c 49 bf 4a a8 c5 ba ae 0f 84 3e
       -0.9448143 -0.7860788 -0.0015080061 0.25793213
000370 cf 7e 59 3d a3 4b 56 bf 79 56 fa 39 51 20 87 bd
       0.05309945 -0.8370916 0.00047748143 -0.06597961
000380 9f 2c 67 bc 34 02 d1 3d c8 5a ba 3d 33 de 2e 3e
       -0.01410976 0.10205498 0.090993464 0.1707695
000390 8b 63 3e be 13 75 eb bd af a3 28 be ca 78 05 3e
       -0.1859266 -0.114969395 -0.1646869 0.13034359
0003a0 4a 45 59 be 94 6e 45 bd 71 24 00 be 09 cd 69 bf
       -0.21217838 -0.04820116 -0.12513901 -0.91328484
0003b0 5d ff be 3e df db ba be 1a d4 af bd 05 1b 03 3e
       0.37304202 -0.36495873 -0.08585377 0.12803276
0003c0 82 fa c1 3d 34 dd 36 be eb b7 1c bd f9 24 3f bf
       0.09471609 -0.1785782 -0.038261335 -0.7466579
0003d0 88 7a 80 be aa 43 a1 3d 2c 80 27 bd 3b 30 f8 be
       -0.25093484 0.07874234 -0.04089372 -0.48474297
0003e0 69 8d 00 bf ed 77 19 bf 69 9a 26 3c c9 61 da bd
       -0.50215775 -0.5994862 0.01016865 -0.10663182
0003f0 b9 0d 59 be b3 27 f5 3d 7d e4 84 bb dc 3c be bd
       -0.21196641 0.11970463 -0.0040555582 -0.09288952

bias f4 [100]
000000 a6 e2 7c be d0 78 01 bf 83 45 93 be 70 e9 f2 be
       -0.24695835 -0.5057497 -0.2876397 -0.47443724
000010 85 79 4e bd ba 15 ed be e1 19 96 bd 38 f6 c1 be
       -0.05040886 -0.4630564 -0.07329155 -0.37883162
000020 dd 8c 4c 3f 2f b1 c2 be e0 ec 91 be ed 93 b8 3d
       0.7990244 -0.38025805 -0.28501034 0.090125896
000030 45 18 a4 3d da de ba be cb bf 5b 3f f8 04 c3 bd
       0.080124415 -0.36498147 0.8583953 -0.09522432
000040 e5 66 39 3e 28 b3 4a be b2 ef cd 3e 53 79 b2 be
       0.18105657 -0.19794905 0.40221936 -0.34858188
000050 c3 ec fa be aa ee b6 3d c8 a0 13 3e 0b 7e 34 bf
       -0.4900876 0.0893224 0.14416802 -0.70504826
000060 72 a2 59 3d 44 1c 34 bf f1 ad 84 be 9d 47 e9 be
       0.053133436 -0.7035563 -0.25913957 -0.4556245
000070 0d eb ab be 63 fc 91 bc f2 c1 15 3f 36 8e 40 bf
       -0.33577767 -0.017820543 0.5849906 -0.75216997
000080 cb 74 0f 3f 67 e8 34 3e 8f e0 3a bd 9c e7 cb be
       0.56037587 0.1766678 -0.045624312 -0.3982514
000090 6d 00 10 be 5b 2b 78 be 26 1b 09 be 4c f3 e1 bd
       -0.14062662 -0.24235289 -0.13389263 -0.11032733
0000a0 1d a0 5d bd 82 cd 55 bf 56 bb 18 bf 23 75 fd be
       -0.054107774 -0.83516705 -0.5966085 -0.4950343
0000b0 75 47 83 3e a6 5d 51 3d fe dc 07 bf ff 08 19 bf
       0.25640455 0.0511147 -0.5307158 -0.5977935
0000c0 dc 8b 45 be d3 28 ac 3e ac 28 fa bd 81 2e 96 be
       -0.19291633 0.33624896 -0.12214789 -0.29332355
0000d0 4e 2b c1 be ae e9 c7 be fe 2b 1d bf ed a6 4e bf
       -0.3772835 -0.3904547 -0.6139525 -0.8072346
0000e0 3c 1c 66 be 39 52 d6 be 11 67 a6 be 33 7e d3 be
       -0.22471708 -0.41859606 -0.32500508 -0.4130722
0000f0 2d 9d e9 be 4b 35 05 bf 3a 18 0e 3c 3e e2 cf 3d
       -0.45627728 -0.52034444 0.008672768 0.10150574
000100 41 24 2e bf 8d 76 3d bd c2 b2 58 3e 92 4f a9 be
       -0.6802407 -0.046255637 0.2116194 -0.3306852
000110 7f f6 93 3d 58 e7 29 bf 5d 37 73 be 98 64 c2 bd
       0.0722475 -0.6636863 -0.23751588 -0.09491843
000120 39 d6 77 3e 78 c6 1d bf b9 6f 86 be df b7 4b bf
       0.24202813 -0.61630964 -0.26257113 -0.7957744
000130 e5 d6 c2 bf b5 29 c3 be 20 83 ac be a7 fb 6c be
       -1.5221831 -0.38117757 -0.3369379 -0.23142873
000140 6c 40 b8 be ec 29 51 bd f7 7b e8 be d4 a5 d7 3b
       -0.3598665 -0.05106537 -0.45407078 0.0065810475
000150 6b 63 fc be 93 c9 89 3e 85 1d a2 3d 88 a0 b4 3e
       -0.492946 0.269116 0.07915787 0.35278726
000160 a2 aa 45 be b6 7a 6c bd 8a a7 d3 be d6 1f 8a bd
       -0.19303373 -0.057734214 -0.4133876 -0.067443535
000170 71 56 01 bf eb 03 9c be c0 3b 01 3f 27 97 6e be
       -0.50522524 -0.3047174 0.50481796 -0.23299848
000180 1c 50 b7 be 56 f3 dc be 9d b9 59 be e2 51 30 be
       -0.35803306 -0.431544 -0.21262212 -0.17218736

weight f4 [10, 100]
000000 a7 55 3b 3e 17 ac 92 bd 26 b2 56 bd 21 b2 17 be
       0.18294393 -0.0716173 -0.05241599 -0.14814045
000010 cc 32 ea bc 5c 83 b5 be 42 00 dd 3c a5 cb 10 be
       -0.028588675 -0.35451782 0.026977662 -0.14140184
000020 a6 23 45 3e a1 ea 3b be 3c 93 5e 3e 20 3a 25 be
       0.1925188 -0.18351223 0.21735853 -0.16135454
000030 e3 f4 45 3e d2 bc 4f 3e 1e cf 1f 3d c4 82 27 be
       0.19331698 0.20286873 0.03901588 -0.16358477
000040 c8 c0 5a bd f4 ba 31 be 47 6a 24 3e 7c b0 2a be
       -0.053406507 -0.17356473 0.16056167 -0.16668886
000050 a3 6a 0c be 2d f8 c5 be 29 95 2c 3e c4 99 7d 3e
       -0.13712554 -0.38665906 0.16853775 0.24765688
000060 a9 38 18 3d de 7e 2a 3e 4d da ac 3d 78 f0 ca be
       0.03716341 0.16649958 0.08440075 -0.39636588
000070 20 ec 4e be 3f 78 26 3d bd 98 8c bd 04 f8 c3 bd
       -0.20207262 0.04064202 -0.0686507 -0.095687896
000080 06 9c bc be 5e 00 e8 be 36 a0 22 3e f6 85 25 3d
       -0.36837786 -0.4531278 0.15881428 0.04041096
000090 e2 e0 ef bd 59 5d 22 be 77 4c 56 3e 2c e0 ea 3d
       -0.11712815 -0.15855922 0.20927607 0.11468539
0000a0 42 e6 9c 3e 6d 5d f5 bd 82 aa 80 3d f1 a0 39 3d
       0.30644423 -0.1198071 0.06282522 0.0453195
0000b0 e7 d1 4d bc 98 3f f7 bc a2 eb 48 3e 24 d9 4d bd
       -0.012562252 -0.030181691 0.19621137 -0.05025591
0000c0 f4 e6 1a 3e 7d 7b 45 3b 90 72 69 bc 74 89 7d 3c
       0.15127164 0.003013342 -0.014248505 0.015474666
0000d0 ff 13 13 bb d1 23 a6 3e 33 30 09 bf bc d3 88 be
       -0.0022442339 0.324492 -0.5358917 -0.2672404
0000e0 91 a3 13 bd 40 74 09 be bc f7 d4 be 0e 0f 7c be
       -0.03604466 -0.13423252 -0.41595256 -0.24615118
0000f0 dd 8b 9a be 0f a4 5b 3c b4 3f cb 3d 01 3e d6 3d
       -0.30184832 0.013405814 0.0992426 0.10461045
000100 81 eb 2c 3d f9 57 58 be c5 19 79 3e 9e 87 82 be
       0.04221678 -0.21127309 0.24326237 -0.25494093
000110 c5 7a 9a 3d be a0 26 be 58 10 20 bc 77 e6 40 3c
       0.07542948 -0.16272256 -0.009769522 0.011773697
000120 9f 8e b2 bd 00 32 e9 bc bf 44 04 be 8e 3c ad 3b
       -0.08718609 -0.028466225 -0.1291685 0.0052867597
000130 72 37 87 be e7 f1 8d bd 29 e9 2a 3d 06 c0 f6 bd
       -0.2640949 -0.06930905 0.041726265 -0.12048344
000140 45 df 5b 3e ec 38 d8 be ec 90 b5 be 08 a9 64 bd
       0.2147189 -0.42230928 -0.3546213 -0.055825263
000150 1d ce c2 be e2 6d 49 3d a8 2d 09 be 29 9c b8 bc
       -0.38047877 0.049177058 -0.13396323 -0.0225354
000160 9e b1 69 3d 2e 6d 4f be 80 e1 5e be 37 5a 68 bd
       0.057054155 -0.20256492 -0.21765709 -0.05672666
000170 cd 68 a9 be a8 46 d7 be 3d 00 c6 bb af 7a f1 bd
       -0.3308777 -0.42046094 -0.006042509 -0.11790978
000180 ba 87 aa 3e 7a f4 be 3d 04 c3 91 be ca b3 93 be
       0.33306676 0.09323974 -0.28469098 -0.28848106
000190 2c 8d 0a 3e 03 c2 86 3d 7b 28 f2 3d e0 34 6a be
       0.13530415 0.065799735 0.11824127 -0.22871733
0001a0 8b 41 23 3d bc 3d 80 3e 10 68 77 bc cb 29 02 3d
       0.03985743 0.250471 -0.015100494 0.031778138
0001b0 f5 d0 0f 3e 3b 44 6e be d8 e3 d4 bd 66 56 5b be
       0.14044555 -0.23268215 -0.1039502 -0.21419677
0001c0 fa a5 3c be 93 37 99 bd 58 40 45 be 2a d3 25 be
       -0.1842269 -0.07481303 -0.19262826 -0.16193834
0001d0 b1 b8 98 be 31 57 9f be 88 16 45 be 4a c6 33 be
       -0.29828408 -0.3112121 -0.19246876 -0.1755611
0001e0 82 e7 55 bd 4a fd 51 3e aa 84 76 be d5 f6 c3 bd
       -0.052222736 0.20506778 -0.24074045 -0.09568564
0001f0 1a 18 05 3e 51 71 9f 3e 6c b1 7d bd 68 98 fb bd
       0.12997475 0.3114114 -0.06193678 -0.122849286
000200 5f 63 af 3d 9e 28 86 be eb 29 3f 3e fc 96 83 bd
       0.085638754 -0.26202863 0.18668334 -0.06425282
000210 11 10 5c be 6c a5 3c be 88 8f e4 be 05 72 fb 3b
       -0.21490504 -0.18422478 -0.44640756 0.0076735043
000220 db 25 cf bd 1f 0e 8a 3d ca 9e e3 3d 2f af 29 be
       -0.10114642 0.06740975 0.11114271 -0.16570733
000230 14 e6 68 be bc 55 53 be c2 ee 61 3d 6d 41 90 bd
       -0.22744018 -0.20638174 0.055159338 -0.07043729
000240 44 90 2e bb be 91 65 be 38 b4 82 bd 23 16 b1 bd
       -0.0026636282 -0.22418877 -0.0638203 -0.086468
000250 7e 89 39 3d b9 ec 06 bf f7 b5 1a be 2d 7b b1 bd
       0.04529714 -0.5270496 -0.15108477 -0.08666072
000260 24 8e e2 3d 17 e5 a4 bd 24 cf 4f 3e f8 a6 6a 3e
       0.110622674 -0.08051508 0.20293862 0.22915256
000270 bb 5b c4 be 25 4c 5b be 80 98 02 3e a8 be 12 3e
       -0.38351235 -0.21415766 0.12753487 0.14330542
000280 d0 03 05 3e 7e a5 0f 3e 09 18 be 3d 23 73 11 bd
       0.12989736 0.14027974 0.09281928 -0.035510194
000290 2b 46 95 bd e5 68 9b be 04 d0 8f be 1d ad 8b 3d
       -0.07288774 -0.30353466 -0.2808839 0.06820128
0002a0 0d e2 9b be a5 d5 a3 3e 47 24 26 be c8 fc ab 3d
       -0.304459 0.31998935 -0.16224776 0.083978236
0002b0 9e 0e ae 3e 24 ed 10 bd 55 2e d8 3d ec 1a fb be
       0.33995527 -0.035382405 0.10555712 -0.49043977
0002c0 08 75 0d 3c 22 50 76 3e 5c d0 be bd ff 7e 94 be
       0.008633859 0.24054006 -0.09317085 -0.2900314
0002d0 f7 10 bc be d9 35 1c bd c7 e4 ea 3e 85 6b 49 be
       -0.36731693 -0.03813729 0.45877668 -0.19669922
0002e0 f0 66 d3 3d 23 8b 53 be 3f 06 90 3b 35 90 60 be
       0.10322368 -0.20658545 0.004395276 -0.2193001
0002f0 a6 24 dc bd ab b4 24 be ed f6 18 3e 85 30 62 3d
       -0.10749178 -0.16084544 0.14937945 0.055222053
000300 f4 11 2b 3e 4d 67 27 be 03 4f a1 be dc 36 16 bb
       0.16706067 -0.16348 -0.31505594 -0.0022920882
000310 bc b6 49 be 3f 85 4f bd 33 ee fb bd fd 89 c8 3d
       -0.19698614 -0.050664183 -0.12301292 0.09791944
000320 89 86 b0 bd 86 a4 50 bd f6 1f f0 3d eb 90 1e be
       -0.086194105 -0.05093815 0.11724846 -0.1548497
000330 1a fc 04 be 5a ca ae 3d c0 87 ed 3c 8c fc 8c 3d
       -0.12986794 0.08534689 0.028995395 0.06884107
000340 b2 5d c7 bd bd 8d a0 bd 29 89 92 bd 90 25 55 be
       -0.09734668 -0.078395344 -0.071550675 -0.2081511
000350 15 ab ea bd f3 19 6a 3c 7d da fb bd c3 c5 80 be
       -0.114584126 0.014288413 -0.12297533 -0.2515088
000360 61 43 31 3e 3b 32 ec bc ba b5 0a 3d f8 b5 47 be
       0.1731086 -0.028832546 0.033864714 -0.1950301
000370 cd e2 62 3e f8 3d c7 bd 5b ce 5e 3e 6a fd 2b 3e
       0.2215683 -0.097286165 0.21758406 0.16795889
000380 cd 23 59 be 56 42 ec bc 1b bd 0f 3d f0 5c c2 3d
       -0.21205063 -0.028840225 0.035092454 0.09490383
000390 63 08 e3 3d 1b 4c b5 be dc 37 a2 3b b3 89 51 be
       0.11085584 -0.35409626 0.0049505066 -0.20462684
0003a0 65 a3 96 bd c5 b3 35 be a8 2a 13 be c9 bb e9 bd
       -0.07355384 -0.17744358 -0.14371741 -0.1141277
0003b0 15 82 e8 bd 40 e2 46 3d 63 72 27 be 2e d2 13 bf
       -0.11352936 0.048555613 -0.16352229 -0.57742584
0003c0 8a 50 88 3d 41 d0 f3 3b 82 df c2 bd 95 94 9b 3d
       0.066559866 0.0074405973 -0.09515287 0.07596699
0003d0 bb fd 52 3d 6a dd 93 bd 56 96 76 3e b9 4d e9 3d
       0.051511507 -0.07219966 0.24080786 0.113917775
0003e0 e2 33 3a 3d 92 ee 99 bc a7 52 1f bd f3 38 2b 3d
       0.045459636 -0.018790517 -0.038897183 0.041802358
0003f0 18 20 db 3c 1f 12 88 bc f9 59 98 be 00 92 c6 3c
       0.026748702 -0.016610203 -0.29756144 0.02423954

bias f4 [10]
000000 94 de 97 be 6c 90 25 bf c6 82 9e 3c 96 e8 c0 be
       -0.29662 -0.64673495 0.019349467 -0.3767745
000010 6c c5 78 be fd d6 67 3e 44 32 ac be a4 98 8c be
       -0.2429406 0.22640605 -0.336321 -0.27460206
000020 7e 18 9b 3f 75 13 36 3d
       1.211685 0.04445215
