mlartifacts/0/b087983e82344f199555128a82d75516/artifacts/mnist_mlp/data/model.pth (torch, 69440 bytes, 4 tensors)

weight f4 [20, 784]
0	0x3c91bd2c	0.0177904
1	0xbcf23a88	-0.029568925
2	0x3c1dc82a	0.009630242
3	0x3c01efce	0.007930709
4	0x3c08ee9c	0.00835767
5	0x3cb518cc	0.02210655
6	0x3c7617a1	0.015020282
7	0x3c234a45	0.009966438
8	0xbcce8d31	-0.02521381
9	0x3c46c2e5	0.012131427
10	0xbb7141ee	-0.0036812979
11	0x3d09f7b7	0.033683505
12	0xbd0c97fc	-0.03432463
13	0xbafbb912	-0.0019204936
14	0x3d013270	0.03154224
15	0xbce1f1e5	-0.027581165
16	0x3ca4e6b3	0.020129537
17	0xbc94a55e	-0.01814526
18	0xbb520393	-0.0032045587
19	0x3d073fe5	0.03301992
20	0x3c612bb3	0.013743329
21	0xbbb31ee5	-0.0054663294
22	0x3d04bf9e	0.032409303
23	0xbcd4590a	-0.025921363
24	0x3ca2444e	0.01980796
25	0xbabf19dc	-0.001457985
26	0xbca1c710	-0.01974824
27	0x3c15a025	0.00913242
28	0x3cf8ba15	0.030362168
29	0x3cb9700c	0.022636436
30	0xbb4dd425	-0.0031406966
31	0xba85ebdc	-0.0010217386
32	0xbb9f4c52	-0.004861393
33	0xbcbc85e9	-0.023013072
34	0xbca8637c	-0.02055525
35	0xbcfd93c3	-0.030954247
36	0xbd9c1ada	-0.07622309
37	0xbd94a783	-0.07258513
38	0xbd3f6744	-0.04672934
39	0xbd66be35	-0.05633374
40	0xbd778b65	-0.06043567
41	0xbd27211c	-0.04080306
42	0xbd698b8d	-0.05701785
43	0xbd90f745	-0.07078413
44	0xbd293a84	-0.04131557
45	0xbd1942ee	-0.037417345
46	0xbcd019b5	-0.025402883
47	0xbcc1a1a9	-0.023636656
48	0xbc94889f	-0.018131552
49	0xbd00cc3e	-0.03144478
50	0xbcb59ce3	-0.022169536
51	0xba000ee1	-0.00048850296
52	0xbc14d360	-0.009083599
53	0xbc1c592e	-0.0095427465
54	0xbce563aa	-0.028001625
55	0x3c9ffce5	0.01952977
56	0x3ba1c225	0.004936474
57	0xbc12c613	-0.008958357
58	0x3c8e2175	0.017349938
59	0xbc7860a2	-0.015159758
60	0x3c8f123e	0.017464753
61	0xbd0cb823	-0.034355294
62	0xbcc77b0d	-0.024350667
63	0xbdf05b08	-0.11736113
64	0xbdf82bba	-0.12117715
65	0xbe01a974	-0.12662297
66	0xbe1476d6	-0.14498457
67	0xbe20fc40	-0.15721226
68	0xbe145f3e	-0.14489457
69	0xbe317bf2	-0.17332438
70	0xbe3b5868	-0.18295443
71	0xbe1d3a53	-0.1535428
72	0xbde2197d	-0.11040018
73	0xbe036e50	-0.1283505
74	0xbdc642d3	-0.096807145
75	0xbd97859f	-0.07398533
76	0xbe0a2f3d	-0.13494582
77	0xbdb61133	-0.08889999
78	0xbdf846f4	-0.12122908
79	0xbdc6f46a	-0.09714587
80	0xbd369751	-0.0445779
81	0xbc7774e2	-0.015103551
82	0xbc893dea	-0.016753156
83	0xbcf9d23c	-0.030495755
84	0x3b8d65b7	0.004315104
85	0x3c002ebc	0.007823642
86	0xbc1fe432	-0.009758996
87	0x3c1435d6	0.009046039
88	0xbcd6a3fc	-0.02620124
89	0x3c705b47	0.0146702
90	0xbdc1f2b7	-0.09470122
91	0xbddbe574	-0.10737124
92	0xbdd68264	-0.10474089
93	0xbdc9fe34	-0.098629385
94	0xbdbbac3c	-0.091637105
95	0xbdec6940	-0.11543512
96	0xbd9de6d9	-0.07710046
97	0xbdee1273	-0.11624613
98	0xbde8587b	-0.11345001
99	0xbda2f002	-0.07955934
100	0xbd984438	-0.07434887
101	0xbdb1f0c8	-0.086885035
102	0xbdfd0d2d	-0.12356029
103	0xbe37a75f	-0.17934941
104	0xbe4287b0	-0.18997073
105	0xbe41c8b1	-0.18924214
106	0xbe2e2cd0	-0.17009282
107	0xbdce1847	-0.10063224
108	0xbd9ca8d9	-0.07649393
109	0xbad31cec	-0.0016106642
110	0x3b95998d	0.004565424
111	0x3c9e000e	0.019287135
112	0x3b47094a	0.0030370527
113	0x3c1adcf4	0.009452093
114	0xbc45ea2c	-0.012079757
115	0x3c9b8522	0.018984381
116	0x3b84cbd3	0.004052618
117	0x3ce24469	0.027620511
118	0xbce16c40	-0.027517438
119	0xbd56ca9d	-0.05243932
120	0xbd2b432f	-0.04181212
121	0xbc4c5cce	-0.012473298
122	0xbc4f7a2a	-0.0126634035
123	0xbc67b822	-0.014143022
124	0xbd54184a	-0.051780976
125	0xbc50d658	-0.012746416
126	0xbb713859	-0.0036807267
127	0xbd30bf2a	-0.04315106
128	0xbd474747	-0.04865196
129	0xbd6fadc0	-0.05851531
130	0xbdd0e9eb	-0.10200866
131	0xbe05324c	-0.13007468
132	0xbe07db5e	-0.13267276
133	0xbe1f7443	-0.15571694
134	0xbe40ef58	-0.18841302
135	0xbe0f7b35	-0.14011844
136	0xbd670688	-0.056402713
137	0x3d53876f	0.05164283
138	0x3d16e5b3	0.036840152
139	0x3cd6d9fb	0.026226988
140	0xbc315a7c	-0.010824796
141	0x3ccb0cfc	0.024786465
142	0x3c675670	0.014119729
143	0x3d814cb1	0.06313456
144	0x3d0ced1d	0.034405816
145	0x3d06f7ee	0.032951288
146	0x3db87ad8	0.090078056
147	0x3cf830aa	0.030296642
148	0x3d1bf27d	0.03807305
149	0x3d896b59	0.06709928
150	0x3d830614	0.06397644
151	0x3ca9be41	0.020720603
152	0x3d40ae0e	0.04704099
153	0x3d970c8b	0.07375439
154	0x3dc7827f	0.09741687
155	0x3e043ba6	0.12913379
156	0x3ddff3d3	0.10935178
157	0x3dbc5028	0.09194976
158	0x3d369f70	0.044585645
159	0x3c938335	0.0180069
160	0xbd4b1049	-0.049576078
161	0xbd8604e0	-0.065438986
162	0xbdb4f6c1	-0.08836127
163	0xbde18003	-0.110107444
164	0xbd976037	-0.073913984
165	0x3d4977a8	0.04918638
166	0x3c54657c	0.012963649
167	0x3a805119	0.0009789794
168	0xbc99fd57	-0.01879756
169	0x3d721fc5	0.05911233
170	0x3c9f0fba	0.019416679
171	0x3d8257f8	0.06364435
172	0x3de5fdc9	0.11230046
173	0x3df0079d	0.11720202
174	0x3e012044	0.12609965
175	0x3daf0dd1	0.08547557
176	0x3e1764b6	0.14784512
177	0x3e1be3b7	0.15223585
178	0x3df33d67	0.11876946
179	0x3dde0134	0.10840073
180	0x3d8fa4bb	0.07013842
181	0x3ded63a9	0.11591274
182	0x3d8800e7	0.06640797
183	0x3e002bb9	0.12516679
184	0x3dfbb77f	0.122908585
185	0x3e0fef06	0.14056024
186	0x3e136921	0.14395572
187	0x3d457b67	0.04821339
188	0x3d52b6fe	0.051444046
189	0x3d631926	0.055443905
190	0x3d9118e5	0.070848264
191	0x3d82d0c7	0.06387477
192	0x3d734feb	0.059402388
193	0x3e0ecc8e	0.13945219
194	0x3d409991	0.047021452
195	0x3d5570a3	0.052109372
196	0x3c80ecdf	0.015737949
197	0x3d70915c	0.058732376
198	0x3c0b88a8	0.008516468
199	0x3e303185	0.1720639
200	0x3e2a6a7d	0.16642185
201	0x3e1722f0	0.14759421
202	0x3e3a83fe	0.18214414
203	0x3e21bc37	0.15794455
204	0x3e469276	0.19391808
205	0x3e5c93a0	0.2154069
206	0x3e1ba023	0.15197806
207	0x3e38a738	0.18032539
208	0x3e0c9311	0.13727976
209	0x3d9ee95f	0.07759356
210	0x3d96a788	0.07356173
211	0x3d1ce7a8	0.038306862
212	0x3e0afcd0	0.13573003
213	0x3e1334bf	0.1437559
214	0x3e0cb391	0.13740374
215	0x3e2b2fa3	0.1671739
216	0x3dc62dad	0.09676681
217	0x3dd73c3f	0.10509538
218	0x3dc4566b	0.095867954
219	0x3e129d40	0.14317799
220	0x3e0fe94d	0.14053841
221	0x3e06758c	0.13130778
222	0x3d212d87	0.03935006
223	0xbb1cacfb	-0.0023906815
224	0x3c315e9a	0.010825777
225	0x3d56ccaa	0.052441277
226	0x3d90c8e6	0.07069568
227	0x3e1155d7	0.14192902
228	0x3e35b2ab	0.17743938
229	0x3e15398b	0.14572732
230	0x3e4e3e8f	0.20141052
231	0x3e2a8dfa	0.16655722
232	0x3e47320b	0.19452684
233	0x3e09347c	0.13398927
234	0x3e2a8b23	0.16654639
235	0x3e036685	0.12832077
236	0x3e1238ed	0.14279528
237	0x3db1a07a	0.086731866
238	0x3dbe766b	0.0929993
239	0x3e191e71	0.14953019
240	0x3e2caad5	0.16862042
241	0x3e49bee4	0.19701725
242	0x3e414e20	0.18877459
243	0x3e323c27	0.17405759
244	0x3e1d2de6	0.1534954
245	0x3e33e456	0.17567572
246	0x3e5bcf87	0.21465884
247	0x3e7945d5	0.24343045
248	0x3e8313fc	0.25601184
249	0x3e04a025	0.12951715
250	0x3da7de19	0.08196659
251	0x3a7c9108	0.00096346484
252	0x3bb691b4	0.0055715684
253	0x3d59e096	0.053192697
254	0x3d8848c7	0.06654506
255	0x3e34d52f	0.17659448

bias f4 [20]
0	0x3ca77206	0.020440113
1	0x3d82b61f	0.06382393
2	0xbd8ba0fa	-0.06817813
3	0xbb4ec54e	-0.0031550708
4	0x3c7762dc	0.0150992535
5	0x3cee3ac0	0.029080749
6	0x3e58d42d	0.21174689
7	0x3cd690f9	0.026192175
8	0x3e1cd007	0.15313731
9	0x3cc4f057	0.024040384
10	0x3da0a21c	0.0784342
11	0x3e79886e	0.2436845
12	0x3e24b86f	0.16085981
13	0xbdb490fa	-0.088167146
14	0x3e5b723c	0.21430296
15	0x3e25c97c	0.16190141
16	0x3d738039	0.059448455
17	0x3da309ac	0.07960829
18	0xbd7d83c8	-0.061893255
19	0x3d833c32	0.06407966

weight f4 [10, 20]
0	0x3e86d072	0.26330906
1	0x3e576f47	0.21038543
2	0x3c828742	0.015933637
3	0xbf03f589	-0.5154653
4	0xbe5eaff3	-0.21746807
5	0xbe73f124	-0.23822457
6	0x3e66e630	0.22548747
7	0x3e84b418	0.2591865
8	0x3e7a1699	0.24422683
9	0x3dc98329	0.0983947
10	0x3daaf1f3	0.083469294
11	0xbe802a48	-0.25032258
12	0xbec9cd17	-0.39414284
13	0x3ec79b7d	0.38985816
14	0xbe3884c2	-0.18019393
15	0xbe87a248	-0.26490998
16	0xbec02441	-0.3752766
17	0xbe6c6cbf	-0.23088358
18	0xbee86cdf	-0.45395562
19	0xbedec486	-0.4350931
20	0xbeeb9551	-0.46012357
21	0xbe400ea9	-0.18755592
22	0xbef5d11c	-0.480111
23	0xbeb60ed6	-0.35558194
24	0x3db62039	0.08892865
25	0x3e47135f	0.19440983
26	0xbf04223f	-0.51614755
27	0x3df333b5	0.11875097
28	0xbeab7d4d	-0.33494034
29	0xbe9fc7c1	-0.31207088
30	0xbe87da53	-0.26533756
31	0x3e67b609	0.22628035
32	0x3e09aa09	0.1344377
33	0xbeb7ced9	-0.359
34	0x3e9f4576	0.31107682
35	0x3ed6f3a9	0.41982773
36	0x3ed21eaa	0.4103902
37	0x3d9fd89a	0.07804985
38	0x3e856c61	0.2605925
39	0x3d9deb32	0.077108756
40	0xbe42972d	-0.19002981
41	0x3d82c799	0.063857265
42	0x3e6d8242	0.2319422
43	0xbf01fec0	-0.5077934
44	0x3e9434d4	0.28946555
45	0xbd1a3227	-0.037645485
46	0xbe5685d7	-0.20949493
47	0x3e515d12	0.2044566
48	0x3e3af2b8	0.18256652
49	0xbeed0d0d	-0.4629902
50	0x3eb76521	0.35819343
51	0x3dc2a3aa	0.09503873
52	0xbe89f989	-0.26948193
53	0xbd5072da	-0.05089078
54	0xbe9366bf	-0.28789327
55	0x3ebd002d	0.36914197
56	0xbe8a1e53	-0.2697626
57	0x3ea29ad6	0.31758755
58	0xbc6fdeec	-0.014640551
59	0x3e582b14	0.21110183
60	0x3eab5bd7	0.33468506
61	0xbe8018c4	-0.25018895
62	0x3d5d663d	0.05405258
63	0xbe05b406	-0.13056955
64	0xbd47953a	-0.048726298
65	0xbeaeb0b0	-0.34119177
66	0xbe843c34	-0.2582718
67	0x3e73f2f3	0.23823147
68	0xbeae0be3	-0.33993444
69	0xbeee60c7	-0.4655821
70	0x3e822c7a	0.25424558
71	0xbe8fbda5	-0.28074375
72	0x3c9b45d1	0.01895419
73	0x3e714ae9	0.23563732
74	0x3ecf1276	0.40443772
75	0xbee08c6e	-0.4385714
76	0xbdaf9604	-0.08573535
77	0xbe68ff0d	-0.22753544
78	0x3e3f9a6b	0.1871125
79	0x3eb8bf32	0.3608337
80	0xbd707846	-0.05870845
81	0xbf0e40a7	-0.555674
82	0x3d90c539	0.07068867
83	0xbd0c7c1a	-0.03429804
84	0xbecb9509	-0.39762142
85	0x3ee908da	0.45514566
86	0x3eafc4b8	0.34329772
87	0xbf117ddc	-0.5683267
88	0xbeb1f8ae	-0.3476004
89	0x3e5e0a10	0.21683526
90	0x3eaca442	0.3371907
91	0x3e8dd26d	0.27699605
92	0xbdef6f04	-0.116910964
93	0xbe92897d	-0.2862052
94	0xbdb31dbe	-0.08745907
95	0xbe7dca45	-0.24784191
96	0x3d5c49ed	0.05378144
97	0x3dcadb61	0.099051245
98	0xbe9e2848	-0.30890107
99	0xbe445dce	-0.19176409
100	0x3e010e3d	0.12603088
101	0xbe92c9bc	-0.28669536
102	0xbd80af0a	-0.06283386
103	0x3e8227ca	0.25420982
104	0x3e24707f	0.16058539
105	0xbeb1e0ab	-0.3474172
106	0x3de95088	0.11392313
107	0x3e45ae1b	0.19304697
108	0x3ea7b585	0.32755676
109	0x3d1e4287	0.038637664
110	0xbe1c9d8d	-0.15294476
111	0x3ca0a4ae	0.019609775
112	0xbecb648f	-0.39725158
113	0x3c13d708	0.009023435
114	0x3ec22654	0.37919867
115	0xbdc32930	-0.0952934
116	0xbe47396c	-0.19455498
117	0xbd86e12a	-0.065859154
118	0xbeaaf748	-0.33391786
119	0xbeca57be	-0.39520067
120	0xbed55bb9	-0.4167154
121	0x3e526009	0.20544447
122	0x3d1099a5	0.035302777
123	0xbb29926c	-0.0025874628
124	0xbf023194	-0.508569
125	0x3e57e2f7	0.21082674
126	0xbd964b6a	-0.07338603
127	0xbed65e3a	-0.41868764
128	0x3ec6147e	0.3868751
129	0x3e25ebcb	0.16203229
130	0x3cfecf01	0.031104567
131	0xbe93fb00	-0.28902435
132	0x3e579c0f	0.21055625
133	0xbcb442e9	-0.022004561
134	0xbec66b0a	-0.3875354
135	0x3dc14a2a	0.09437974
136	0xbe2cfd93	-0.16893606
137	0x3e4b0019	0.19824256
138	0x3e870933	0.26374206
139	0xbebef919	-0.3729942
140	0x3ead7f89	0.33886364
141	0x3eb3388f	0.35004088
142	0xbe7f809e	-0.24951407
143	0xbf0370e0	-0.5134411
144	0x3ead0372	0.3379169
145	0xbef48a15	-0.47761598
146	0x3ea2966b	0.31755385
147	0xbe98bab3	-0.2982994
148	0xbebf04c6	-0.3730833
149	0xbc325636	-0.010884812
150	0xbeb471ce	-0.35243076
151	0x3ece2e9b	0.40269932
152	0x3e185730	0.1487701
153	0xbecfa08a	-0.4055217
154	0xbe3ed4c8	-0.18635857
155	0xbe81bb70	-0.25338316
156	0xbe42988a	-0.19003502
157	0xbec4e4bd	-0.38455763
158	0x3c84832f	0.016175834
159	0x3e4f8691	0.20266177
160	0x3e12b163	0.1432548
161	0x3d6999a2	0.05703128
162	0x3df60c14	0.120140225
163	0x3d22ed70	0.03977722
164	0x3e95cf36	0.29259652
165	0x3e8756b2	0.2643333
166	0xbe1a2176	-0.15051827
167	0x3d7aece2	0.061261065
168	0xbe857d26	-0.26072043
169	0x3e76b6be	0.24093148
170	0xbeabb8cb	-0.33539423
171	0x3cd99b63	0.026563352
172	0xbec1aad5	-0.37825647
173	0x3cfc73b1	0.030816885
174	0xbe2e3fcc	-0.17016524
175	0xbe9c84ae	-0.30569977
176	0x3e9124b8	0.28348327
177	0x3d77da62	0.060511
178	0x3e913b0f	0.2836537
179	0xbdf7f11d	-0.121065356
180	0xbe360e68	-0.17778933
181	0xbea3b72a	-0.3197568
182	0x3e8f804e	0.28027576
183	0xbc862461	-0.016374769
184	0xbee4c8d2	-0.44684464
185	0xbed6613f	-0.41871068
186	0x3c81dfc4	0.01585377
187	0x3e3e9712	0.18612316
188	0xbef6669c	-0.4812516
189	0x3eb5e38b	0.35525164
190	0xbe5d256b	-0.21596305
191	0x3e891aa5	0.2677814
192	0x3ebe84b1	0.3721061
193	0x3e43022a	0.19043794
194	0xbec88b3e	-0.39168733
195	0x3eae67c8	0.34063554
196	0xbd0e2991	-0.03470761
197	0xbf01b01b	-0.5065934
198	0xbef00c4e	-0.46884388
199	0x3e392e3b	0.18084042

bias f4 [10]
0	0xbe1a4d6a	-0.15068594
1	0x3eb38b9c	0.3506745
2	0xbdf51424	-0.11966732
3	0xbd4c8c51	-0.049938504
4	0x3e600ae6	0.21879157
5	0x3b97fd2c	0.0046383347
6	0x3c44eacf	0.012018873
7	0x3e0461ef	0.12927984
8	0xbeb5035b	-0.35354123
9	0xbbc1c4e2	-0.005913363
