mlartifacts/0/0973194fe8974889849e68100e446db0/artifacts/mnist_mlp/data/model.pth (torch, 101184 bytes, 4 tensors)

weight f4 [30, 784]
0	0x3c6e2a78	0.0145364925
1	0x3c1cb94e	0.009565664
2	0xbc6886a5	-0.014192258
3	0x3caa2a4c	0.020772122
4	0xbbc78fe5	-0.0060901516
5	0xbc51b68a	-0.012799868
6	0xbc036cfc	-0.008021589
7	0xbd0bd56f	-0.034139093
8	0x3d11e02c	0.035614178
9	0x3ce798d1	0.02827111
10	0xbc858a15	-0.016301194
11	0x3a48f401	0.0007665754
12	0xbaeb954b	-0.001797357
13	0xbf155d67	-0.58345646
14	0xbf1fb03b	-0.6237828
15	0xbd4a68d0	-0.049416363
16	0x3c9c440c	0.019075416
17	0xbc553737	-0.0130136525
18	0x3ba32d37	0.0049797553
19	0x3c4b8681	0.012422205
20	0x3d014dad	0.031568218
21	0x3acccd6e	0.0015625188
22	0xbca089fe	-0.01959705
23	0xbc520f0e	-0.012820972
24	0x3cb9998a	0.022656221
25	0xbcc9809c	-0.024597459
26	0x3d0201ec	0.031740114
27	0xbcb0d1d5	-0.02158443
28	0x3c93a31c	0.018022113
29	0x3ca5a7d7	0.020221634
30	0x3cd777f1	0.02630231
31	0xbcbfd08a	-0.023414869
32	0xbc133a5c	-0.008986082
33	0x3c78be13	0.015182036
34	0xbc2d4bd7	-0.010577164
35	0x3c007f89	0.007842907
36	0xbe8458b4	-0.25848925
37	0x3ee566a4	0.4480487
38	0x3eff3195	0.49842516
39	0xbe52222d	-0.2052085
40	0xc00f46ce	-2.2386966
41	0xc0372f82	-2.8622746
42	0xc058ef49	-3.3896048
43	0xbffe263e	-1.985542
44	0xc00fbb07	-2.2457902
45	0xc0217848	-2.5229664
46	0xbf1c413a	-0.6103703
47	0xbf0f4fa9	-0.55980927
48	0xbcf259db	-0.029583862
49	0x3ca978d1	0.020687493
50	0xba9d8f93	-0.0012020938
51	0xba1d8800	-0.000600934
52	0xbd060ba5	-0.03272595
53	0xbcb538d7	-0.02212183
54	0x3c10d8ae	0.008840723
55	0x3cbd4ca3	0.023107832
56	0x3c646f8e	0.013942612
57	0xbce20d25	-0.027594158
58	0x3b35a8ca	0.0027719014
59	0x3cb92151	0.022598894
60	0xbd042ed7	-0.032271232
61	0xbd384c51	-0.044994656
62	0xbf21b430	-0.6316557
63	0xbf144ba4	-0.5792792
64	0xbff705cf	-1.9298648
65	0xbf5a0169	-0.851584
66	0xbf3a5bb9	-0.7279621
67	0xbf185d70	-0.59517574
68	0xbf0af913	-0.5428631
69	0xbf1cf0ff	-0.6130523
70	0x3f353a18	0.7079177
71	0xc02acae0	-2.6686325
72	0xc045b3e9	-3.0891058
73	0xc076155d	-3.845054
74	0xbf27d1bc	-0.65554404
75	0xc04b11c0	-3.1729584
76	0xbedf4b3e	-0.43612093
77	0xbf3c1bd1	-0.73479944
78	0xbe815167	-0.25257418
79	0xbc25a9de	-0.0101113
80	0xbc856820	-0.016285002
81	0xbcf4767e	-0.029841658
82	0xbc78ef1c	-0.015193727
83	0xbb87ff93	-0.00415034
84	0xbc0b6bd7	-0.008509598
85	0x3bf42a5c	0.0074513387
86	0x3ceb1955	0.028698603
87	0x3cd094ed	0.025461638
88	0x3c3c3eeb	0.01148961
89	0x3f974967	1.1819276
90	0x4062919d	3.5401375
91	0x40105636	2.255262
92	0x40725e1c	3.786994
93	0x4088ad4f	4.271156
94	0xbdf9430a	-0.1217099
95	0xbe81ac34	-0.25326693
96	0xbeac4119	-0.33643416
97	0xbd8c92a7	-0.06863909
98	0x402e3e6a	2.7225595
99	0xc00b7708	-2.17914
100	0xc0468094	-3.1015978
101	0xc05687c4	-3.3520365
102	0xbfc18f9e	-1.5121953
103	0xbfeee2c6	-1.8662956
104	0x3d431720	0.047629476
105	0xbe04c0b0	-0.1296413
106	0xbb809e6d	-0.003925136
107	0x3ffd7649	1.9801723
108	0xbf0c61ad	-0.5483654
109	0xbf03b506	-0.51448095
110	0x3d1a8cfd	0.037732113
111	0xbce6b78e	-0.028163698
112	0x3b4f6edc	0.003165177
113	0x3d352759	0.044226978
114	0xbcf191ac	-0.029488407
115	0x3e52737e	0.2055187
116	0x3da3aa71	0.079914935
117	0x40903e36	4.507594
118	0x40efbf01	7.492066
119	0x40b95bdc	5.7924633
120	0x408fb927	4.4913516
121	0x3ef557fb	0.47918686
122	0xbe83a10d	-0.2570881
123	0xbf5ab7d5	-0.85436755
124	0xc021c898	-2.5278683
125	0xbe007ab9	-0.12546815
126	0xbf73bbbb	-0.9520833
127	0xc0764407	-3.847902
128	0xc0933d30	-4.601219
129	0xc0b194e5	-5.5494256
130	0xbfd6fdc3	-1.6796192
131	0x3fd1603a	1.6357491
132	0x3f22f83c	0.63660026
133	0x3fa57a93	1.2928032
134	0x407b2937	3.9243906
135	0x408ca790	4.3954544
136	0x4032bf00	2.7929077
137	0x3f1ce82a	0.61291754
138	0xbc70c28b	-0.01469482
139	0xbc148b00	-0.009066343
140	0x3b909f4a	0.00441352
141	0x3ce17523	0.027521675
142	0xbd084267	-0.03326645
143	0xbf30b5ce	-0.6902741
144	0xbfbc6b8d	-1.4720322
145	0x40481081	3.1260073
146	0x3f454503	0.7705843
147	0x3facd6d2	1.3503058
148	0x3f5d175d	0.86363775
149	0x3f2e07fa	0.6798092
150	0x3fa2bff6	1.2714832
151	0x4046e308	3.107607
152	0x407532dc	3.8312292
153	0xbf73d900	-0.9525299
154	0xc072c6e1	-3.7933886
155	0xc0d36f00	-6.6073
156	0xc1070bce	-8.440382
157	0xc0c37048	-6.107456
158	0x3f83738c	1.0269637
159	0x41329c72	11.163195
160	0x410603b2	8.375902
161	0x409f67ac	4.9814053
162	0x409cdf75	4.9022775
163	0x409153cf	4.5414805
164	0x404e8b48	3.227251
165	0x3f253b08	0.645432
166	0xbf510bb6	-0.81658494
167	0xbc850ba3	-0.0162409
168	0xbcc0b04e	-0.023521569
169	0xbcd9e3ff	-0.026597975
170	0x3d443d2a	0.047909893
171	0xbf152c3f	-0.5827064
172	0xc028421c	-2.629035
173	0x3fd46422	1.6593058
174	0x3fe75cb5	1.8075167
175	0x3f82701a	1.0190461
176	0x3fd1622c	1.6358085
177	0x403efef3	2.9843109
178	0x3fa1df36	1.2646244
179	0x3fc8d88b	1.5691084
180	0xc017cf21	-2.3720171
181	0xc0c27353	-6.0765777
182	0xc0c971bc	-6.2951336
183	0xc0b9ab13	-5.802133
184	0xc0e440dd	-7.132918
185	0xc12a1644	-10.630436
186	0xc0d6f6b7	-6.7176166
187	0xc080c6f8	-4.024288
188	0xc08ce498	-4.4029045
189	0xbfc64681	-1.5490266
190	0x3f30db5b	0.6908471
191	0x3ff46296	1.9092586
192	0x3f905c0d	1.1278092
193	0x401301e4	2.2969904
194	0x3fa98e91	1.3246633
195	0x3bb0c1c5	0.005394193
196	0x3cb1f5b5	0.021723608
197	0xbcc5b57f	-0.024134396
198	0x3ec8d9f2	0.3922878
199	0xbf5e047d	-0.867256
200	0xc011f8eb	-2.2808177
201	0x3f2e48fe	0.6808013
202	0x3e311475	0.1729296
203	0x3f9ac604	1.209168
204	0x401f35d7	2.4876611
205	0x405dbebc	3.4647665
206	0x40eedd43	7.4645095
207	0x4052ee2e	3.2957873
208	0xc049b531	-3.151684
209	0xc01d5644	-2.4583902
210	0x3fb3b4a1	1.4039499
211	0x4016ab7f	2.3542173
212	0x400e53d2	2.223866
213	0x3ea7e413	0.32791194
214	0xbfc3089d	-1.5237004
215	0xc03abc6b	-2.9177501
216	0xbf16f343	-0.5896494
217	0xbfc81da0	-1.5634041
218	0x3f56c5a1	0.8389531
219	0x3f1708b7	0.5899767
220	0x4013207c	2.2988577
221	0x3f519c19	0.8187881
222	0x4010aa47	2.260393
223	0xbe8556a1	-0.26042655
224	0x3cc399a5	0.023876974
225	0x3ff4dad5	1.9129282
226	0x401860a6	2.380899
227	0xbf0a5112	-0.54029953
228	0xbfb4a327	-1.411229
229	0x4006df11	2.107365
230	0xbe286c0a	-0.16447464
231	0x406f17a2	3.7358174
232	0x411f8ea3	9.972323
233	0x4121769f	10.09146
234	0x4135cad4	11.362019
235	0x3facd2d4	1.350184
236	0xbfb9e437	-1.4522771
237	0x3fc0c736	1.5060794
238	0x400932a5	2.143716
239	0x3ff2fd6f	1.8983592
240	0x40664a8d	3.5983002
241	0x3f6051a7	0.8762459
242	0x3ea7e5e3	0.32792577
243	0x3fb33347	1.4000024
244	0x3f63f171	0.89040285
245	0x4026ae39	2.6043837
246	0x40913561	4.537766
247	0x409b9061	4.8613744
248	0x407af191	3.920994
249	0x3fc929f3	1.5715927
250	0x40a92b7e	5.286559
251	0xbeadf166	-0.33973235
252	0x3ce6afc5	0.028159985
253	0x3ff993d6	1.9498241
254	0x40351ec3	2.8300025
255	0xbec1de8f	-0.3786511

bias f4 [30]
0	0x405c3cee	3.4412189
1	0xbf56c65a	-0.8389641
2	0xc055b0b4	-3.33891
3	0x3f42d0ed	0.76100045
4	0xbf9c5488	-1.2213297
5	0x4026e4f8	2.6077251
6	0x3ee03ed4	0.43797934
7	0xc0086afe	-2.1315303
8	0x4000d62f	2.0130727
9	0xc07f46dc	-3.9887
10	0xc097bc50	-4.7417374
11	0x3f169652	0.5882312
12	0xc04d8db5	-3.211774
13	0xbe66d147	-0.2254077
14	0x3d9a470a	0.07533081
15	0xc04623fd	-3.0959466
16	0xbf705aef	-0.93888754
17	0x40a79e6d	5.238089
18	0x3d07e8c3	0.033180963
19	0xc04b37fa	-3.1752915
20	0x3f0cb92c	0.5497005
21	0xc004082f	-2.0629995
22	0xbe9d0c19	-0.30673292
23	0x3fec00de	1.8437765
24	0xc09c1094	-4.8770237
25	0x3ff1ec3c	1.8900218
26	0x4088501a	4.259778
27	0x3f948a26	1.160466
28	0xbf9f3802	-1.2438967
29	0xc0a2504f	-5.0723033

weight f4 [10, 30]
0	0xc023a9ba	-2.5572343
1	0x4026c204	2.6055918
2	0x401aae3b	2.4168842
3	0xc06c7057	-3.6943567
4	0x401d3ff9	2.4570296
5	0xc01d0a1a	-2.4537416
6	0x401e0a14	2.4693651
7	0x400bc172	2.183682
8	0xc07b9b91	-3.93137
9	0xc026cd03	-2.606263
10	0x4025a6d6	2.5883079
11	0xc01fa5e0	-2.4944992
12	0x40826c1c	4.075697
13	0x3fc379bf	1.5271529
14	0xc06c87ad	-3.695781
15	0xc06ededa	-3.7323518
16	0x4068412e	3.6289783
17	0xc07b5662	-3.9271474
18	0x4060c704	3.512147
19	0x405aed06	3.4207168
20	0x401a7577	2.4134195
21	0x40425366	3.0363402
22	0x40214527	2.5198457
23	0x401adeb2	2.4198422
24	0x40251349	2.579302
25	0x402ae16c	2.6700087
26	0xc0671872	-3.610867
27	0x4022a2dc	2.5411901
28	0x4021f30d	2.5304596
29	0xc06d3a65	-3.7066891
30	0xc0df93ab	-6.986776
31	0x3fc43411	1.532839
32	0xc0407c4b	-3.0075862
33	0x3f72beee	0.94822586
34	0xc0a25082	-5.0723276
35	0x40e841b6	7.2580214
36	0xc08ed2a8	-4.463215
37	0x3ddcec01	0.10787202
38	0xc0d027e6	-6.5048704
39	0xc0523e91	-3.2850688
40	0x3ecba8f3	0.39777336
41	0x3f7fd7c4	0.9993861
42	0x4020319c	2.503028
43	0x3f3e279f	0.74279207
44	0xbfbe417f	-1.4863738
45	0xc05093b4	-3.259015
46	0x40dd17d7	6.90916
47	0x416d04eb	14.813701
48	0xbfd82f65	-1.6889464
49	0xc060ebb9	-3.5143874
50	0x40d9d0eb	6.8067527
51	0x3f105bd7	0.56390136
52	0xc03bd530	-2.934887
53	0x403c99ba	2.9468827
54	0x3f81941a	1.0123322
55	0xc018f06d	-2.3896744
56	0x40f459b7	7.6359515
57	0xbf4bf257	-0.79666656
58	0x3e297a0a	0.1655046
59	0xbf941386	-1.1568458
60	0x406b43e5	3.676019
61	0x4031f179	2.7803633
62	0x3fe4c49a	1.7872498
63	0xc00430ae	-2.0654712
64	0x3f9df4b6	1.2340305
65	0xbfac5557	-1.3463544
66	0xc09ddff8	-4.93359
67	0x3f1e682c	0.61877704
68	0xc02e08d9	-2.71929
69	0xbeb12c0a	-0.34603912
70	0x40230c47	2.5476243
71	0xbe2adc73	-0.16685657
72	0x4051f9c0	3.2808685
73	0xc0352204	-2.8302011
74	0xc032545f	-2.7863996
75	0x3f97065a	1.1798813
76	0x400a35e1	2.1595385
77	0xc00b4e51	-2.176655
78	0x3f7ffc8e	0.9999474
79	0xbf39dcaa	-0.7260233
80	0xbeb66d7d	-0.35630408
81	0x405a8a4f	3.4146917
82	0xbfefc77b	-1.8732752
83	0xc08544e5	-4.16466
84	0x407eb4d9	3.979788
85	0xbe60a2cb	-0.219371
86	0xbf3d3893	-0.7391445
87	0x40b45a28	5.6360054
88	0xbf1c0a6a	-0.6095339
89	0xc08e4d21	-4.446915
90	0xc086f30c	-4.217169
91	0xc0d18210	-6.547127
92	0x40a00dc3	5.00168
93	0xc0655993	-3.5835922
94	0x408f0329	4.4691358
95	0x40437e7c	3.054595
96	0xbd83f814	-0.064438015
97	0x3f014ed0	0.50510883
98	0xc0da4828	-6.821308
99	0x4165346a	14.325296
100	0x40613e73	3.5194366
101	0xc0b2a272	-5.5823298
102	0xc0ec6723	-7.38759
103	0xc0e3ec71	-7.1226125
104	0xc09940d2	-4.7891626
105	0x40fa65dd	7.8249345
106	0xbf85017d	-1.0391079
107	0x3ff299ba	1.8953164
108	0xbfa5af16	-1.2944057
109	0xc068185f	-3.6264875
110	0xc09bd1d0	-4.869362
111	0x3f6eb541	0.9324532
112	0x408ee4d4	4.465433
113	0xc0d9f650	-6.8113174
114	0x3fc2d06f	1.5219859
115	0xc09f7995	-4.9835916
116	0xc0d22f27	-6.568256
117	0x3ec7ed75	0.39048353
118	0xbf853c13	-1.0408958
119	0x410abb51	8.670732
120	0x4027f388	2.624239
121	0x3fce7850	1.6130466
122	0x3d77058f	0.060308035
123	0x411dc062	9.859468
124	0xbf4a97c2	-0.79137814
125	0xc0d7948c	-6.736883
126	0xc0b794f7	-5.736934
127	0xbf8a3e4a	-1.0800259
128	0x40820c6d	4.064017
129	0xc06e6493	-3.7248886
130	0xc09f54bc	-4.9790936
131	0x40094985	2.1451123
132	0x3fa1fe42	1.2655718
133	0x40f7226a	7.722951
134	0x4111c0b6	9.109549
135	0x3fb9814b	1.4492582
136	0x402de795	2.7172596
137	0xc0cec29d	-6.4612565
138	0x3fd233e3	1.6422085
139	0x3ff39308	1.9029245
140	0xc03d8d70	-2.9617577
141	0xbf76e62a	-0.9644495
142	0xc0913d68	-4.538746
143	0xbe515ec4	-0.20446306
144	0x3fdb56ad	1.7135826
145	0xc1117c59	-9.092858
146	0xc085c9bf	-4.180877
147	0xc05af4c9	-3.4211905
148	0x3f21f7d3	0.63268775
149	0x4063b3b7	3.557844
150	0x3f43a7e2	0.76428044
151	0x3f2f6e0d	0.685273
152	0xbec56e05	-0.385605
153	0xbedcc8a4	-0.43121827
154	0xbf04fa16	-0.519441
155	0xbeefd8d0	-0.46845102
156	0xbf6028a6	-0.87562025
157	0x3f4f5ea3	0.8100378
158	0xbf0863a0	-0.53277016
159	0xbf552427	-0.8325829
160	0xbf2d5a11	-0.67715555
161	0x3efb24ad	0.4905142
162	0xbee1d33d	-0.44106475
163	0x3f3cb615	0.73715335
164	0xbe497cb7	-0.19676481
165	0xbecd9814	-0.4015509
166	0xbd061e17	-0.03274354
167	0xbf3d50ba	-0.73951304
168	0xbf195f5e	-0.59911144
169	0xbf0b31de	-0.54372966
170	0xbecb4c72	-0.3970676
171	0x3f601387	0.87529796
172	0xbf0c6415	-0.54840213
173	0x3e1b303a	0.15155116
174	0xbf295e84	-0.66159844
175	0xbf1e8b77	-0.61931556
176	0xbebacc01	-0.36483768
177	0x3f25134d	0.64482576
178	0xbf166ae6	-0.58756864
179	0xbf121917	-0.57069534
180	0xbef3c2b3	-0.4760948
181	0xc02d5880	-2.7085266
182	0x3f1a389c	0.6024263
183	0x3ef95c40	0.48703194
184	0xbed9b59e	-0.42521375
185	0xbf5c97c3	-0.8616907
186	0xbf423f20	-0.7587757
187	0x3fa6ac22	1.3021281
188	0xbff8d1cc	-1.9439025
189	0xbf9093b6	-1.1295078
190	0xbe66e743	-0.22549157
191	0xbf2bfdb7	-0.67184013
192	0x3f18f42e	0.5974759
193	0x3eb2ec13	0.34945735
194	0x3f026504	0.5093539
195	0xbf04aa6d	-0.5182255
196	0x3f1c007b	0.60938233
197	0xc02dc41d	-2.7150948
198	0xbee87897	-0.45404503
199	0xbf61a607	-0.8814396
200	0xbfa20dd4	-1.266047
201	0x3f0370ea	0.5134417
202	0xbdf0467f	-0.11732196
203	0xbcc4e0aa	-0.02403291
204	0xc072a21b	-3.7911441
205	0xbf2ee18d	-0.68312913
206	0xbe6e8858	-0.23294199
207	0xbf38d032	-0.7219268
208	0x3edceb0a	0.4314807
209	0xbf024295	-0.50882846
210	0x40b02166	5.504077
211	0xbfb19ffa	-1.3876946
212	0xbe957b36	-0.29195565
213	0xc082e311	-4.090218
214	0x40cd1382	6.4086313
215	0xc0903090	-4.505928
216	0x411b3d90	9.70253
217	0xbfa8104c	-1.3129973
218	0x4075af34	3.8388186
219	0xbff2e002	-1.8974612
220	0x3ce68c6b	0.028143128
221	0x403c4596	2.9417472
222	0xbf95384a	-1.1657803
223	0xc04782aa	-3.11735
224	0xc01c24d3	-2.4397476
225	0xc048d10e	-3.1377597
226	0x3f587801	0.8455811
227	0xc08baff9	-4.365231
228	0xc0244efd	-2.567321
229	0x409579c6	4.671115
230	0x3e3447bd	0.17605491
231	0xbfa52910	-1.2903156
232	0x40ae250c	5.4420223
233	0x3fab947f	1.3404692
234	0xbf3df9f6	-0.74209535
235	0x4131f6c6	11.122747
236	0x3eb6c9d8	0.3570087
237	0x4039d71d	2.9037545
238	0x3f0cc7d9	0.54992443
239	0x3e7ff6c2	0.24996474
240	0xbf347c2a	-0.7050196
241	0xbf362992	-0.7115718
242	0xbf3b637b	-0.7319867
243	0xbee444e7	-0.44583818
244	0xbef6a633	-0.48173675
245	0xbf478f70	-0.77953243
246	0xbf131a26	-0.57461774
247	0xbef29832	-0.4738174
248	0xbf055f1e	-0.5209826
249	0xbf33f872	-0.7030097
250	0xbf1297f8	-0.57263136
251	0xbf23fce9	-0.64057785
252	0xbef134f7	-0.4711072
253	0xbf2d37a3	-0.6766302
254	0x3ef01c27	0.4689648
255	0xbf08aee6	-0.53391874

bias f4 [10]
0	0xc00688ee	-2.1021075
1	0x40081f16	2.1268973
2	0xc036664b	-2.8499935
3	0x3df74118	0.120729625
4	0x401e7e45	2.4764569
5	0xbef2ea1c	-0.47444236
6	0x3e7019d7	0.23447357
7	0xbdec1c3c	-0.11528823
8	0xbf2d5843	-0.677128
9	0xbf1b726c	-0.6072147
