mlartifacts/0/e54395cc0fe94a77a64b0e92985f2b47/artifacts/mnist_mlp/data/model.pth (torch, 69440 bytes, 4 tensors)

weight f4 [20, 784]
0.0027077156 -0.013806846 0.007063589 0.020946836 -0.02345146 0.004706587 0.03357272 -0.009373976
-0.026344659 0.01012591 -0.013372865 -0.015418828 0.0056004613 0.010190662 0.03305359 -0.007577986
-0.030281797 0.033254948 -0.0015216896 0.026291082 -0.011518304 0.029179838 -0.02549513 -0.023695985
0.009985248 0.00013506413 0.022348192 0.0031471467 0.019200858 0.013447145 0.02039703 -0.015988959
-0.00865069 -0.020987121 0.0052022086 0.054408718 -0.15906946 0.0877378 0.12011952 -0.24614815
-0.4662933 -0.80326027 0.52736604 0.54594076 0.37621692 0.02598139 -0.1756179 -0.2917088
-0.69181466 -0.45978853 0.03618196 2.7660813e-05 -0.0044232225 0.009796164 -0.008224151 -0.033366334
-0.029792208 -0.027989589 -0.0011921568 -0.1988364 -0.014886931 -0.009042263 0.08295578 -0.31696048
-0.069627866 -0.021405136 0.6606166 0.30287 -0.6842147 -0.8295249 0.32377955 0.2550882
0.37259108 -0.25433135 -0.9495355 -0.5066031 -0.34712154 -0.15695982 0.3960202 0.3053625
0.08585357 -0.0058572986 -0.0046127057 0.0010142071 -0.024810012 -0.0108136665 0.830377 0.111934654
-0.36701578 0.52807766 0.009948999 0.37964237 0.5942405 0.41033813 0.11542602 -0.058750737
0.7209903 0.7870475 0.01574147 -0.27521357 -0.6715277 -1.3537556 -1.3124669 -0.6041612
-0.7920912 -1.254549 -0.5249011 -0.66553843 -0.26592472 0.03258886 -0.025215784 0.024355646
-0.024167743 -0.03412585 0.9194785 0.4556034 0.6220026 0.6083557 0.79889125 0.28554377
0.91588044 0.44238237 0.19090974 0.118407935 0.038783327 0.436222 -0.14376523 -0.29098448
-0.74749655 -1.0862715 -0.9839745 -1.1515987 -1.5366817 -0.9624117 -1.1265414 -0.75505245
-0.32644695 -0.093871355 -0.07509236 0.032215636 0.028397467 0.032023508 0.933033 0.42472893
1.0635829 1.0052181 0.4338457 0.27979562 0.48077792 0.57247245 0.30434367 0.08994328
0.112520285 0.037950218 -0.20104067 0.1029918 -0.42439252 -1.1762757 -1.0624745 -1.4067239
-1.8388722 -1.5093355 -1.1724917 -0.72379047 -0.59665126 -0.30234322 -0.11132132 0.021608306
0.033818543 0.105840586 -0.1228272 0.97279793 1.3570617 0.32460234 0.53211004 0.25608078
0.41311458 0.59469044 0.60444856 0.7251392 0.19196314 -0.040769942 -0.13245276 -0.17115042
-0.19260214 -0.19616623 -0.32210386 -1.001603 -1.0780467 -1.0339324 -1.299635 -1.0523368
-1.1334531 -0.6239172 -0.15665948 -0.08518149 -0.030215133 0.42209023 -0.17695005 1.4699255
1.1195092 0.16240326 0.4142725 0.32603362 -0.12051293 0.15723382 0.16141137 0.37887284
0.5413818 0.25226393 0.3437505 0.23417728 -0.12948416 -0.21316418 -1.0174907 -1.3038722
-1.2712003 -0.8924494 -1.2390263 -1.1843754 -1.7833562 -0.8719541 -0.35215327 -0.09755366
-0.31897488 0.5964619 0.29830846 0.77780366 0.9695952 0.08998663 0.015477037 0.3248066
-0.19808707 -0.34612483 0.008046654 -0.10286557 0.15635973 0.5870155 1.2707914 0.9517829
0.13760288 -0.043068647 -0.6556784 -1.1274828 -1.046856 -0.7261374 -0.8909103 -1.5795362
-1.779113 -0.9023012 -0.5458613 -0.16329269 0.3557807 0.4243227 0.17893907 0.6883613
00000000: ee73 313b 1c36 62bc ae75 e73b b398 ab3c
00000010: 471d c0bc b739 9a3b 8c83 093d 4e95 19bc
00000020: c1d0 d7bc 25e7 253c dc19 5bbc 419f 7cbc
00000030: 1384 b73b bcf6 263c 3463 073d c150 f8bb
00000040: 8811 f8bc 5736 083d 6e73 c7ba 6560 d73c
00000050: 45b7 3cbc 8e0a ef3c 2adb d0bc 151e c2bc
00000060: 2a99 233c 00a0 0d39 8e13 b73c 5c40 4e3b
00000070: 1e4b 9d3c 6a51 5c3c ac17 a73c 47fb 82bc
00000080: a0bb 0dbc 2fed abbc 4a77 aa3b addb 5e3d
00000090: 1be3 22be e0af b33d 3901 f63d 430e 7cbe
000000a0: ffbd eebe 77a2 4dbf 7601 073f c6c2 0b3f
000000b0: 819f c03e edd6 d43c 2ed5 33be db5a 95be
000000c0: c41a 31bf 6769 ebbe 8933 143d 2509 e837
000000d0: aef0 90bb 1780 203c 97be 06bc 23ab 08bd
000000e0: ca0e f4bc 6c4a e5bc 2542 9cba c59b 4bbe
000000f0: 50e8 73bc 0026 14bc b8e4 a93d a548 a2be
00000100: 0e99 8ebd d359 afbc 2b1e 293f c711 9b3e
00000110: b228 2fbf be5b 54bf 6fc6 a53e ec9a 823e
00000120: 42c4 be3e b837 82be c214 73bf beb0 01bf
00000130: eab9 b1be 13ba 20be 29c3 ca3e 7958 9c3e
00000140: ffd3 af3d 95ee bfbb 2e26 97bb 25ef 843a
00000150: 5e3e cbbc ce2b 31bc 9693 543f ff3d e53d
00000160: 7ee9 bbbe 1930 073f 2001 233c 7c60 c23e
00000170: 2520 183f d717 d23e 7a64 ec3d 9da4 70bd
00000180: d292 383f f27b 493f 41f4 803c cbe8 8cbe
00000190: 3de9 2bbf dd47 adbf eafe a7bf 4faa 1abf
000001a0: 7dc6 4abf 1095 a0bf eb5f 06bf ba60 2abf
000001b0: 4927 88be e57b 053d 5591 cebc 7e85 c73c
000001c0: 6efb c5bc 8cc7 0bbd f162 6b3f d944 e93e
000001d0: 903b 1f3f 33bd 1b3f 2384 4c3f cb32 923e
000001e0: 2477 6a3f f17f e23e d87d 433e dc7f f23d
000001f0: 44db 1e3d 7d58 df3e 3137 13be ebfb 94be
00000200: ef5b 3fbf f20a 8bbf c1e5 7bbf 9667 93bf
00000210: fcb1 c4bf 9d60 76bf 8232 90bf 1e4b 41bf
00000220: 0e24 a7be a03f c0bd 06ca 99bd 8bf4 033d
00000230: cea1 e83c 152b 033d 40db 6e3f 1276 d93e
00000240: 7c23 883f fdaa 803f 0621 de3e 5f41 8f3e
00000250: 8628 f63e 8e8d 123f efd2 9b3e 2f34 b83d
00000260: 0971 e63d b071 1b3d 9bdd 4dbe 5ded d23d
00000270: fa49 d9be 3490 96bf 2aff 87bf 870f b4bf
00000280: 2a60 ebbf e831 c1bf 3514 96bf 554a 39bf
00000290: 23be 18bf bbcc 9abe 6ffc e3bd e703 b13c
000002a0: 5085 0a3d f3c2 d83d d48c fbbd 4909 793f
000002b0: 33b4 ad3f 4732 a63e 5d38 083f 051d 833e
000002c0: c183 d33e a23d 183f 24bd 1a3f b9a2 393f
000002d0: fc91 443e 62fe 26bd b2a1 07be 0e42 2fbe
000002e0: 7f39 45be cddf 48be ccea a4be 8734 80bf
000002f0: 6ffd 89bf e657 84bf 715a a6bf f9b2 86bf
00000300: fe14 91bf 0ab9 1fbf 586b 20be a273 aebd
00000310: ba85 f7bc 361c d83e 6532 35be 8526 bc3f
00000320: 144c 8f3f 0a4d 263e 861b d43e e1ed a63e
00000330: 7ccf f6bd e701 213e 0649 253e 9ffb c13e
00000340: ff97 0a3f bd28 813e 1100 b03e 2bcc 6f3e
00000350: 7f97 04be b647 5abe 233d 82bf 49e5 a6bf
00000360: b1b6 a2bf 9077 64bf 6a98 9ebf 9d99 97bf
00000370: 0445 e4bf 6238 5fbf 6f4d b4be 37ca c7bd
00000380: ad50 a3be bab1 183f e3bb 983e 241e 473f
00000390: 6437 783f e94a b83d 6693 7d3c 0d4d a63e
000003a0: 56d7 4abe 4637 b1be 1dd6 033c 2fab d2bd
000003b0: c41c 203e a646 163f 4ba9 a23f 0ba8 733f
000003c0: c5e7 0c3e c068 30bd 8ada 27bf 5b51 90bf
000003d0: 61ff 85bf 24e4 39bf b312 64bf 3e2e cabf
000003e0: fab9 e3bf 36fd 66bf 91bd 0bbf 3336 27be
000003f0: e328 b63e d340 d93e ce3b 373e 7238 303f

bias f4 [20]
-0.112528615 -0.26161233 1.2415816 0.08580054 0.053033713 0.25916842 0.16670822 0.29162213
0.8638303 0.22404656 -0.082913205 0.9248575 -0.71112967 -0.072363056 -0.6219533 0.14330024
-0.13643122 -0.43796074 -0.06859936 0.6726715
00000000: 6775 e6bd 0df2 85be 25ec 9e3f 32b8 af3d
00000010: e139 593d b9b1 843e 8fb5 2a3e 7f4f 953e
00000020: fc23 5d3f 766c 653e 66ce a9bd 76c3 6c3f
00000030: 980c 36bf 1533 94bd 5538 1fbf 4cbd 123e
00000040: a0b4 0bbe 643c e0be d27d 8cbd 3334 2c3f

weight f4 [10, 20]
-0.43771985 0.4141409 -0.38570172 0.5137406 -1.7717382 -0.7145068 -1.040543 -0.6982281
0.30914074 0.61211896 -0.067225784 0.1758834 0.6461385 -1.1134703 -0.26055485 -1.0520332
-1.1947094 0.26460978 0.6615772 -0.37309623 1.2689714 -0.71973056 -1.0933928 -0.1072847
-1.227506 0.55013233 0.7747251 0.2420368 -0.1267632 -0.14890334 0.04055894 -0.4529314
-0.6916968 0.8627857 0.31951797 0.85282785 -0.7488618 -1.5746522 -0.2622287 -0.80757046
-0.029126856 0.7515753 -0.022665579 0.548858 -1.7887515 -2.0561295 -0.034324862 0.57140887
-1.6028807 -0.03479285 -0.060221836 0.0043141264 -0.82218903 0.7593692 0.030101625 -0.2900853
1.032435 0.32329297 0.36059678 -0.58032215 0.5352672 0.32693145 -1.1005001 -0.9429747
1.1351182 0.3201144 -0.027905375 0.087809525 -0.55151993 -1.0962074 0.08011752 -0.01018019
0.46598622 0.16202943 -0.1139517 -0.20977907 0.6280861 0.67487305 0.36198887 -1.156961
-0.29664776 -2.3042443 0.7349587 0.5141639 0.22586866 0.5743855 0.21922106 -0.5815797
0.08256148 -0.7154432 -0.114022054 -1.8499465 0.11926428 -0.3986024 -0.5712822 1.0747447
-1.461646 -0.6523177 0.3824154 0.2010843 -1.3362085 0.060483143 -0.078074686 -1.1298841
0.8327571 0.58270943 -0.4691405 0.5739547 0.583112 0.61402947 0.11149106 1.130569
-0.32521838 -0.5049203 -1.11685 -0.06070284 0.096041106 0.5292002 0.07488106 -0.4709333
-1.2349169 -0.4996043 -0.37945604 -0.04020814 -1.5027823 -0.1349462 0.43375722 0.610092
-0.21699576 0.33749917 0.041044787 -0.88150555 -0.19399667 -0.47585765 -1.0507835 -0.787445
0.3679222 -2.0354817 0.5788875 0.75736386 0.7389345 0.7196151 0.4565091 -0.78812176
-0.46865723 -1.0397496 -0.34525 -1.7865512 1.1638838 -0.7229275 -0.11645544 1.0355012
-0.37923896 0.66143334 0.25433958 -0.47939467 0.6753066 0.15633193 -1.709966 0.1874719
-0.87788063 -0.24312657 -1.1496239 -0.27511993 -0.85909617 0.035153255 -0.10653559 0.57401407
-1.8821554 0.44437212 -0.20683189 -0.025906911 0.5650497 -0.50225693 0.18380305 0.4155799
-0.40009916 -0.15738267 -1.189215 0.20527552 0.279146 -0.0771833 0.28186 0.59681946
0.708384 0.32137814 -2.0145128 -0.92682827 0.016143626 0.25294092 0.24936205 -0.43141127
-0.3519852 -1.6352366 0.783718 0.04789135 -1.6129378 -0.2530022 -1.1461805 0.25042304
00000000: d11c e0be 470a d43e b27a c5be 8184 033f
00000010: 51c8 e2bf ebe9 36bf 8330 85bf 14bf 32bf
00000020: b247 9e3e d4b3 1c3f acad 89bd c71a 343e
00000030: 5569 253f 3286 8ebf 7267 85be 06a9 86bf
00000040: 3dec 98bf ef7a 873e 205d 293f 7806 bfbe
00000050: a86d a23f 4340 38bf 4cf4 8bbf 15b8 dbbd
00000060: eb1e 9dbf 79d5 0c3f 6254 463f 7fd8 773e
00000070: 36ce 01be 1e7a 18be 2221 263d a0e6 e7be
00000080: 0b13 31bf 86df 5c3f dc97 a33e ed52 5a3f
00000090: 68b5 3fbf 348e c9bf d742 86be f0bc 4ebf
000000a0: 729b eebc 3d67 403f 2aad b9bc f581 0c3f
000000b0: cff5 e4bf a097 03c0 3a98 0cbd da47 123f
000000c0: 322b cdbf f382 0ebd 2cab 76bd 845d 8d3b
000000d0: fb7a 52bf 0566 423f af97 f63c 0f86 94be
000000e0: d526 843f a886 a53e 24a0 b83e fe8f 14bf
000000f0: 4507 093f 8f63 a73e 30dd 8cbf ca66 71bf
00000100: 8e4b 913f 09e6 a33e d099 e4bc 7bd5 b33d
00000110: 6930 0dbf 8650 8cbf a814 a43d d0ca 26bc
00000120: bf95 ee3e 0beb 253e 825f e9bd 53d0 56be
00000130: 40ca 203f 7bc4 2c3f 9b56 b93e 4c17 94bf
00000140: 37e2 97be bd78 13c0 4126 3c3f 3fa0 033f
00000150: 1d4a 673e ee0a 133f 7c7b 603e 68e2 14bf
00000160: fe15 a93d 4927 37bf 6584 e9bd 0ccb ecbf
00000170: d540 f43d 9d15 ccbe 8d3f 12bf 3c91 893f
00000180: 3717 bbbf 4bfe 26bf f4cb c33e 0be9 4d3e
00000190: e108 abbf 2cbd 773d 9fe5 9fbd 0ba0 90bf
000001a0: 922f 553f 722c 153f 2f33 f0be b2ee 123f
000001b0: d446 153f 0931 1d3f 6d55 e43d 7cb6 903f
000001c0: 0683 a6be 7542 01bf f1f4 8ebf 8ba3 78bd
000001d0: 33b1 c43d aa79 073f 3e5b 993d 2b1e f1be
000001e0: c211 9ebf 23cc ffbe 1048 c2be 4ab1 24bd
000001f0: 2c5b c0bf 562f 0abe 6d15 de3e fd2e 1c3f
00000200: 2334 5ebe b1cc ac3e 941e 283d 59aa 61bf
00000210: 10a7 46be 9da3 f3be 1380 86bf ff95 49bf
00000220: 4c60 bc3e 5545 02c0 f931 143f 99e2 413f
00000230: d02a 3d3f b238 383f 90bb e93e 59c2 49bf
00000240: d7f3 efbe 8416 85bf 9cc4 b0be b6ad e4bf
00000250: 25fa 943f c711 39bf 3180 eebd 4e8b 843f
00000260: 9c2b c2be b253 293f cc38 823e 3873 f5be
00000270: e5e0 2c3f 7a15 203e 2ae0 dabf a2f8 3f3e
00000280: c9bc 60bf 2cf6 78be e026 93bf 85dc 8cbe
00000290: baed 5bbf dcfc 0f3d 552f dabd 96f2 123f
000002a0: 78ea f0bf be84 e33e bdcb 53be bb3a d4bc
000002b0: 19a7 103f e993 00bf de36 3c3e e3c6 d43e
000002c0: ccd9 ccbe ec28 21be 3238 98bf bf33 523e
000002d0: 39ec 8e3e 4712 9ebd f44f 903e 29c9 183f
000002e0: a758 353f ad8b a43e c7ed 00c0 9e44 6dbf
000002f0: a33f 843c 7981 813e c458 7f3e f0e1 dcbe
00000300: 6737 b4be 6f4f d1bf bea1 483f b829 443d
00000310: bf74 cebf 8189 81be 0bb6 92bf 7337 803e

bias f4 [10]
-1.0059 0.07603015 0.1460993 -0.8660664 0.27290547 0.34753305 0.17581448 0.121310696
-0.25366154 -0.1621763
00000000: 55c1 80bf b2b5 9b3d 0e9b 153e 87b6 5dbf
00000010: 44ba 8b3e daef b13e b608 343e be71 f83d
00000020: eddf 81be 8b11 26be
