mlartifacts/0/b1fd841e5fe44da79dd52528d53ed37e/artifacts/mnist_mlp/data/model.pth (torch, 132928 bytes, 4 tensors)

weight f4 [40, 784]
-0.0059374063 -0.024302356 -0.016306363 -0.023791127 0.0038242852 0.0066137915 0.023270931 -0.014294578
-0.024354067 -0.021362599 0.031756844 -0.013681037 -0.108095825 -0.15133916 0.030329017 -0.034952626
-0.019450197 0.0312666 -0.020357562 0.005209523 -0.034855116 -0.01803201 0.0065609263 -0.015204686
0.0049802065 -0.018034596 0.033291418 0.007528761 -0.03083617 -0.01153 -0.023679445 -0.012509734
0.028918007 0.019567385 -0.059749167 -0.1682502 -0.06742778 -0.28399196 -0.24034776 0.12172304
0.043928903 0.30894065 0.11617079 -0.022384813 -0.48359567 -0.2600438 -0.1599527 -0.8139057
-0.7047309 -0.44692838 -0.46119297 -0.2204754 -0.030773258 -0.019471932 0.0020380616 -0.00044576614
0.016888112 0.0014548899 -0.029153118 0.58399975 0.14718063 -0.06584802 -0.10301945 0.016061446
-0.13051295 -0.23805998 -0.51003784 -0.7493584 -0.55651534 -0.6537822 -0.5185287 -0.064435534
-0.3733026 -0.66302 -0.043416377 -0.34406364 -0.76403624 -0.8420636 -1.0766543 -0.4958079
0.42610613 0.5244537 0.027356345 -0.0004810478 0.023181269 -0.016685389 -0.0144316135 0.0808593
0.2844866 -0.20405969 -0.48609352 -0.4392337 -0.36823848 -0.543787 -0.7584475 -1.3122808
-1.0472496 -1.0574973 -0.96920747 -0.7367365 -0.5332245 -0.31257913 -0.5335038 -0.73252296
-0.40925503 -0.23797774 -0.5244807 -0.42432943 -0.30378112 0.22179058 -0.35119843 -0.005594501
-0.023787968 -0.012409081 0.012941562 -0.42343217 -0.25307107 -0.15710205 0.108758494 -0.14767483
-0.84569544 -0.9006635 -0.9308016 -0.78414243 -0.679841 -0.6150373 -0.30460897 -0.011336153
-0.13037735 -0.3196108 -0.6053712 -0.4989778 -0.4363619 -0.27074635 -0.49494755 -0.20435287
0.28986242 0.6564904 0.23218039 -0.18437187 0.004511433 -0.006377676 -0.15806374 -0.42788914
-0.4488742 -0.29533732 -0.44836715 -0.66704136 -0.6230985 -0.6856922 -0.26940185 0.32592002
-0.2871658 -0.12396534 0.15799783 0.31053418 0.3847789 0.5666115 0.106256925 -0.024773378
0.27446622 0.17758855 0.22436059 0.13768606 -0.076995365 0.91472346 0.18198001 -0.20744787
0.00525028 -0.10296397 0.272311 -0.46509743 -0.42651007 -0.59535486 -0.8351851 -0.85077816
-0.48479953 -0.27064127 -0.4275973 -0.24743462 -0.07393505 0.21349475 0.42278084 0.33869737
0.22919501 0.4043343 0.2914276 0.49720976 0.14544462 0.21057965 0.5805685 0.7952802
0.37567672 0.5571214 -0.0651616 -0.061563343 -0.011891019 -0.8477742 0.039775535 -0.3379279
-0.56026196 -0.67337364 -0.7128088 -0.40826625 -0.16602904 -0.10169257 0.03078743 0.0033889208
-0.04191227 0.44845197 0.041569885 -0.09590886 -0.2072446 0.28319845 0.043757956 0.09540523
-0.22690368 0.11981704 0.34814674 0.7691201 0.6354523 1.0722756 -0.012283748 -0.010066082
0.43676704 -0.31365272 -0.10043535 -0.35062727 -0.7784684 -0.7766368 -0.60196537 -0.26524994
-0.3238304 0.22229175 0.37464136 0.32508507 0.52277523 0.5693008 -0.10211321 -0.3926161
-0.18495406 0.15434784 -0.045122106 0.100335464 -0.024058329 0.15429339 0.23884997 0.9481557
1.1721698 1.1540639 0.51318455 0.029552024 -0.016791316 -0.200285 -0.035173036 -0.47365826
00000000: 938e c2bb bc15 c7bc ec94 85bc 9ce5 c2bc
00000010: dca0 7a3b 81b8 d83b aea2 be3c ce33 6abc
00000020: 2e82 c7bc 9e00 afbc 7713 023d 6e26 60bc
00000030: 5861 ddbd a7f8 1abe 8f74 f83c 7c2a 0fbd
00000040: 0556 9fbc 6811 003d e7c4 a6bc a5b4 aa3b
00000050: 3dc4 0ebd deb7 93bc 0afd d63b 131d 79bc
00000060: 0031 a33b 4abd 93bc 955c 083d d3b3 f63b
00000070: 239c fcbc 53e8 3cbc 65fb c1bc a1f5 4cbc
00000080: 75e5 ec3c c84b a03c 8bbb 74bd c849 2cbe
00000090: 9317 8abd 6567 91be b91d 76be ee49 f93d
000000a0: cbee 333d 782d 9e3e f3ea ed3d 5b60 b7bc
000000b0: da99 f7be 7624 85be a4ca 23be 205c 50bf
000000c0: 3f69 34bf ccd3 e4be 7c21 ecbe 4ec4 61be
000000d0: 3318 fcbc 9a83 9fbc 0091 053b b8b5 e9b9
000000e0: f058 8a3c 01b2 be3a 85d2 eebc 0281 153f
000000f0: 85b6 163e 54db 86bd ddfb d2bd 4b93 833c
00000100: 30a5 05be ffc5 73be d791 02bf f4d5 3fbf
00000110: ca77 0ebf 455e 27bf 4cbe 04bf c7f6 83bd
00000120: 8521 bfbe aebb 29bf 5fd5 31bd 1c29 b0be
00000130: e197 43bf 7b91 57bf cfcf 89bf 88da fdbe
00000140: 952a da3e 9942 063f 6a1a e03c 2535 fcb9
00000150: a5e6 bd3c ccaf 88bc 9372 6cbc 9099 a53d
00000160: 3aa8 913e 06f5 50be 40e1 f8be 3de3 e0be
00000170: c189 bcbe a035 0bbf 9e29 42bf d1f8 a7bf
00000180: 460c 86bf 125c 87bf fb1d 78bf c39a 3cbf
00000190: 6781 08bf 5f0a a0be b493 08bf a086 3bbf
000001a0: e089 d1be 70b0 73be 5e44 06bf b541 d9be
000001b0: 3389 9bbe 121d 633e 48d0 b3be 1352 b7bb
000001c0: fcde c2bc 754f 4bbc d808 543c 1acc d8be
000001d0: 8892 81be 5cdf 20be c6bc de3d 1238 17be
000001e0: 7f7f 58bf e291 66bf 0349 6ebf 8fbd 48bf
000001f0: 0f0a 2ebf 1673 1dbf b5f5 9bbe 46bb 39bc
00000200: a481 05be 07a4 a3be 9bf9 1abf 057a ffbe
00000210: d46a dfbe 449f 8abe c469 fdbe e141 51be
00000220: d968 943e c10f 283f b2c0 6d3e fbcb 3cbe
00000230: a5d4 933b d3fb d0bb 76db 21be 4914 dbbe
00000240: d7d2 e5be 7436 97be 6190 e5be 39c3 2abf
00000250: 6283 1fbf 8689 2fbf 0aef 89be fdde a63e
00000260: 6507 93be 8ae1 fdbd 2fca 213e 56fe 9e3e
00000270: bd01 c53e 740d 113f 3b9d d93d 8af1 cabc
00000280: d686 8c3e c6d9 353e c8be 653e 93fd 0c3e
00000290: bfaf 9dbd 512b 6a3f f858 3a3e 376d 54be
000002a0: 8a0a ac3b c6de d2bd 596c 8b3e 4021 eebe
000002b0: 875f dabe 2d69 18bf b1ce 55bf 99cc 59bf
000002c0: a537 f8be 7e91 8abe 09ee dabe 805f 7dbe
000002d0: 426b 97bd 5e9e 5a3e bb76 d83e be69 ad3e
000002e0: 19b2 6a3e e804 cf3e 0036 953e 4792 fe3e
000002f0: 6fef 143e 31a2 573e 23a0 143f 7c97 4b3f
00000300: b358 c03e 829f 0e3f 7273 85bd d829 7cbd
00000310: 8cd2 42bc bb07 59bf aceb 223d e304 adbe
00000320: 546d 0fbf 3762 2cbf a37a 36bf 4608 d1be
00000330: 8403 2abe 3244 d0bd ec35 fc3c a818 5e3b
00000340: 33ac 2bbd 7f9b e53e 2f45 2a3d dd6b c4bd
00000350: ee37 54be 63ff 903e 8b3b 333d d163 c33d
00000360: 7059 68be a362 f53d 4a40 b23e 0ee5 443f
00000370: 00ad 223f 5440 893f c641 49bc 35ec 24bc
00000380: ee9f df3e 1797 a0be 0cb1 cdbd 6b85 b3be
00000390: b449 47bf abd1 46bf 671a 1abf d7ce 87be
000003a0: 19cd a5be 73a0 633e fed0 bf3e 8d71 a63e
000003b0: 99d4 053f b2bd 113f bb20 d1bd fa04 c9be
000003c0: 9964 3dbe 5c0d 1e3e f5d1 38bd ae7c cd3d
000003d0: f915 c5bc 16ff 1d3e 1695 743e 55ba 723f
000003e0: a909 963f 5eb8 933f 1060 033f 1617 f23c
000003f0: f18d 89bc 8317 4dbe 9a11 10bd 5683 f2be

bias f4 [40]
-0.10771732 -0.8062724 1.0211425 -0.14605981 -0.34286073 -0.3158972 -0.4632195 -0.8034284
0.76735157 -0.057807006 -0.6703009 0.30344626 0.4043235 0.4651686 0.7561537 -0.21434154
-0.4671068 -0.68561584 -0.2930412 0.801744 0.50670606 0.21534353 0.06199078 -0.01881006
-0.23888017 -0.53408146 0.16741173 0.5533733 0.26493126 0.009273939 -0.1527398 0.10909048
0.07451169 0.28195032 -0.19160403 0.06206598 -0.25775582 -0.3230059 0.25030208 -0.24084838
00000000: e69a dcbd de67 4ebf ccb4 823f b490 15be
00000010: 718b afbe 47bd a1be 1b2b edbe 7cad 4dbf
00000020: 2771 443f 0ac7 6cbd d798 2bbf 4f5d 9b3e
00000030: 7d03 cf3e 942a ee3e 4a93 413f 597c 5bbe
00000040: 9f28 efbe 8584 2fbf 7f09 96be 183f 4d3f
00000050: 7db7 013f 0483 5c3e 0bea 7d3d 8e17 9abc
00000060: 019d 74be 90b9 08bf fb6d 2b3e dfa9 0d3f
00000070: 12a5 873e b8f1 173c d267 1cbe d46a df3d
00000080: 9699 983d cb5b 903e d933 44be e638 7e3d
00000090: 92f8 83be 0861 a5be 9827 803e f5a0 76be

weight f4 [10, 40]
0.59512717 -0.02662621 -0.03267535 -0.7722998 0.5021066 0.53958607 -1.4799666 0.08672774
-1.611833 -0.9514262 0.26248458 0.31009284 -0.096885055 -0.1532829 0.71165085 -0.21217284
-0.16238171 -0.033994906 0.10650081 -1.1084628 -1.340924 -0.14799649 -0.2236195 -0.036334783
0.467631 0.1353967 -0.88232374 0.52753973 -0.68921924 -0.0909027 0.18649104 -0.5582131
-0.46593687 -0.77897525 0.39207444 0.5625269 0.20085809 -1.5377753 0.0009486982 0.48060617
-0.3569384 0.4477327 0.14789313 0.1556343 0.19165164 -1.3974968 0.22378789 0.2560412
-1.6662703 0.21196131 -0.55712736 0.04721562 -0.918964 1.1789979 -0.74138147 -0.6505327
-0.97391874 0.48808444 0.14686789 0.22791354 0.13163657 0.10832264 -0.09502888 -1.6168252
-0.967387 0.6918263 1.1178392 -0.33950788 -0.10828089 -0.7976986 0.15340681 -0.76815534
0.2047526 -0.35038736 -0.48378834 -1.1449493 1.0888041 0.6314128 -0.9536993 -0.5705571
0.15868685 0.71940845 0.42721656 -1.8387378 -0.2277044 0.009390636 0.42873624 0.20456545
-1.0584954 0.65983546 -0.666529 0.7332521 0.93945986 -0.2442152 -0.6350968 -1.1683542
0.3237736 0.36692062 0.18210597 -1.1588075 1.3389711 -0.79592997 -0.13401428 0.30956474
-0.17778377 0.46811032 -0.2051637 -0.39941588 -0.5014526 -0.89432687 -1.2202501 -1.2165298
0.19375521 0.3895418 -0.97902477 -0.06494526 0.26689205 0.026878275 0.6685663 0.23615332
-0.7217083 -0.3804929 -1.2488493 0.17386895 -0.36636707 -0.3838568 0.025573697 0.24435194
0.16026811 0.6552523 0.1980099 0.23603013 -0.115840256 -1.1630783 -0.9185023 0.4402853
0.35447532 -0.67170227 -0.9129208 -1.1170598 -0.22033596 0.7660508 -0.7862862 -0.33180404
-0.45084494 0.397081 -0.25645554 -0.3591907 -0.19918257 1.0338348 -0.3640182 -0.20434254
0.18582062 -0.25216705 0.07576509 0.40028974 0.22640195 0.74247277 0.6932695 0.15562633
0.04291852 -0.578413 0.57406193 0.5029619 -0.5154007 -0.4441218 0.14635737 -1.2694778
0.4722944 -1.5660809 0.20288052 -1.039502 -0.10753442 1.0435845 0.5584475 -0.11491493
-0.021650607 0.11837138 0.03722269 0.20992433 -1.231944 0.0015881149 0.2528898 0.53013986
-0.857207 0.56867963 -0.10743046 -0.74966824 0.34174842 -0.9720156 0.14721705 -1.2020854
-0.96081334 0.18748342 0.24598713 -0.74716467 0.49742523 0.5751998 -0.9975755 -0.546324
-0.018600946 -0.94647586 0.12352491 -0.5516972 -0.031186726 -0.8967844 -0.6837297 0.15548053
0.58506495 0.12405565 -0.29045326 0.42002547 0.18408848 0.15265769 0.2547695 0.2051042
0.29076418 -1.3025061 -1.6168559 0.6772355 0.30444843 0.8132671 0.52111506 -0.5615611
0.04400301 -1.7059782 -1.7087948 0.5998684 -0.16964035 0.6847207 -0.17052901 1.1521441
0.2787632 0.3968512 -0.32124522 0.43393573 -0.2918997 -0.79616636 -0.51913214 0.14466798
0.11437498 0.008100953 -0.4981845 -1.0744783 0.36863518 -0.012075394 -1.3586636 0.23952085
-1.0537219 0.12532881 -0.76451147 -0.8873837 0.6628451 0.32480943 -0.31102473 -0.50338995
00000000: 415a 183f 361f dabc 96d6 05bd 71b5 45bf
00000010: 0f8a 003f 5022 0a3f 8c6f bdbf 509e b13d
00000020: 8b50 cebf ab90 73bf 6164 863e 7dc4 9e3e
00000030: ac6b c6bd 31f6 1cbe c02e 363f d643 59be
00000040: 6447 26be 3e3e 0bbd 191d da3d 1ce2 8dbf
00000050: 66a3 abbf 648c 17be 83fc 64be c8d3 14bd
00000060: 556d ef3e 6fa5 0a3e f8df 61bf d80c 073f
00000070: ac70 30bf 322b babd 82f7 3e3e 0ee7 0ebf
00000080: 478f eebe ec6a 47bf fbbd c83e c301 103f
00000090: bead 4d3e d2d5 c4bf 0fb2 783a 0312 f63e
000000a0: a1c0 b6be 383d e53e 4c71 173e 995e 1f3e
000000b0: 5440 443e 2de1 b2bf a728 653e d517 833e
000000c0: 5848 d5bf 630c 593e e69f 0ebf 2a65 413d
000000d0: 3a41 6bbf 67e9 963f 2dcb 3dbf 5089 26bf
000000e0: bd52 79bf 34e6 f93e 8964 163e 2b62 693e
000000f0: bdcb 063e 43d8 dd3d 809e c2bd 21f4 cebf
00000100: ada6 77bf 871b 313f 5b15 8f3f fad3 adbe
00000110: 5fc2 ddbd fa35 4cbf ad16 1d3e d4a5 44bf
00000120: aaaa 513e f965 b3be 1bb3 f7be b38d 92bf
00000130: ef5d 8b3f 45a4 213f a325 74bf 0810 12bf
00000140: ce7e 223e 272b 383f 21bc da3e c35b ebbf
00000150: 582b 69be 2fdb 193c 5183 db3e 9b79 513e
00000160: c77c 87bf faea 283f a5a1 2abf 69b6 3b3f
00000170: 7180 703f 8d13 7abe b495 22bf a18c 95bf
00000180: a7c5 a53e 05dd bb3e fd79 3a3e ce53 94bf
00000190: 6863 ab3f 11c2 4bbf 0a3b 09be 457f 9e3e
000001a0: f30c 36be 28ac ef3e 6f16 52be 3d80 ccbe
000001b0: 335f 00bf 9bf2 64bf 2831 9cbf 40b7 9bbf
000001c0: c467 463e 0672 c73e 5ea1 7abf 0502 85bd
000001d0: 13a6 883e d42f dc3c 2927 2b3f 2dd2 713e
000001e0: e0c1 38bf f7cf c2be 4bda 9fbf b40a 323e
000001f0: 7794 bbbe e188 c4be ee7f d13c 6537 7a3e
00000200: 531d 243e 9dbe 273f 1bc3 4a3e e2b1 713e
00000210: a83d edbd c0df 94bf f722 6bbf 136d e13e
00000220: ca7d b53e aef4 2bbf 2db5 69bf d1fb 8ebf
00000230: c09f 61be e81b 443f 0d4a 49bf 38e2 a9be
00000240: 26d5 e6be 334e cb3e 244e 83be d8e7 b7be
00000250: 84f6 4bbe b354 843f 9860 babe 2c3f 51be
00000260: c347 3e3e 0a1c 81be ba2a 9b3d c7f2 cc3e
00000270: ead5 673e b212 3e3f 1c7a 313f 825c 1f3e
00000280: 54cb 2f3d e012 14bf b9f5 123f 1cc2 003f
00000290: 4df1 03bf ef63 e3be b5de 153e 407e a2bf
000002a0: 92d0 f13e 5775 c8bf e9bf 4f3e 670e 85bf
000002b0: 023b dcbd 2d94 853f 6af6 0e3f 8558 ebbd
000002c0: 9d5c b1bc b26c f23d d276 183d 67f6 563e
000002d0: 57b0 9dbf 4b28 d03a c67a 813e 3fb7 073f
000002e0: eb71 5bbf fd94 113f 8004 dcbd 42ea 3fbf
000002f0: a6f9 ae3e 04d6 78bf 11c0 163e efdd 99bf
00000300: ddf7 75bf a7fb 3f3e 0de4 7b3e 2f46 3fbf
00000310: 85ae fe3e 4b40 133f 1c61 7fbf e4db 0bbf
00000320: 0361 98bc 3e4c 72bf a1fa fc3d 073c 0dbf
00000330: 4e7b ffbc aa93 65bf e908 2fbf 4a36 1f3e
00000340: d1c6 153f e310 fe3d 4ab6 94be 940d d73e
00000350: b181 3c3e 4c52 1c3e 2671 823e d606 523e
00000360: 0bdf 943e 85b8 a6bf 22f5 cebf 4e5f 2d3f
00000370: aae0 9b3e 4632 503f cc67 053f 78c2 0fbf
00000380: 803c 343d 7e5d dabf cab9 dabf fa90 193f
00000390: 33b6 2dbe db49 2f3f 289f 2ebe 7579 933f
000003a0: 0dba 8e3e 1530 cb3e 417a a4be d32c de3e
000003b0: e173 95be 8fd1 4bbf d8e5 04bf d823 143e
000003c0: 6e3d ea3d dcb9 043c 0a12 ffbe 8188 89bf
000003d0: c0bd bc3e e0d7 45bc b0e8 adbf f444 753e
000003e0: 5ce0 86bf 3256 003e 06b7 43bf 942b 63bf
000003f0: 37b0 293f 6c4d a63e a23e 9fbe 2ade 00bf

bias f4 [10]
-0.5372226 -0.24771543 -0.37246123 -0.25838298 0.019979203 0.5123461 -0.00882811 0.06332791
-0.059160545 -0.10780543
00000000: 6c87 09bf 1da9 7dbe 3db3 bebe c64a 84be
00000010: 6dab a33c 1d29 033f c7a3 10bc 10b2 813d
00000020: 5452 72bd 18c9 dcbd
