mlartifacts/0/5ef46bcd11dc4b39a73ec28665010451/artifacts/mnist_mlp/data/model.pth (torch, 896244 bytes, 6 tensors)

weight f4 [250, 784]
-0.011297533 0.032669477 -0.0057664304 -0.01632943 -0.0042398106 0.00088397524 0.002318344 0.026316473
-0.024822585 -0.0023546391 -0.031847972 -0.03188139 -0.017643683 0.015683472 0.0007795096 0.01686152
0.011636237 -0.009087099 0.03338801 0.03500196 0.015622812 -0.0053487974 -0.023399862 -0.007881974
0.009175787 -0.01757392 0.03106739 0.0052638864 0.017033573 0.026630798 0.0015268837 0.0005189564
-0.022127869 -0.014262391 -0.010060634 -0.024973525 -0.003706583 -0.0007195558 -0.013690771 0.009864833
0.019018663 0.007232496 -0.08281652 -0.07025823 -0.04041965 -0.029894061 -0.025724258 -0.029698927
0.009124888 -0.008976966 0.0092299245 0.0133845005 -0.014005505 0.034568515 -0.002096568 -0.016151097
0.014532503 0.004465082 0.00071649044 -0.0065738517 0.016328782 -0.008340491 -0.035284482 0.019834366
-0.030072793 0.009163414 -0.0016671164 0.035038393 0.019410543 -0.07212336 -0.07104404 -0.056166627
-0.07787326 -0.0886071 -0.03474195 -0.07556271 -0.029519888 -0.022310862 -0.024635857 -0.033140045
-0.02848957 0.021410348 0.030620981 -0.017697532 0.030533561 -0.021759572 -0.002851614 -0.011650784
-0.012086937 -0.015205482 -0.0056777853 0.008874348 -0.0352752 -0.0003386949 -0.014939803 -0.029992433
-0.08175928 -0.07644793 -0.042191807 -0.024933018 -0.024627892 -0.056029465 -0.07602005 0.03531254
-0.030375103 -0.007006616 0.01843349 0.016626686 0.00010094047 0.005353098 -0.0327117 0.035713863
-0.033948302 0.029309686 -0.014293816 -0.009876231 -0.028090747 -0.023128042 -0.035306253 0.029423553
0.016833842 0.00435062 0.0013206942 -0.08612849 -0.06691126 -0.058899395 -0.039897006 -0.091957554
-0.073822595 -0.07100299 -0.044171363 0.04469681 0.05015547 -0.023800226 -0.0101097915 -0.03291422
0.024224456 0.012931603 0.018838365 0.018894857 -0.03491067 -0.031908955 0.020731723 0.08429131
0.055431295 0.04455114 0.07883434 -0.0015545232 0.005640409 0.014400066 -0.08736211 -0.05997364
-0.03246274 -0.03252694 -0.0686112 -0.034138862 -0.07986374 -0.08249918 -0.07509205 -0.091424115
0.014341086 -0.07619815 -0.026477307 -0.03207356 -0.09006401 0.015173317 0.013397494 0.021996047
-0.012215576 0.0038445126 -0.0066913837 0.088941365 0.059616257 0.028292444 0.050232418 0.0147943245
-0.029036064 -0.089122765 -0.055465452 -0.048061363 -0.09196161 -0.032130446 -0.07362064 -0.056253035
-0.05922172 -0.06525698 -0.0625424 -0.08535337 -0.09218539 -0.08624209 -0.027655885 -0.047974814
-0.040128637 -0.016828746 0.02875224 -0.025489468 -0.030600205 -0.007664187 -0.007431286 0.07968561
0.03206552 -0.034051027 -0.030541224 -0.04629787 -0.061564494 -0.07098145 -0.046412334 -0.08204538
-0.086668566 -0.043948613 -0.07858215 -0.07785963 -0.07054782 -0.03782287 -0.07908258 -0.046764288
-0.09025379 -0.062577814 -0.04371326 -0.07792535 -0.07465524 0.026880316 -0.004742546 -0.027672071
-0.022853754 -0.016028076 -0.00028708152 -0.037720334 -0.032352112 -0.08345318 -0.03580478 -0.05233065
-0.056102797 -0.08224323 -0.06915465 -0.07872359 -0.041626144 -0.04712085 -0.061291505 -0.08125068
-0.0742365 -0.08247117 -0.05983404 -0.06599379 -0.09310136 -0.030605275 -0.08700879 -0.029703487
0.0021098726 0.018543858 -0.031140747 -0.0139649045 -0.010189879 -0.028705688 -0.025225947 -0.037945367
00000000: 4a19 39bc 6ed0 053d 53f4 bcbb 4cc5 85bc
00000010: 1cee 8abb 93ba 673a 5cef 173b a595 d73c
00000020: bc58 cbbc 4a50 1abb 0573 02bd 0f96 02bd
00000030: 7c89 90bc a07a 803c 0158 4c3a 2c21 8a3c
00000040: eaa5 3e3c 0ee2 14bc dec1 083d 375e 0f3d
00000050: d3f6 7f3c f744 afbb 11b1 bfbc 6523 01bc
00000060: 0a56 163c 2ef7 8fbc 0a81 fe3c ae7c ac3b
00000070: fe89 8b3c d528 da3c b721 c83a 930a 083a
00000080: 8145 b5bc ceac 69bc 5cd5 24bc 4795 ccbc
00000090: 25ea 72bb 93a0 3cba 414f 60bc 1ca0 213c
000000a0: 07cd 9b3c 93fe ec3b b59b a9bd 8ce3 8fbd
000000b0: 138f 25bd 64e4 f4bc aebb d2bc 2a4b f3bc
000000c0: 8e80 153c 2014 13bc 1c39 173c aa4a 5b3c
000000d0: 5877 65bc b797 0d3d 9366 09bb 4e4f 84bc
000000e0: bc19 6e3c d34f 923b dcd2 3b3a 7769 d7bb
000000f0: f0c3 853c 8ea6 08bc 7686 10bd ae7b a23c
00000100: 385b f6bc 2522 163c 2583 daba 6b84 0f3d
00000110: dc02 9f3c 6ab5 93bd 8a7f 91bd fa0e 66bd
00000120: 047c 9fbd a477 b5bd 934d 0ebd 9fc0 9abd
00000130: b1d3 f1bc 45c5 b6bc 23d1 c9bc dbbd 07bd
00000140: f562 e9bc c164 af3c dad8 fa3c 6afa 90bc
00000150: 8521 fa3c 2141 b2bc 25e2 3abb eee2 3ebc
00000160: 4a08 46bc 6a20 79bc b70c babb b765 113c
00000170: ba7c 10bd dc92 b1b9 13c6 74bc b1b2 f5bc
00000180: 6971 a7bd bb90 9cbd 51d1 2cbd 5440 ccbc
00000190: 6fc0 c9bc 277f 65bd 66b0 9bbd e2a3 103d
000001a0: 35d5 f8bc c197 e5bb d501 973c b034 883c
000001b0: 01b0 d338 0a69 af3b b4fc 05bd b348 123d
000001c0: 600d 0bbd de1a f03c 9c30 6abc eacf 21bc
000001d0: 911e e6bc 0577 bdbc 4a9d 10bd aa09 f13c
000001e0: 20e7 893c a58f 8e3b 251b ad3a 2264 b0bd
000001f0: c508 89bd 7e40 71bd 0b6b 23bd 3e54 bcbd
00000200: 4d30 97bd 046a 91bd 08ed 34bd 0114 373d
00000210: d26f 4d3d b1f8 c2bc 8aa3 25bc 10d1 06bd
00000220: 5e72 c63c 13df 533c ea52 9a3c 63c9 9a3c
00000230: 7efe 0ebd f7b2 02bd 93d5 a93c eca0 ac3d
00000240: ed0b 633d 427b 363d e673 a13d 25c1 cbba
00000250: 2ed3 b83b 41ee 6b3c e8ea b2bd eba6 75bd
00000260: a6f7 04bd f83a 05bd 0784 8cbd 31d5 0bbd
00000270: 9a8f a3bd 55f5 a8bd dcc9 99bd 913c bbbd
00000280: e0f6 6a3c c70d 9cbd f0e6 d8bc 915f 03bd
00000290: 7b73 b8bd 8199 783c 2a81 5b3c 0e31 b43c
000002a0: d723 48bc 38f4 7b3b 6543 dbbb e426 b63d
000002b0: 2d30 743d 8ec5 e73c 82c0 4d3d e563 723c
000002c0: 0add edbc ff85 b6bd be2f 63bd fedb 44bd
000002d0: 5e56 bcbd 379b 03bd 6bc6 96bd 9569 66bd
000002e0: 7992 72bd 74a5 85bd 3b16 80bd bfcd aebd
000002f0: b2cb bcbd b19f b0bd 988e e2bc 3d81 44bd
00000300: ed5d 24bd 70dc 89bc d189 eb3c 4acf d0bc
00000310: 48ad fabc dc23 fbbb 2582 f3bb 3632 a33d
00000320: 2257 033d 1779 0bbd 9731 fabc d6a2 3dbd
00000330: 0d2b 7cbd b95e 91bd dc1a 3ebd 6807 a8bd
00000340: 4a7f b1bd 7603 34bd aeef a0bd df74 9fbd
00000350: 607b 90bd 27ec 1abd 0cf6 a1bd e98b 3fbd
00000360: fbd6 b8bd cc28 80bd ad0c 33bd 5397 9fbd
00000370: d9e4 98bd 1c34 dc3c 5c67 9bbb 8ab0 e2bc
00000380: cc37 bbbc 504d 83bc 6e83 96b9 a380 1abd
00000390: a683 04bd 80e9 aabd 08a8 12bd aa58 56bd
000003a0: 0ccc 65bd 236f a8bd f4a0 8dbd d539 a1bd
000003b0: 2d80 2abd cb01 41bd cd0c 7bbd c266 a6bd
000003c0: 4e09 98bd a5e6 a8bd 8a14 75bd c127 87bd
000003d0: edab bebd eab7 fabc aa31 b2bd ba54 f3bc
000003e0: ca45 0a3b 4ae9 973c e11a ffbc 0ecd 64bc
000003f0: 73f3 26bc 3128 ebbc a5a6 cebc 9a6c 1bbd

bias f4 [250]
-0.05044575 0.05223067 -0.26948264 0.31253758 0.01034621 -0.03956055 -0.26114935 0.17088276
0.16518168 -0.1643937 -0.081433505 0.16074465 -0.3529803 0.0021261955 -0.13448954 0.05368155
-0.013656076 -0.098451026 -0.2428668 -0.341551 -0.33779907 0.31227082 0.056947637 -0.32992473
0.07921259 0.09209462 -0.26583102 -0.071410924 -0.32017583 0.33913228 -0.33744547 -0.048131097
0.27466625 -0.11975601 -0.20359053 -0.054283697 -0.0904184 0.44913673 -0.3450443 -0.14178763
-0.2318161 0.21875575 -0.19668771 -0.19199507 -0.23503461 0.2732777 -0.061918575 -0.6279872
-0.3708646 -0.19569185 -0.22669506 -0.053733625 -0.34622848 -0.24866432 0.15745993 -0.038117655
-0.2088139 0.34509948 -0.2983757 -0.12546565 0.61233944 -0.081842974 0.0042836852 -0.15398853
-0.64719474 -0.22202723 0.32971948 -0.19975378 -0.53225577 -0.31399804 -0.043312017 -0.14165701
-0.040470153 0.3507678 -0.028717391 0.20435299 0.13437872 -0.43003616 0.28411132 -0.08700883
-0.036706466 -0.0136731155 -0.38971385 0.102588296 -0.260586 -0.3163482 -0.14423564 0.22966872
0.35403353 -0.083021104 -0.08466809 -0.012449557 -0.13256578 -0.07037612 -0.33992356 -0.22179863
-0.03491826 -0.19226915 -0.6689686 0.101444915 -0.3967188 -0.22827084 0.018970242 0.3781316
0.25017577 -0.07307418 -0.05422431 0.53262717 -0.17908902 0.46387395 -0.19950984 0.060301445
-0.05503284 -0.3057359 -0.04447945 -0.2258849 0.011243801 -0.51443523 -0.039679885 -0.17073463
-0.38869977 -0.24151997 -0.39604148 0.042929307 -0.56294614 -0.076066315 -0.055353686 0.22836876
0.28839698 -0.33028552 -0.3944438 -0.2729151 0.18349048 -0.0712606 -0.27564356 -0.2878336
0.06582151 -0.3510315 -0.087775394 -0.027653113 -0.62442005 -0.06233947 -0.28324756 0.3717101
0.41365644 -0.22694173 -0.4685734 -0.035502188 -0.31979382 -0.112730525 -0.0827384 -0.31426233
-0.41276923 -0.084894046 0.21046798 0.15300265 -0.42191863 -0.09957555 0.08223789 -0.2724223
-0.071729764 0.38845524 -0.25147164 -0.48829415 -0.14141437 -0.48301604 -0.079969235 -0.49655962
-0.21120206 -0.072933644 -0.0754416 0.30836636 -0.23287743 0.19017386 -0.4039715 -0.22707167
-0.054917376 -0.05604944 0.2361885 -0.072833724 -0.962668 0.095645 0.06960495 -0.14290062
-0.071690485 -0.46814677 0.024869999 0.41279858 -0.28716207 -0.42310518 -0.14698273 -0.50766313
0.43338996 -0.12146007 0.008573819 -0.07004373 -0.18317413 -0.4420186 0.55929 -0.014915262
0.20310283 -0.253819 -0.7153949 -0.13236947 -0.063341625 0.34890717 -0.27221796 0.2971122
-0.25040007 -0.10227838 -0.036061544 -0.173013 0.3577943 0.76682365 -0.3349847 -0.37437272
0.45177224 -0.22330762 -0.12985669 0.2732722 -0.19720466 -0.09246141 -0.13408023 0.07337006
-0.2975013 -0.27197492 -0.06009346 0.044435654 0.74108243 -0.2788005 -0.26983258 -0.061213743
-0.28290567 -0.03894327 -0.13510025 -0.29374477 -0.07366153 -0.09541496 -0.22314142 -0.09451083
-0.39631125 -0.052507702 -0.08346046 0.19750242 -0.17946237 -0.09159302 -0.30099553 -0.25968418
-0.6511686 -0.35898587
00000000: 34a0 4ebd d4ef 553d a1f9 89be ed04 a03e
00000010: 2683 293c 3e0a 22bd 5eb5 85be e4fb 2e3e
00000020: 6325 293e d256 28be 9cc6 a6bd 3f9a 243e
00000030: d5b9 b4be a457 0b3b a0b7 09be 2fe1 5b3d
00000040: bcbd 5fbc b1a0 c9bd 13b2 78be c6df aebe
00000050: 00f4 acbe f6e1 9f3e ed41 693d e5eb a8be
00000060: 363a a23d 1b9c bc3d 011b 88be e43f 92bd
00000070: 16ee a3be bfa2 ad3e a7c5 acbe 1d25 45bd
00000080: 0ea1 8c3e a442 f5bd 097a 50be 9558 5ebd
00000090: 482d b9bd 40f5 e53e a6a9 b0be c730 11be
000000a0: 3361 6dbe 8201 603e 8168 49be 5b9a 44be
000000b0: eaac 70be 0eeb 8b3e 559e 7dbd c5c3 20bf
000000c0: f7e1 bdbe 7263 48be c022 68be ca17 5cbd
000000d0: dc44 b1be dca1 7ebe 2d3d 213e 4221 1cbd
000000e0: 50d3 55be e1b0 b03e b3c4 98be 117a 00be
000000f0: 47c2 1c3f 4a9d a7bd 285e 8c3b 2baf 1dbe
00000100: 8eae 25bf 1b5b 63be fed0 a83e 418c 4cbe
00000110: ea41 08bf 5ac4 a0be f167 31bd 890e 11be
00000120: 08c4 25bd d697 b33e bc40 ebbc e941 513e
00000130: 939a 093e b32d dcbe 0a77 913e af31 b2bd
00000140: 8559 16bd 3405 60bc 9388 c7be d019 d23d
00000150: 876b 85be 64f8 a1be 82b2 13be 472e 6b3e
00000160: e243 b53e f806 aabd 7766 adbd 3af9 4bbc
00000170: 53bf 07be 5b21 90bd 760a aebe 2e1f 63be
00000180: 7306 0fbd 34e2 44be 8741 2bbf 5ac2 cf3d
00000190: ba1e cbbe d5bf 69be 7b67 9b3c 779a c13e
000001a0: 0a17 803e eaa7 95bd 4f1a 5ebd 415a 083f
000001b0: 1d63 37be e380 ed3e 4f4c 4cbe a6fe 763d
000001c0: 1e6a 61bd 6a89 9cbe 1530 36bd 5f4e 67be
000001d0: eb37 383c 07b2 03bf 6087 22bd 0fd5 2ebe
000001e0: a803 c7be 0351 77be f3c5 cabe a4d6 2f3d
000001f0: 3d1d 10bf a8c8 9bbd 8cba 62bd 80d9 693e
00000200: c5a8 933e 2f1b a9be 8af4 c9be 87bb 8bbe
00000210: eee4 3b3e 14f1 91bd 2721 8dbe ed5e 93be
00000220: 6ecd 863d 67ba b3be 96c3 b3bd c888 e2bc
00000230: fed9 1fbf ac57 7fbd d305 91be c950 be3e
00000240: c7ca d33e 6a63 68be dae8 efbe be6a 11bd
00000250: 04bc a3be 43df e6bd c072 a9bd fee6 a0be
00000260: 7d56 d3be eedc adbd eb84 573e baac 1c3e
00000270: b805 d8be 44ee cbbd 576c a83d f07a 8bbe
00000280: 0ee7 92bd 9be3 c63e e4c0 80be b101 fabe
00000290: eece 10be e14d f7be e9c6 a3bd 103d febe
000002a0: 5a45 58be 3c5e 95bd 2081 9abd 32e2 9d3e
000002b0: 6c77 6ebe f0bc 423e 5ad5 cebe 7a85 68be
000002c0: 0bf1 60bd 1994 65bd 66db 713e d929 95bd
000002d0: 6971 76bf 87e1 c33d 0a8d 8e3d 8a54 12be
000002e0: 76d2 92bd efb0 efbe 2bbc cb3c 565a d33e
000002f0: e806 93be 3ea1 d8be a482 16be 36f6 01bf
00000300: 4ae5 dd3e 0fc0 f8bd 3479 0c3c 1673 8fbd
00000310: 0092 3bbe 4350 e2be a12d 0f3f 255f 74bc
00000320: 30fa 4f3e 90f4 81be 1f24 37bf dd8b 07be
00000330: 41b9 81bd f6a3 b23e 2760 8bbe 171f 983e
00000340: 7034 80be 5477 d1bd 45b5 13bd 522a 31be
00000350: d130 b73e 8e4e 443f 1d83 abbe c8ad bfbe
00000360: b14e e73e c1aa 64be 27f9 04be 55ea 8b3e
00000370: 05f0 49be 685c bdbd 544c 09be 0b43 963d
00000380: 1752 98be 4c40 8bbe 8f24 76bd 2902 363d
00000390: 94b7 3d3f f0be 8ebe 7f27 8abe 43bb 7abd
000003a0: 03d9 90be fa82 1fbd b857 0abe b765 96be
000003b0: dbdb 96bd eb68 c3bd 2f7f 64be e58e c1bd
000003c0: 4fe9 cabe 5112 57bd 51ed aabd 133e 4a3e
000003d0: fcc4 37be 1f95 bbbd 161c 9abe 53f5 84be
000003e0: fcb2 26bf ffcc b7be

weight f4 [100, 250]
-0.02802463 -0.060706425 0.6650395 -0.5897655 0.08380968 -0.061027676 0.0522767 0.2817831
1.7632447 -0.36098117 0.07824243 0.23992388 -1.0476624 -0.040388342 0.042168986 -0.41889206
0.29868883 0.26973838 -0.02083229 0.11154369 -0.2545156 -0.6282325 -0.3684505 0.13661262
-0.37119132 1.4932934 0.55108744 -0.06912252 -0.042813558 1.20409 0.51367986 -0.6712212
-0.21273379 0.4110623 -0.20095274 -0.060007825 -0.4506794 -0.5771026 -0.36314598 1.4052241
-0.3339788 -0.10744023 0.18712997 0.35476804 0.4109046 0.29722905 -0.045344047 -0.41756278
0.1506959 -0.32441238 -0.27018583 -0.049035188 -0.21873535 0.24080546 0.24228796 -0.101176456
0.1344238 0.18234007 -0.215152 0.013140729 1.142071 -0.22418371 -0.44054422 -0.5177714
0.4005916 -0.057051957 1.0539246 0.16919094 -0.27036154 -0.17795973 -0.20013669 -0.20722587
0.2688522 0.34754318 -0.08477289 -0.018938612 -0.17758521 0.5240541 -0.87217396 -0.047158007
-0.014719772 0.49270317 0.1453326 -0.8918942 -0.057489168 -0.18920933 -0.019507002 -0.0050126044
-0.50854844 0.09261873 -0.41921481 0.43035826 -0.3768714 0.019997528 0.017263014 0.07900736
0.29985145 -0.05167802 0.14427961 1.0499183 -0.69069237 -0.16584595 0.5061505 0.5084326
0.3938771 0.06678041 0.08822268 -1.1454831 0.5681928 -0.93345654 0.308116 -0.14674301
0.00049127446 -0.009443469 -0.029478854 -0.02905414 1.5667686 0.28073803 0.035875667 0.089664295
0.2836181 -0.07773117 0.008168789 0.7118969 0.0037789699 0.12668368 -0.062358227 0.24880308
-0.03674721 0.20528959 0.06348271 0.3390808 0.15496475 -0.07654436 -0.65044624 0.08573603
0.5046169 -0.18960813 0.07655914 0.18155302 -0.5428879 0.2003159 0.03196377 0.11914724
0.19238423 -0.014693339 -0.7899904 -0.039627835 -0.75280327 0.006744029 0.76654476 -0.30602002
-0.1203257 0.5214735 0.34589368 -0.27019426 -0.32604417 -0.052449204 0.8333847 0.39756012
0.48427856 -0.43673337 -0.14438167 0.16149499 -0.15248089 -0.38911638 -0.34780282 0.0925111
-0.9468974 0.019416256 0.5695235 -0.37732083 -0.35453838 -0.2256216 -0.06522189 0.21132354
-0.6786302 0.10438757 -0.31973606 -0.097449444 -0.00666402 0.3587347 1.0074631 -0.0027595493
-0.46983254 -0.46006462 -0.6512245 -0.9997271 0.26806888 -0.29570884 1.3362043 -0.24084087
-0.9113858 0.18326522 -0.5791017 0.4914182 -0.029917073 0.26353583 -0.38499692 -0.32020456
-0.073871106 0.1728522 0.022396801 -0.068888314 0.016858796 -0.05967906 -0.2495931 0.6811664
0.011462721 -0.12976472 0.8719905 1.040328 -0.30243 -0.5058723 -0.04147593 -1.3391407
1.4568392 0.49431068 0.11993368 -0.91155887 0.09636045 0.0012581766 -1.3572376 0.4589466
-0.4502633 -0.23237255 0.038194768 -1.0575045 -0.6425153 0.27096698 -0.9034732 0.013494442
0.40783238 -0.16659944 0.71928465 0.050919108 0.36117005 2.0520897 -0.50280553 -0.08960266
-0.8411972 -0.9119359 -0.4322161 1.6592044 -0.16403748 -0.03571336 -0.31052944 0.42750153
0.27036694 0.3791779 0.037780173 -0.95959896 -0.20997351 -0.7412943 -0.9691394 -0.13423927
00000000: e993 e5bc 4da7 78bd 0740 2a3f dffa 16bf
00000010: 69a4 ab3d 28f8 79bd 1820 563d e045 903e
00000020: 01b2 e13f 86d2 b8be 913d a03d 9bae 753e
00000030: cd19 86bf 3f6e 25bd 63b9 2c3d 0579 d6be
00000040: beed 983e 261b 8a3e 7ba8 aabc 0571 e43d
00000050: de4f 82be d8d3 20bf 8ba5 bcbe 2ee4 0b3e
00000060: ca0c bebe 3d24 bf3f 1114 0d3f 1c90 8dbd
00000070: 455d 2fbd 9f1f 9a3f 8680 033f 27d5 2bbf
00000080: e3d6 59be c276 d23e 8ec6 4dbe c4ca 75bd
00000090: 73bf e6be ffbc 13bf 45ee b9be 62de b33f
000000a0: 45ff aabe a009 dcbd 009f 3f3e 28a4 b53e
000000b0: 1662 d23e 682e 983e aeba 39bd caca d5be
000000c0: 0750 1a3e 6119 a6be cc55 8abe 1fd9 48bd
000000d0: 29fc 5fbe b595 763e 561a 783e 9a35 cfbd
000000e0: 65a6 093e 5bb7 3a3e ce50 5cbe 364c 573c
000000f0: 622f 923f 6a90 65be 038f e1be ab8c 04bf
00000100: 581a cd3e 50af 69bd 00e7 863f 6440 2d3e
00000110: d46c 8abe 133b 36be a2f0 4cbe 0533 54be
00000120: ffa6 893e 2ef1 b13e 699d adbd 2625 9bbc
00000130: e6d8 35be 6928 063f cb46 5fbf c128 41bd
00000140: 332b 71bc 9743 fc3e 12d2 143e 2e53 64bf
00000150: c379 6bbd 17c0 41be 26cd 9fbc c640 a4bb
00000160: 3b30 02bf e4ae bd3d 53a3 d6be eb57 dc3e
00000170: 4af5 c0be dbd1 a33c 2a6b 8d3c 9cce a13d
00000180: 2186 993e 55ac 53bd 09be 133e b963 863f
00000190: 37d1 30bf 85d3 29be 1493 013f a428 023f
000001a0: 42aa c93e 2bc4 883d 18ae b43d 319f 92bf
000001b0: 1575 113f 02f7 6ebf 61c1 9d3e cd43 16be
000001c0: dfc8 003a c8b8 1abc a37d f1bc f302 eebc
000001d0: e08b c83f e5bc 8f3e 5df2 123d eaa1 b73d
000001e0: 6436 913e 8531 9fbd 62d6 053c e03e 363f
000001f0: 98a8 773b 5eb9 013e 576b 7fbd 3cc6 7e3e
00000200: 3e84 16bd 6f37 523e 3903 823d 009c ad3e
00000210: 14af 1e3e 4ac3 9cbd a583 26bf 5f96 af3d
00000220: 932e 013f a228 42be 0acb 9c3d 09e9 393e
00000230: b4fa 0abf 9c1f 4d3e 71ec 023d 7803 f43d
00000240: 5f00 453e 55bc 70bc d03c 4abf cc50 22bd
00000250: b7b7 40bf 04fd dc3b 473c 443f a8ae 9cbe
00000260: 526d f6bd 4a7f 053f fa18 b13e e756 8abe
00000270: 43ef a6be fad4 56bd b358 553f 008d cb3e
00000280: 5cf3 f73e 849b dfbe cad8 13be f15e 253e
00000290: f323 1cbe 433a c7be 3613 b2be 7676 bd3d
000002a0: de67 72bf d70e 9f3c 4bcc 113f 3230 c1be
000002b0: 0e86 b5be 5909 67be 0e93 85bd 3365 583e
000002c0: b5ba 2dbf 26c9 d53d 72b4 a3be 9393 c7bd
000002d0: da5d dabb 13ac b73e 8df4 803f 8ed9 34bb
000002e0: e48d f0be 978d ebbe a6b6 26bf 1dee 7fbf
000002f0: 5340 893e 2667 97be be08 ab3f fd9e 76be
00000300: 9450 69bf e1a9 3b3e 0240 14bf 2b9b fb3e
00000310: a614 f5bc 2bee 863e 511e c5be daf1 a3be
00000320: bc49 97bd 2b00 313e 7f79 b73c 5115 8dbd
00000330: 751b 8a3c 0872 74bd 5595 7fbe ec60 2e3f
00000340: 23ce 3b3c 0be1 04be c53a 5f3f 7829 853f
00000350: 1bd8 9abe d980 01bf aae2 29bd f668 abbf
00000360: b579 ba3f 4a16 fd3e ca9f f53d ec5b 69bf
00000370: a158 c53d 67e9 a43a f6b9 adbf 0cfb ea3e
00000380: e988 e6be 12f3 6dbe 1e72 1c3d 4f5c 87bf
00000390: e27b 24bf 2fbc 8a3e 054a 67bf cb17 5d3c
000003a0: 68cf d03e 0b99 2abe 0a23 383f 8e90 503d
000003b0: 48eb b83e 7055 0340 ddb7 00bf 9981 b7bd
000003c0: b358 57bf a274 69bf 6e4b ddbe cf60 d43f
000003d0: 71f9 27be 2c48 12bd b7fd 9ebe 7be1 da3e
000003e0: 896d 8a3e 9b23 c23e 62bf 1a3d 47a8 75bf
000003f0: 4c03 57be 77c5 3dbf 8519 78bf 0576 09be

bias f4 [100]
0.029553838 -0.43037742 -0.022542322 0.24728647 -0.58842635 -0.3498237 -0.21938688 -0.17387617
0.25976607 -0.109638594 -0.12724675 -0.07207583 0.033512656 -0.63811415 -0.32548642 0.37222543
-0.08936273 -0.6862931 -0.21028341 -0.080709405 -0.39335695 -0.44007748 -0.13346727 -0.30167398
0.11699537 -0.017643036 -0.114228815 -0.10662378 -0.3882858 -0.35664055 -0.13200961 0.047741815
-0.26187882 0.13884112 -0.13911057 -0.22149073 -0.05760538 -0.37277117 0.085336216 -0.21576476
-0.25486827 -0.2671332 -0.3666718 -0.38617897 -0.07525683 0.013633666 -0.2800242 0.35503495
0.6813468 -0.47101954 0.19239391 0.16460207 -0.045565657 -0.14783955 -0.2622131 -0.16665773
0.10368149 -0.08273282 0.18131208 -0.425985 0.1175446 0.0899984 -0.34865078 -0.2134839
-0.11791813 -0.14603935 0.436333 0.10374436 0.017806996 -0.1702455 -0.03096536 -0.059379976
0.15835114 0.012684589 -0.05644026 -0.16065815 -0.25679055 -0.19414441 -0.30923164 -0.3498784
-0.22405744 0.25909278 -0.11608092 -0.1916972 -0.40128726 0.52698314 -0.062493235 0.33873716
-0.25145444 -0.08735887 -0.5350866 -0.6381371 -0.32571605 0.3599111 -0.20102696 -0.3236506
0.373995 -0.07189538 0.10016185 -0.31728274
00000000: e41a f23c 6e5a dcbe adaa b8bc aa38 7d3e
00000010: 1ca3 16bf 181c b3be f4a6 60be 980c 32be
00000020: 0f00 853e 338a e0bd f94c 02be 7e9c 93bd
00000030: 9144 093d 735b 23bf 28a6 a6be 5594 be3e
00000040: cf03 b7bd e8b0 2fbf 8954 57be f94a a5bd
00000050: 1566 c9be d651 e1be a5ab 08be 0375 9abe
00000060: 459b ef3d 2188 90bc ccf0 e9bd 925d dabd
00000070: 65cd c6be 9799 b6be 872d 07be ec8c 433d
00000080: fb14 86be 5e2c 0e3e 0073 0ebe 77ce 62be
00000090: 9ef3 6bbd dddb bebe c1c4 ae3d 70f1 5cbe
000000a0: 187e 82be afc5 88be 68bc bbbe 40b9 c5be
000000b0: 4120 9abd bd5f 5f3c 555f 8fbe 24c7 b53e
000000c0: be6c 2e3f 7929 f1be e902 453e 728d 283e
000000d0: 0ea3 3abd 4063 17be cc40 86be 53a8 2abe
000000e0: f656 d43d d36f a9bd e0a9 393e b51a dabe
000000f0: 39bb f03d 1551 b83d 5b82 b2be 869b 5abe
00000100: 0f7f f1bd 578b 15be 0a67 df3e ec77 d43d
00000110: fadf 913c d654 2ebe 11ab fdbc 6b38 73bd
00000120: cd26 223e 06d3 4f3c e72d 67bd 9283 24be
00000130: 0d7a 83be cbcd 46be 9c53 9ebe 4323 b3be
00000140: 506f 65be cfa7 843e d5bb edbd 454c 44be
00000150: 8675 cdbe 5ee8 063f e8f8 7fbd f56e ad3e
00000160: a3be 80be 35e9 b2bd 6ffb 08bf f45c 23bf
00000170: 41c4 a6be 4546 b83e 03da 4dbe 88b5 a5be
00000180: 467c bf3e e33d 93bd a821 cd3d e272 a2be

weight f4 [10, 100]
-0.9276132 -0.25427914 0.057574976 -0.31905314 -0.3452745 0.3658248 -0.6636801 0.27008468
-0.06515307 0.0231306 0.10413916 -0.055262618 -0.33905932 -0.17860825 -0.37066075 -0.2502097
-0.100357495 -0.19748856 0.6969902 -0.027710652 -0.13983423 -0.14601186 0.4193074 0.23291914
0.05017292 0.07411257 0.33713323 0.032757666 -0.5461081 0.64467776 -0.24679293 -0.33366314
-0.19650711 -0.014630332 -0.0976924 0.524703 -0.03319732 -0.48886344 -0.34239113 -0.13709807
-0.13884977 -0.5202671 0.31741473 -0.3854999 -0.52947456 0.4797622 0.087009534 -0.7324281
-0.3760837 -0.2250849 0.42655784 -0.050857466 -0.09063813 -0.31280664 0.41687667 0.57463557
0.44482863 0.27249166 -0.28550753 -0.38726938 0.09537858 -0.4252588 0.7542667 -0.3313598
1.349677 0.11871508 -0.46224156 0.20297378 -0.22156605 -0.654148 0.2042826 -0.5297241
-0.5191151 -0.41796526 -0.25861838 -0.069482185 0.7259206 0.7567224 -0.25980434 -0.3012434
-0.7165671 -0.32404876 -0.0046584257 -0.017575363 -0.43080837 0.26403517 -0.030699162 0.25260332
0.78564805 0.06614404 0.20508957 -0.024319427 -0.49952102 -0.012696911 -0.056720514 -0.34385398
-1.0409219 -0.25216603 -0.3973159 -0.2181014 1.0040433 -0.106133 -0.3031852 -0.16523455
1.1169252 -0.07732876 0.9288269 -0.29257923 -0.43412793 -0.0007419583 -0.6509385 -0.009068228
-0.03482407 -0.5236698 0.28825015 -0.56214863 -0.20030522 -0.17184168 -0.28916726 -0.14622986
-0.5917757 -0.3740103 -0.9322474 -0.37313232 -0.06589712 0.0071086357 0.117660664 -0.081611425
0.2000306 -0.47351965 -0.15883154 -0.7094825 0.7428943 -0.65902054 -0.30309972 -0.52850765
0.013588705 0.6942955 -0.14554867 -0.54370546 -0.5354179 0.47043324 -0.5670855 0.026243519
-0.9783728 -0.2154362 -0.26180437 -0.069171816 -0.5052148 -0.4814309 0.13770874 -0.59645826
-0.59875375 -0.87724465 0.15002005 -0.405319 -0.0071949973 0.45382035 0.3249205 0.1144363
-0.12433104 0.68601125 -0.19604635 0.87924385 -0.28796038 -0.020033473 0.06908132 -0.5203898
-0.42551133 0.6219473 -0.21553974 -0.62405604 -0.08874435 0.73540175 -0.45253554 0.72478676
-0.3568825 -0.23608933 0.23469542 0.09937503 0.27238643 -0.0958748 0.012046346 0.1405479
-0.3876611 0.0779497 -0.25419116 -0.5957245 0.12521319 -0.7533824 -0.21715613 -0.5075941
0.4850669 -0.83065397 -0.60644126 -0.6550216 -0.48619696 0.14993498 -0.5485792 -0.43273675
-0.80657417 -0.4124902 -0.12452028 -1.0405583 -0.122247934 -0.037262786 -0.44289735 -0.81508976
0.15768985 0.010450468 0.5387249 -0.066619955 0.42382193 0.21056835 0.4820434 -0.7245282
-0.98299164 0.67064947 -0.51773286 -0.10986105 0.5696641 0.4832292 0.486688 -0.27238342
-0.100002244 0.03707082 0.0067628175 -0.0032435283 0.2672912 -0.2088153 -0.41700628 0.21092391
-0.38065335 -0.011812993 -0.737808 0.4859686 -0.001462051 0.2521392 -0.35930118 -0.37023574
-0.59450734 0.26004604 0.64310485 0.50212234 -0.10485658 -0.3173557 -0.005095519 -0.6052632
-0.79505306 -0.9177069 -0.5730471 -0.28473374 -0.71040595 -0.04442017 -0.003938359 -0.22071101
00000000: 0f78 6dbf e030 82be bdd3 6b3d ef5a a3be
00000010: d2c7 b0be 634d bb3e f0e6 29bf 8a48 8a3e
00000020: f96e 85bd 627c bd3c e946 d53d 0e5b 62bd
00000030: 2f99 adbe 15e5 36be 3fc7 bdbe 7c1b 80be
00000040: 3b88 cdbd 713a 4abe f36d 323f 7301 e3bc
00000050: b430 0fbe 2284 15be 76af d63e 5b82 6e3e
00000060: 1f82 4d3d 55c8 973d ba9c ac3e e72c 063d
00000070: becd 0bbf 9a09 253f 49b7 7cbe e5d5 aabe
00000080: 2939 49be 0fb4 6fbc f412 c8bd f052 063f
00000090: eaf9 07bd 4f4c fabe e44d afbe 7063 0cbe
000000a0: a22e 0ebe 3a30 05bf 2f84 a23e 3e60 c5be
000000b0: a58b 07bf 64a3 f53e 0e32 b23d 6880 3bbf
000000c0: 0b8e c0be a87c 66be ca65 da3e eb4f 50bd
000000d0: 7ca0 b9bd 3128 a0be dc70 d53e 511b 133f
000000e0: 94c0 e33e 0784 8b3e 0b2e 92be 2c48 c6be
000000f0: d855 c33d 85bb d9be 9f17 413f fea7 a9be
00000100: 37c2 ac3f e420 f33d edaa ecbe 5cd8 4f3e
00000110: 36e2 62be 3e76 27bf 752f 513e 009c 07bf
00000120: bae4 04bf 8bff d5be a169 84be ad4c 8ebd
00000130: efd5 393f 8fb8 413f 1305 85be 933c 9abe
00000140: f170 37bf b8e9 a5be b5a5 98bb 35fa 8fbc
00000150: ea92 dcbe 9e2f 873e cf7c fbbc 3955 813e
00000160: 3b20 493f 8776 873d 0003 523e 8939 c7bc
00000170: 38c1 ffbe b406 50bc c553 68bd a10d b0be
00000180: ee3c 85bf e81b 81be fd6c cbbe f955 5fbe
00000190: 7e84 803f 425c d9bd 173b 9bbe 3f33 29be
000001a0: 68f7 8e3f 8a5e 9ebd 9ac7 6d3f f2cc 95be
000001b0: 0446 debe fb7f 42ba e8a3 26bf e892 14bc
000001c0: afa3 0ebd 390f 06bf 8695 933e f9e8 0fbf
000001d0: d01c 4dbe 44f7 2fbe bb0d 94be 48bd 15be
000001e0: 9d7e 17bf 477e bfbe c4a7 6ebf 330b bfbe
000001f0: 12f5 86bd 8fef e83b 13f8 f03d e423 a7bd
00000200: d2d4 4c3e 2b71 f2be bca4 22be a5a0 35bf
00000210: 522e 3e3f 92b5 28bf e32f 9bbe 474c 07bf
00000220: 29a3 5e3c 5abd 313f b60a 15be 4830 0bbf
00000230: 2611 09bf a0dc f03e 842c 11bf a6fc d63c
00000240: a476 7abf 4f9b 5cbe 390b 86be f4a9 8dbd
00000250: c255 01bf 1c7e f6be 8503 0d3e 7db1 18bf
00000260: ed47 19bf 1b93 60bf db9e 193e f985 cfbe
00000270: 03c4 ebbb 245b e83e fb5b a63e 945d ea3d
00000280: 46a1 febd 6f9e 2f3f 60c0 48be 2016 613f
00000290: 8b6f 93be 3d1d a4bc 827a 8d3d 4438 05bf
000002a0: 9fdc d9be f037 1f3f 73b6 5cbe 23c2 1fbf
000002b0: 99bf b5bd 4a43 3c3f bdb2 e7be a08b 393f
000002c0: 4eb9 b6be 67c1 71be ff53 703e 2385 cb3d
000002d0: 3c76 8b3e 025a c4bd 0a5e 453c caeb 0f3e
000002e0: 847b c6be 18a4 9f3d 5825 82be 6781 18bf
000002f0: e337 003e abdd 40bf 2d5e 5ebe b0f1 01bf
00000300: b05a f83e bda5 54bf bc3f 1bbf 7faf 27bf
00000310: cfee f8be 8e88 193e b06f 0cbf ac8f ddbe
00000320: a57b 4ebf ea31 d3be 7d04 ffbd 0431 85bf
00000330: 205d fabd dda0 18bd 71c3 e2be b9a9 50bf
00000340: 7379 213e 7138 2b3c e0e9 093f 0b70 88bd
00000350: 30ff d83e 3b9f 573e 64ce f63e ae7a 39bf
00000360: 57a5 7bbf afaf 2b3f 248a 04bf d5fe e0bd
00000370: 82d5 113f d169 f73e 2b2f f93e d775 8bbe
00000380: facd ccbd 92d7 173d a09a dd3b 6091 54bb
00000390: 64da 883e aed3 55be d981 d5be 70fc 573e
000003a0: ffe4 c2be 498b 41bc fce0 3cbf e0d0 f83e
000003b0: 4aa2 bfba 6418 813e 53f6 b7be 8a8f bdbe
000003c0: a231 18bf c124 853e 85a2 243f 178b 003f
000003d0: 0cbf d6bd 727c a2be 50f8 a6bb 87f2 1abf
000003e0: 9988 4bbf d7ee 6abf 37b3 12bf 9fc8 91be
000003f0: 2add 35bf edf1 35bd 5a0d 81bb 1102 62be

bias f4 [10]
-0.0870215 -0.011637591 -0.1340576 -0.11096679 -0.0025993246 0.048256855 -0.119399674 -0.041823663
0.6496871 0.104249716
00000000: 5438 b2bd 98ab 3ebc 6546 09be 8e42 e3bd
00000010: 6e59 2abb fba8 453d d187 f4bd 4a4f 2bbd
00000020: e551 263f e080 d53d
