mlartifacts/0/67346283b2b74d1d960d5be66d1e0a03/artifacts/mnist_mlp/data/model.pth (torch, 101184 bytes, 4 tensors)

weight f4 [30, 784]
0	0x3ca0e7ea	0.019641835
1	0xbcddb38e	-0.027063157
2	0x3d0704eb	0.032963675
3	0x3cde219a	0.027115632
4	0xbc8e40d5	-0.017364899
5	0x3ccbcc07	0.024877561
6	0xbcbe152a	-0.023203451
7	0x3c4ddbb3	0.012564587
8	0x3ca1e5b0	0.019762844
9	0x3c10554e	0.008809401
10	0xbbdc019c	-0.006714059
11	0x3cd907e7	0.026493026
12	0xbc6f9c3a	-0.01462465
13	0x3c6f04e7	0.014588571
14	0x3cdbe3ae	0.026841965
15	0x3cf6fade	0.03014892
16	0xbcc9616a	-0.024582583
17	0x3b5ec8ee	0.0033994275
18	0x3c84907a	0.016182173
19	0xbcec4455	-0.028841177
20	0xbce6eed8	-0.028190061
21	0xbce7f23c	-0.028313749
22	0x3cf43f73	0.029815411
23	0x3c51820a	0.012787351
24	0x3cea90ac	0.028633438
25	0x3c390085	0.011291628
26	0x3bd023c1	0.0063519184
27	0x3cc3d30c	0.023904346
28	0xbcb2c063	-0.021820253
29	0xbcd99bea	-0.026563603
30	0xbc893357	-0.016748114
31	0xbc128317	-0.008942387
32	0xbb51b4b0	-0.0031998567
33	0x3d2f165d	0.042745937
34	0x3ad6a5bc	0.0016376297
35	0x3be37d98	0.006942462
36	0xbbfa1022	-0.0076313177
37	0x3d72c087	0.05926564
38	0x3cd1f472	0.025629256
39	0x3bcf2309	0.006321315
40	0x3d7a2738	0.06107256
41	0x3cc5ac8e	0.024130132
42	0xbccad905	-0.024761686
43	0xbca5abff	-0.020223616
44	0x3d2ea89b	0.042641263
45	0x3d02ffb4	0.03198214
46	0x3d8565c4	0.06513551
47	0x3d55fb7e	0.052241795
48	0x3d80fed2	0.06298603
49	0xbba21916	-0.004946838
50	0x3d540751	0.05176479
51	0x3c5c6fe4	0.013454411
52	0x3c7bc653	0.015367108
53	0xbc81152e	-0.01575717
54	0x3d113502	0.035450943
55	0x3d01b9d8	0.031671375
56	0xbcec072e	-0.028812017
57	0x3cea1a91	0.028577121
58	0xbced8305	-0.028993139
59	0xbcbce1e4	-0.023056932
60	0x3d3f6d7d	0.046735276
61	0x3c574af5	0.01314043
62	0x3d085889	0.03328756
63	0x3d806a60	0.062702894
64	0x3d626e2f	0.05528086
65	0x3cee0bac	0.0290583
66	0x3daade37	0.08343165
67	0x3d77fbf0	0.060543
68	0x3d85d0ab	0.06533941
69	0x3d267266	0.040636443
70	0x3c992068	0.01869221
71	0xbc9ee440	-0.019395947
72	0x3c11900c	0.008884441
73	0x3d715a6d	0.058924127
74	0x3d88c663	0.06678464
75	0x3d6aacdf	0.05729377
76	0x3d387082	0.04502917
77	0x3cab426e	0.0209057
78	0x3d55642d	0.05209749
79	0x3c820b80	0.015874624
80	0xbc5bb5fb	-0.013410087
81	0x3cc228ae	0.023701038
82	0xbcaa3fbe	-0.020782348
83	0xbbadbd37	-0.005302097
84	0xbc11c35c	-0.008896675
85	0xbc3f5481	-0.011677862
86	0xbc3fe731	-0.011712835
87	0x3c9ab70b	0.01888611
88	0x3d2b491e	0.041817777
89	0x3c2b31e8	0.01044891
90	0x3c795f8c	0.015220534
91	0x3d937c4a	0.07201441
92	0x3c7c4314	0.015396852
93	0x3d968a0e	0.073505506
94	0x3cc7b332	0.02437744
95	0x3db466a8	0.088086426
96	0x3de9b308	0.114111006
97	0x3db0ce3e	0.086330876
98	0x3db7d844	0.08976796
99	0x3c943127	0.018089844
100	0x3d80e484	0.06293586
101	0x3d4c86d3	0.049933266
102	0x3d708efb	0.058730107
103	0x3d2089d4	0.039193943
104	0x3c001652	0.007817822
105	0x3d08874e	0.03333216
106	0x3cc46462	0.023973648
107	0xbae9f87e	-0.0017850546
108	0xbb8c603c	-0.004283933
109	0x3baaa40a	0.0052075433
110	0xbbcc934a	-0.006243144
111	0x3c9e656e	0.019335475
112	0xbcdd8cdc	-0.027044706
113	0xbcbbf171	-0.022942277
114	0x3c12854d	0.008942914
115	0xbcc9f017	-0.024650617
116	0x3c7ecc9b	0.015551711
117	0x3d34a944	0.044106737
118	0x3d3d9aec	0.046290323
119	0x3d8bd0cc	0.06826934
120	0x3d93dda5	0.0722001
121	0x3d438aeb	0.047739904
122	0x3d916ef1	0.071012385
123	0x3d48b713	0.04900272
124	0x3cd2863d	0.025698775
125	0x3cb64ba3	0.022252863
126	0x3d9e587e	0.07731722
127	0x3d146e8f	0.03623825
128	0x3d42e1ad	0.047578502
129	0x3d6bcf0e	0.05757051
130	0x3d2dfe77	0.042479005
131	0xbcbff5e5	-0.023432681
132	0xbd43f6e1	-0.047842864
133	0xbdb9c02d	-0.09069858
134	0xbd9db212	-0.0769998
135	0xbd25aa7b	-0.040445786
136	0x3cabeff1	0.020988436
137	0x3d78c39f	0.060733434
138	0x3d57fd21	0.052731637
139	0x3c94a1b2	0.018143509
140	0x3c98d180	0.018654585
141	0xbc25f4b3	-0.010129142
142	0xbc138872	-0.009004699
143	0x3c553c3c	0.013014849
144	0x3adcadfd	0.001683652
145	0x3d1d3301	0.03837872
146	0xbc640975	-0.01391827
147	0x3d685a4a	0.05672673
148	0x3cd1d5d6	0.02561466
149	0x3d53bc5b	0.0516933
150	0x3db447cb	0.08802756
151	0x3d688d55	0.05677541
152	0x3d2d30f5	0.042283017
153	0x3da3808a	0.07983501
154	0x3df1ca8d	0.118062116
155	0x3e1ab1e2	0.1510692
156	0x3de9714a	0.11398561
157	0x3e198080	0.14990425
158	0x3d7b1c05	0.06130602
159	0x3b70e6e1	0.0036758708
160	0xbcc3a310	-0.023881465
161	0xbd0e5374	-0.034747556
162	0xbd9fdf02	-0.07806207
163	0xbd0d8387	-0.034549262
164	0x3c992a74	0.018697001
165	0x3dd6f032	0.10495032
166	0x3d5dbc16	0.05413445
167	0x3d57f5a1	0.052724484
168	0x3d0141cd	0.031556893
169	0x3ccb5cc1	0.024824502
170	0xbb06ce87	-0.0020569877
171	0xbcd04685	-0.025424251
172	0x3bf75706	0.007548216
173	0xbca535dc	-0.020167284
174	0xbd2b158e	-0.041768603
175	0x3bb0aba6	0.005391556
176	0x3d60b27d	0.05485772
177	0x3d42484f	0.04743224
178	0x3dcfbdb7	0.10143607
179	0x3d6cb9e7	0.057794478
180	0x3e094db1	0.13408543
181	0x3e105fe8	0.14099085
182	0x3e4b45eb	0.1985089
183	0x3e62826a	0.22120062
184	0x3e399ca7	0.18126164
185	0x3e017fe1	0.12646438
186	0x3de8845f	0.11353373
187	0x3d644426	0.055729054
188	0x3b59b205	0.003321768
189	0x3cdcb746	0.02694286
190	0xbcad908e	-0.021187093
191	0x3d65da4f	0.0561164
192	0x3de71602	0.112834945
193	0x3dcf6332	0.10126342
194	0x3dc86c2d	0.09786258
195	0x3d6caad7	0.057780113
196	0xbc4d61f7	-0.012535564
197	0x3c9406d7	0.018069668
198	0xbd53c8ba	-0.0517051
199	0xbbe36a7f	-0.0069401856
200	0x3b08a6c1	0.0020851346
201	0xbd0ca960	-0.034341216
202	0xbcb1f4d8	-0.021723196
203	0xbd2cdae1	-0.042200927
204	0x3c8adeeb	0.016951999
205	0x3d7274fc	0.059193596
206	0x3d76dc19	0.060268495
207	0x3e085d1f	0.13316773
208	0x3dffd0e8	0.124910176
209	0x3e291ddf	0.16515301
210	0x3e3ac01c	0.18237346
211	0x3e57c894	0.21072608
212	0x3e5b2d88	0.21404088
213	0x3e04edbf	0.12981318
214	0x3da29051	0.079376824
215	0x3dc6b4bf	0.09702443
216	0x3d3e5c33	0.046474647
217	0x3ceedebe	0.029158946
218	0x3cf4ec7c	0.02989792
219	0x3df39db5	0.118953146
220	0x3e3d78e2	0.18503144
221	0x3deffa65	0.11717681
222	0x3da5667f	0.0807619
223	0x3d5834f0	0.05278486
224	0xbd0bd250	-0.034136117
225	0xbbb153c5	-0.0054115974
226	0xbd949d85	-0.07256607
227	0xbd044f4b	-0.032302182
228	0xbd1c7dee	-0.038206033
229	0xbc8acfd1	-0.016944798
230	0x3af26bb1	0.0018495229
231	0xbd247614	-0.04015167
232	0x3d3be3bd	0.045871485
233	0x3d217351	0.039416615
234	0x3d93f1be	0.07223843
235	0x3d84fae7	0.06493168
236	0x3dd60e35	0.104519285
237	0x3da44bc1	0.080222614
238	0x3d7b9062	0.06141699
239	0x3d93a5ed	0.07209382
240	0x3dc82e5b	0.097744666
241	0x3c53ac52	0.012919502
242	0x3ce0cbf2	0.027440999
243	0x3d8dc95b	0.06923171
244	0x3d595637	0.053060737
245	0x3dc642a8	0.096806824
246	0x3dd3f9b9	0.10350365
247	0x3df46f6b	0.11935314
248	0x3e53989e	0.20663688
249	0x3e4a4a62	0.19754937
250	0x3dbb9dc9	0.091609545
251	0x3d8ec430	0.069710135
252	0xbcec8304	-0.028871067
253	0x3bf0994b	0.0073424927
254	0xbca92dd4	-0.020651735
255	0xbc8d6615	-0.01726059

bias f4 [30]
0	0xbd945864	-0.07243422
1	0x3dfd32f3	0.123632334
2	0x3e2f8183	0.17139249
3	0x3e298034	0.16552812
4	0x3dadcc2b	0.084862076
5	0x3d6d8b47	0.057994153
6	0x3e07ba06	0.13254556
7	0x3dabcbf8	0.08388513
8	0x3dc02cec	0.09383568
9	0x3db899de	0.09013723
10	0x3d2ea431	0.042637054
11	0x3dca5517	0.09879511
12	0x3d93c528	0.07215339
13	0x3dcc87bc	0.09986827
14	0x3db40d8b	0.087916456
15	0x3cceaf30	0.02523002
16	0x3bd9b2b6	0.0066436185
17	0x3df1b192	0.11801447
18	0xbbcc8ae5	-0.0062421435
19	0x3de22754	0.110426575
20	0x3d78e474	0.060764745
21	0xbd5c0f10	-0.053725302
22	0xbc993159	-0.018700289
23	0x3dfe0a2e	0.12404285
24	0xbce9a01c	-0.028518729
25	0x3d274550	0.040837586
26	0x3d749ea2	0.059721597
27	0x3e22e77c	0.15908617
28	0x3d612240	0.054964304
29	0x3d09107b	0.033462983

weight f4 [10, 30]
0	0x3d8724f4	0.06598845
1	0xbd340bbf	-0.043956514
2	0x3e87f470	0.2655368
3	0xbe4f6b34	-0.20255738
4	0xbe259128	-0.16168654
5	0xbecc9ed6	-0.39964932
6	0xbe938295	-0.28810564
7	0xbea0cbbf	-0.31405446
8	0xbe38731b	-0.18012659
9	0xbe81c2ec	-0.25344026
10	0x3e9952d7	0.29946014
11	0x3df2f4d9	0.11863107
12	0xbc3f0cfd	-0.0116608115
13	0x3e80d215	0.2516028
14	0xbe8d73ea	-0.27627498
15	0xbd938323	-0.07202747
16	0x3e70db32	0.23521116
17	0xbe859308	-0.26088738
18	0xbe5f766c	-0.21822518
19	0xbe03ec56	-0.12883124
20	0xbe43b8ac	-0.19113415
21	0x3e8f7826	0.28021353
22	0x3e94e189	0.2907832
23	0xbe7b53e9	-0.24543728
24	0xbe59cdaa	-0.21269861
25	0xbe9ff518	-0.3124168
26	0x3e3d9053	0.18512087
27	0x3d65266b	0.05594484
28	0x3ea965f2	0.3308559
29	0x3e910acc	0.2832855
30	0xbebeb3c9	-0.3724654
31	0x3cdb9cdb	0.026808193
32	0xbbf29fbd	-0.007404296
33	0xbe9b48f8	-0.30329108
34	0x3dc1850c	0.09449205
35	0x3e8a2cc7	0.26987287
36	0x3d8d8172	0.06909455
37	0x3e3888e2	0.18020967
38	0x3e94457b	0.2895926
39	0x3ea38855	0.3193995
40	0x3de1c174	0.110232264
41	0x3e5e2feb	0.21697967
42	0xbe864698	-0.26225734
43	0xbe383141	-0.17987539
44	0xbe450790	-0.19241166
45	0xbec99bdf	-0.39376733
46	0xbe87f19c	-0.2655152
47	0xbe9e1897	-0.30878136
48	0xbec06cd4	-0.3758303
49	0x3e9d47e0	0.307189
50	0x3d28a3a3	0.04117168
51	0xbe8f7737	-0.2802064
52	0xbecd1c6d	-0.4006075
53	0xbe29caa0	-0.16581202
54	0xbe861357	-0.2618663
55	0x3e91d5c4	0.28483403
56	0xbe6f8c25	-0.23393305
57	0x3ea7ba4f	0.3275933
58	0xbc907ab6	-0.017636638
59	0xbe4401e0	-0.1914134
60	0xbdff2445	-0.1245809
61	0xbe913f70	-0.2836871
62	0xbe186d85	-0.14885528
63	0xbe9d0e74	-0.3067509
64	0xbc11d82b	-0.008901636
65	0xbe50c4fe	-0.20387647
66	0xbec08a37	-0.3760545
67	0x3e2a8f44	0.16656214
68	0xbe751e45	-0.23937328
69	0xbd900f60	-0.070341825
70	0xbe5d47de	-0.21609446
71	0xbea430f5	-0.320686
72	0xbeadd338	-0.3395021
73	0x3e941b65	0.2892715
74	0xbeced72b	-0.40398535
75	0x3e80be91	0.2514539
76	0xbe8a02a0	-0.26955128
77	0xbd769ad6	-0.060206257
78	0x3e8564c6	0.26053447
79	0x3e8c3543	0.27384385
80	0x3d539b0e	0.051661544
81	0x3e6af643	0.22945504
82	0x3dd47f15	0.103758015
83	0xbd93de16	-0.07220094
84	0x3e93c510	0.28861284
85	0x3ea01e00	0.31272888
86	0x3dbe7d14	0.093012005
87	0x3e44f1fe	0.19232938
88	0xbda3e8f6	-0.08003418
89	0xbe41c7f2	-0.1892393
90	0x3e490d63	0.19634013
91	0xbeb0564a	-0.34440833
92	0xbe805372	-0.25063664
93	0xbe9662c0	-0.29372215
94	0x3e0937eb	0.13400237
95	0x3e598d8f	0.21245407
96	0x3e02a280	0.12757301
97	0xbe64e24e	-0.22351953
98	0x3d2866b2	0.041113563
99	0xbe9c6927	-0.30548975
100	0xbe8c250d	-0.27372018
101	0xbe6db71e	-0.23214385
102	0xbe90ce1c	-0.2828225
103	0x3e8bda5c	0.27315032
104	0x3e7af8ca	0.24508968
105	0xbde3ba7b	-0.11119553
106	0x3e5651c2	0.20929626
107	0xbec0212e	-0.37525314
108	0x3e3583c9	0.17726053
109	0x3e117a9c	0.14206928
110	0x3e4597aa	0.19296136
111	0xbdc69b93	-0.09697642
112	0x3e858b0f	0.26082656
113	0xbe33ef85	-0.17571838
114	0x3e190357	0.1494268
115	0xbd5d59cc	-0.054040715
116	0xbe92614a	-0.2858985
117	0x3e4718b9	0.19443025
118	0xbeb504ef	-0.35355327
119	0x3e1c146a	0.15242162
120	0xbeb90d16	-0.36142796
121	0x3dbfa196	0.09356992
122	0xbe47fc04	-0.1952973
123	0xbc01d2f9	-0.007923835
124	0xbeaa8144	-0.33301747
125	0x3e90ac40	0.28256416
126	0xbe96261c	-0.2932595
127	0xbe24ab19	-0.16080894
128	0xbd4f87a5	-0.05066647
129	0xbea8e3d3	-0.32986316
130	0x3e8f6a5e	0.2801084
131	0xbe96e62c	-0.29472482
132	0x3eb54c55	0.354098
133	0xbdbedd90	-0.093196034
134	0x3e47ca3b	0.19510739
135	0x3dd8134b	0.10550555
136	0x3e451863	0.19247584
137	0x3e9cc3b8	0.30618072
138	0xbd59e2c6	-0.053194784
139	0xbc815d6a	-0.015791614
140	0xbe3c6086	-0.18396196
141	0xbed3e56d	-0.41385975
142	0xbe13f502	-0.14448932
143	0x3b98246f	0.004643015
144	0x3e40fa29	0.18845429
145	0xbeaf6488	-0.34256387
146	0x3e3863ae	0.18006775
147	0xbe81e37a	-0.25368863
148	0xbddaab2c	-0.1067718
149	0xbeb3d0b6	-0.3512017
150	0x3e3ada7b	0.18247406
151	0xbe8c4084	-0.27392972
152	0x3e07873b	0.1323518
153	0x3d9f3e8e	0.07775603
154	0xbecc044f	-0.39847037
155	0xbe5f2c13	-0.21794157
156	0x3e3cae8c	0.1842596
157	0xbe481596	-0.19539484
158	0xbdae2bde	-0.08504461
159	0xbe968c1d	-0.29403773
160	0xbea9bf7b	-0.331539
161	0x3e3939a4	0.18088394
162	0x3e84e597	0.25956413
163	0x3e2b0497	0.1670097
164	0x3d48e880	0.049049854
165	0x3e2168b7	0.15762602
166	0xbbdb1b3c	-0.006686596
167	0x3cfcc8ba	0.030857433
168	0xbe884e9f	-0.26622483
169	0x3a12af98	0.00055956235
170	0x3e8aff67	0.27147982
171	0x3e1bf7ac	0.15231198
172	0xbe502a59	-0.20328654
173	0xbd6cc50f	-0.057805117
174	0xbe79c167	-0.24390183
175	0xbed8ff46	-0.42382258
176	0xbe3a1493	-0.18171911
177	0x3e75f4ff	0.2401924
178	0x3e12cf8e	0.14336988
179	0xbd18284f	-0.037147816
180	0xbd0996a7	-0.03359094
181	0x3e8e4d3b	0.27793297
182	0xbe7b352a	-0.24531999
183	0x3e56292e	0.20914146
184	0xbe7d0541	-0.24709035
185	0xbe81cd71	-0.25352052
186	0xbde8036c	-0.11328778
187	0x3e714a92	0.23563603
188	0x3dfbbaf5	0.122915186
189	0x3e8ea380	0.27859116
190	0xbe1a2e50	-0.1505673
191	0xbe4a108d	-0.19732876
192	0xbea7f74f	-0.3280587
193	0xbd27deb6	-0.040983878
194	0xbe316a52	-0.17325714
195	0x3e845476	0.2584569
196	0xbdf043af	-0.117316596
197	0x3e254363	0.16138987
198	0xbed391d4	-0.41322196
199	0xbe312465	-0.1729904
200	0xbea91952	-0.3302713
201	0xbe084a4a	-0.13309589
202	0xbb528820	-0.0032124594
203	0xbeab3d35	-0.33445135
204	0xbde66f68	-0.11251718
205	0xbdd6a010	-0.10479748
206	0x3e1b3edb	0.15160696
207	0xbea1ee53	-0.3162714
208	0xbe6d29b7	-0.23160444
209	0x3e8e8a1d	0.27839747
210	0xbec8478c	-0.39117086
211	0x3e94661c	0.28984153
212	0x3e96d5b4	0.29459918
213	0x3d9b3fb9	0.075805135
214	0x3ea89a85	0.3293039
215	0xbdbc5a4d	-0.09196911
216	0x3e38ac4a	0.18034473
217	0xbe9bb432	-0.30410916
218	0xbec97d0c	-0.39353216
219	0xbea3e293	-0.320088
220	0x3e0651bc	0.13117117
221	0x3e14e7c3	0.14541535
222	0xbe1e84e5	-0.15480383
223	0x3d152784	0.03641464
224	0x3e554539	0.20827188
225	0xbe919071	-0.28430513
226	0xbea7db64	-0.3278457
227	0xbe757eae	-0.23974106
228	0x3e5ac678	0.21364772
229	0x3ea4122a	0.32045108
230	0xbec67d9c	-0.38767707
231	0xbdb4b7c2	-0.088241115
232	0x3e96634c	0.29372633
233	0x3e4674aa	0.19380441
234	0xbe73cab9	-0.23807801
235	0x3c52cd02	0.0128662605
236	0xbe8decff	-0.27719876
237	0xbdb4ef9f	-0.088347666
238	0x3d04d303	0.0324278
239	0xbc28445f	-0.010270207
240	0x3e38c4c4	0.1804381
241	0xbdad9c58	-0.08477086
242	0xbec7211b	-0.38892445
243	0xbeb95c5d	-0.3620328
244	0xbe66a4df	-0.22523831
245	0x3dba827b	0.091069184
246	0x3d478a41	0.048715834
247	0x3d4a9c8c	0.0494657
248	0xbd8ed8a8	-0.06974918
249	0x3dfab5cb	0.122417055
250	0x3dad126f	0.084507816
251	0x3e9653cd	0.2936081
252	0x3e0c06e1	0.13674499
253	0xbec7c3ca	-0.39016563
254	0x3ca1d188	0.019753233
255	0x3cd1b672	0.025599692

bias f4 [10]
0	0xbccd750f	-0.025080232
1	0x3ddfa22d	0.109196045
2	0xbd9eb2fc	-0.07748982
3	0x3de81fb3	0.11334171
4	0x3cf999ef	0.03046891
5	0x3d12ea40	0.03586793
6	0x3df595d4	0.11991468
7	0x3c0ef879	0.008726233
8	0xbe83297e	-0.25617594
9	0xbdecd274	-0.11563578
