mlartifacts/0/5d32de4db24145ad959cbe81e0427c2d/artifacts/mnist_mlp/data/model.pth (torch, 69248 bytes, 4 tensors)

weight f4 [20, 784]
0	0xbca9e617	-0.020739598
1	0xbcaca323	-0.021073883
2	0x3c52548a	0.0128375385
3	0xbc05686a	-0.00814257
4	0xbcdd905e	-0.027046379
5	0xbcd6026a	-0.026124198
6	0xbc299baa	-0.010352055
7	0xbc75f48a	-0.015011916
8	0xbc97cb87	-0.018529667
9	0x3bd05dca	0.006358837
10	0x3d00c782	0.031440265
11	0xbced6183	-0.028977161
12	0xbb9ce380	-0.0047878623
13	0xbcbf6f92	-0.02336863
14	0xbb48d868	-0.0030646566
15	0x3cdf917b	0.02729105
16	0xbd0bebe8	-0.034160525
17	0xbc4771b7	-0.012173108
18	0xbc81403a	-0.015777696
19	0x3d0896c2	0.0333469
20	0x3cafd043	0.021461612
21	0xbc822b75	-0.015889863
22	0x3c45c013	0.01206972
23	0xbcf8c781	-0.030368568
24	0x3bdbe09c	0.006710125
25	0x3c32c54e	0.010911299
26	0x3c3cd63c	0.011525687
27	0xbce5fa61	-0.028073492
28	0xbcfd99ec	-0.030957185
29	0x3d0eaf13	0.034834933
30	0xbc5978ca	-0.013273427
31	0xbcab27f3	-0.020893073
32	0x3ba85590	0.005137153
33	0x3c3bc5e9	0.01146076
34	0x3c66c111	0.014084117
35	0x3d034b7a	0.032054402
36	0xbc8d3e89	-0.017241733
37	0x3cbe34c3	0.023218518
38	0xbd0d9720	-0.034567952
39	0x3cfa170c	0.030528568
40	0xbd19e6a1	-0.03757346
41	0x3b310b44	0.0027014771
42	0x3d52e5cb	0.05148868
43	0x3b0f91c2	0.0021906947
44	0x3cac4f85	0.021034012
45	0x3cc6d62c	0.024272047
46	0x3c22291e	0.009897498
47	0x3d0828e8	0.033242136
48	0x3d0ae3ea	0.033908762
49	0xbb0d8926	-0.002159664
50	0xbc9581cb	-0.018250367
51	0xbc8c512e	-0.017128553
52	0xbc773af3	-0.015089738
53	0x3cffc685	0.031222591
54	0x3c8ce930	0.017201036
55	0x3c9ae483	0.018907791
56	0xbd0a968f	-0.03383499
57	0xbbce025c	-0.0062869024
58	0xbc2c1813	-0.010503787
59	0xbb825a88	-0.0039780773
60	0x3c1a8c76	0.009432903
61	0xbced0860	-0.028934658
62	0xba482540	-0.0007634945
63	0x3d15af4a	0.03654412
64	0x3d00123e	0.031267397
65	0xbc31a7d9	-0.010843241
66	0xbc52dac8	-0.012869544
67	0xbb71b7a0	-0.003688313
68	0xbc1a8fdf	-0.009433716
69	0x3cbd8b3b	0.02313768
70	0x3da6d88a	0.0814677
71	0x3db6c2f3	0.08923902
72	0x3d399a1f	0.045312997
73	0xbc919161	-0.017769517
74	0x3c415752	0.011800604
75	0x3cd8f4bd	0.026483888
76	0xbb825852	-0.0039778138
77	0x34fc6ef8	4.7019398e-07
78	0xbca5a101	-0.020218374
79	0xbc21ed7e	-0.009883283
80	0x3c7be7b2	0.015375065
81	0x3c351af8	0.011053793
82	0x3cd00b8a	0.025396127
83	0x3c09ecfc	0.008418318
84	0x3c6bcadc	0.014391627
85	0xbc8ad2ac	-0.01694616
86	0x3c030b1a	0.007998252
87	0xbd165714	-0.036704138
88	0x3cde553a	0.027140249
89	0x3cb79dff	0.022414206
90	0x3d0c412e	0.034241848
91	0x3cd0e653	0.025500452
92	0x3b82467b	0.003975687
93	0x3cef8150	0.029236466
94	0xbc6798a1	-0.014135511
95	0xbd9c257c	-0.07624337
96	0xbc906e91	-0.017630847
97	0xbc0f4cbf	-0.008746325
98	0xbccedb9e	-0.025251206
99	0xbd6a74de	-0.05724036
100	0xbcdeb9a6	-0.027188133
101	0xbda671dc	-0.08127186
102	0xbe025563	-0.12727885
103	0xbd24b843	-0.04021479
104	0xbd4129d5	-0.047159035
105	0xbcc8186b	-0.024425706
106	0x3cdf8c05	0.027288446
107	0x3be5cb66	0.0070127724
108	0xbcf98016	-0.030456584
109	0x3c97282b	0.01845177
110	0x3c8fef89	0.017570274
111	0x3cd090f5	0.025459746
112	0xbbc32037	-0.005954768
113	0xbc4a0fcd	-0.012332869
114	0x3beab74a	0.007162963
115	0xbb101789	-0.0021986684
116	0x3cdca5cb	0.026934525
117	0xbb269524	-0.0025418485
118	0xbc5f3c17	-0.013625166
119	0x3ba5d841	0.00506118
120	0xbd5c851e	-0.053837888
121	0xbd873ad7	-0.0660302
122	0xbd9bd8d9	-0.0760972
123	0xbe14442d	-0.14479132
124	0xbd93f12d	-0.07223735
125	0x3cd4d8ff	0.025982378
126	0xbd1eb431	-0.038746063
127	0xbcd7d051	-0.02634445
128	0xbc51e2db	-0.012810434
129	0xbda78cf5	-0.08181182
130	0xbd711db4	-0.058866218
131	0x3c490223	0.012268576
132	0x3d5f343b	0.05449317
133	0x3d8bfebc	0.06835696
134	0x3c121dfb	0.008918281
135	0x3cc05626	0.023478579
136	0xbb2cb6a2	-0.0026353975
137	0xbd132621	-0.035925034
138	0xbd1619a0	-0.03664553
139	0x3bdcf110	0.006742604
140	0x3ccff1ce	0.025383856
141	0xbcaa1690	-0.020762712
142	0xbc971d4d	-0.018446589
143	0xbcf115df	-0.029429374
144	0x3c62b397	0.013836763
145	0x3d103aed	0.035212446
146	0x3bbaba01	0.005698443
147	0xbcf6c165	-0.030121515
148	0x3c500e3e	0.012698708
149	0xbae30dca	-0.0017322835
150	0xbc8daac8	-0.017293349
151	0xbe074ab4	-0.1321209
152	0xbd5d5a29	-0.05404106
153	0xbd9b3de0	-0.07580161
154	0x3bb222d3	0.0054362803
155	0xbb12b221	-0.0022384005
156	0xbd6f696f	-0.05845016
157	0xbdbdbe60	-0.09264827
158	0xbdf6c984	-0.12050155
159	0xbdca5274	-0.09879008
160	0xbd4ea926	-0.05045428
161	0xbc3161ab	-0.0108265085
162	0xbae104fa	-0.0017167621
163	0x3d19d2ed	0.03755467
164	0xba7b11ce	-0.0009577543
165	0x3c26a961	0.010172219
166	0xbd0bd77c	-0.03414105
167	0x3cae9a15	0.021313706
168	0x3c888e1c	0.016669326
169	0x3c082ee8	0.008311965
170	0xbc7e4d28	-0.015521325
171	0xbd3686db	-0.044562202
172	0xbafc6930	-0.0019257423
173	0xbc5175e4	-0.012784455
174	0x3c5906aa	0.013246218
175	0x3e0ba09b	0.13635485
176	0x3d5cc0b1	0.053894702
177	0x3c768cec	0.015048247
178	0x3d648deb	0.055799406
179	0x3d4968ec	0.049172327
180	0x3ddedce8	0.10881978
181	0xbc6c70c6	-0.014431184
182	0xbcf668d1	-0.030079277
183	0xbda04227	-0.078251176
184	0xbe1e5413	-0.1546176
185	0xbc90552c	-0.017618738
186	0xbcfddd0f	-0.030989198
187	0xbd0f9c71	-0.035061304
188	0x3ce38f09	0.027778165
189	0xbd061563	-0.03273524
190	0x3c5c824c	0.0134588
191	0xbbee43fd	-0.0072712884
192	0xbc0617d9	-0.008184397
193	0xba4447a1	-0.000748748
194	0xbd18f072	-0.03733868
195	0x3c827d87	0.015928997
196	0xbb2a752f	-0.0026009788
197	0x3cfe983e	0.031078454
198	0xbbc47ea7	-0.0059965434
199	0x3c40a91d	0.01175907
200	0xbc8ca146	-0.017166745
201	0xbc413f87	-0.011794931
202	0x3d41bf66	0.047301672
203	0x3e38a500	0.18031693
204	0x3db88e1f	0.090114824
205	0x3ccd3943	0.025051719
206	0x3d9b2943	0.075762294
207	0x3dc8f9d8	0.09813279
208	0xbc3ea9c3	-0.011637154
209	0xbd6ba587	-0.057530906
210	0xbdb9ae60	-0.090664625
211	0xbdbfa131	-0.09356917
212	0xbe00683f	-0.12539767
213	0xbcb80b01	-0.022466185
214	0xbb47ee22	-0.0030506928
215	0xbc5193cf	-0.012791588
216	0x3d6e0bf9	0.058116887
217	0x3d317f90	0.043334544
218	0x3c18fd09	0.009337672
219	0xbd77df8c	-0.060515925
220	0xbcd0b017	-0.025474591
221	0xbc8eb571	-0.017420502
222	0xbbe8e7e8	-0.0071077235
223	0xbc0f17bc	-0.008733686
224	0x3c066ef8	0.008205168
225	0x3d1a6ff8	0.037704438
226	0x3cbb9f30	0.022903055
227	0x3c22d07e	0.009937404
228	0x3ccd593f	0.02506697
229	0x3d86e940	0.06587458
230	0x3d67116b	0.056413095
231	0x3e23009f	0.15918206
232	0x3d55dd63	0.052213084
233	0xbc016912	-0.007898586
234	0x3d2bf241	0.04197908
235	0x3d94287e	0.07234286
236	0x3c92226f	0.017838685
237	0xbde6eeaf	-0.11275994
238	0xbc95f135	-0.018303493
239	0xbcab2b97	-0.020894809
240	0xbe19aba2	-0.15006879
241	0xbda27ab2	-0.079335585
242	0x3c21aaa1	0.009867341
243	0xbdbacb48	-0.09120804
244	0xbd60d54a	-0.05489091
245	0xbda27bbc	-0.07933757
246	0x3c04bd4e	0.008101774
247	0xbd305fae	-0.043059997
248	0xbd41f760	-0.047355056
249	0xbd64be98	-0.055845827
250	0x3c7df4ac	0.015500229
251	0x3b307267	0.0026923658
252	0x3d016f59	0.03160033
253	0x3c0b78ae	0.008512659
254	0x3d1fc134	0.039002612
255	0x3cac9025	0.021064827

bias f4 [20]
0	0x3eba316e	0.36365837
1	0xbe8de0eb	-0.2771066
2	0x3eaa88d3	0.33307514
3	0xbd81861b	-0.06324407
4	0xbeae557c	-0.34049594
5	0xbe17e588	-0.14833653
6	0xbe2fc993	-0.17166738
7	0x3ce6619e	0.02812272
8	0xbd039c27	-0.03213134
9	0xbe6dfe92	-0.23241642
10	0xbf23b768	-0.6395173
11	0xbd45bda3	-0.048276555
12	0x3de46adc	0.11153194
13	0xbebf1e28	-0.37327695
14	0x3def1846	0.11674552
15	0x3d6fb1ac	0.05851905
16	0xbb854519	-0.004067075
17	0xbf05b0ed	-0.5222309
18	0xbf2782d3	-0.65433997
19	0x3e2f076d	0.17092676

weight f4 [10, 20]
0	0xbf4625aa	-0.7740122
1	0x3f868a80	1.0511017
2	0x3ee6c2d3	0.45070514
3	0xbf1174b5	-0.56818706
4	0xbf3f7e06	-0.7480167
5	0xbf22b0a4	-0.6355078
6	0x3f41f4ae	0.75763977
7	0x3f09dbea	0.5385119
8	0xbf6bcb23	-0.9210684
9	0x3f609a39	0.87735325
10	0xbd848462	-0.064705625
11	0xbe738593	-0.23781423
12	0xbfca9196	-1.5825679
13	0x3f1c2449	0.60992867
14	0xbdeeb7c1	-0.11656142
15	0xbe1776dc	-0.14791435
16	0xbfdec936	-1.7405155
17	0x3f8e1fdc	1.1103473
18	0xbe3fed0e	-0.18742773
19	0xbeca9001	-0.3956299
20	0x3fa10362	1.2579157
21	0x3d650431	0.0559122
22	0xbfa24d1f	-1.2679785
23	0x3f227c50	0.63470936
24	0xbeb8a749	-0.36065128
25	0x3f80ba6e	1.0056894
26	0x3f48ddc1	0.7846337
27	0xbf7c417f	-0.9853744
28	0x3f37db4e	0.7181901
29	0xbf38d844	-0.72204995
30	0x3f03dee8	0.51512
31	0x3f5149e4	0.81753373
32	0x3f215816	0.63025033
33	0xbf1c2799	-0.6099792
34	0x3f94a15a	1.161174
35	0xbfb42fbf	-1.4077071
36	0xbf81a7c9	-1.0129329
37	0xbfa4f759	-1.2887985
38	0xbd03d377	-0.03218409
39	0x3fcde8d2	1.6086676
40	0xbd467703	-0.048453342
41	0x3fa9705e	1.3237417
42	0xbf9e6174	-1.237349
43	0xbfc408b4	-1.5315156
44	0xbf02b340	-0.51054764
45	0xbe0545eb	-0.13014953
46	0xbfc76b60	-1.5579643
47	0xbfa6f7cb	-1.304437
48	0x3ec06965	0.3758041
49	0x3ee740b7	0.4516656
50	0xbf91aa8f	-1.1380175
51	0x3d2a2dec	0.0415477
52	0xbf586e8a	-0.8454367
53	0x3de9cd32	0.11416091
54	0xbfd6e302	-1.6788027
55	0x3d992983	0.07478621
56	0x3f8bf05f	1.093273
57	0x3fa068b1	1.2531949
58	0x3db79fc0	0.08966017
59	0x3f8b898a	1.0901349
60	0xbfb12bba	-1.3841469
61	0xbfafddf2	-1.3739607
62	0xbfb1f0e7	-1.3901643
63	0x3ec60be9	0.38680962
64	0xbeca3505	-0.39493576
65	0xbeb5ca23	-0.3550578
66	0xbe1169eb	-0.14200561
67	0xbfbc10eb	-1.4692663
68	0xbecf5801	-0.4049683
69	0x3faa9e2a	1.3329518
70	0xbcb78534	-0.022402383
71	0x3f7de0c1	0.9917107
72	0x3f24cfe3	0.6437971
73	0xbbc6f8f9	-0.0060721603
74	0x3f45ad07	0.77217144
75	0x3c8da340	0.017289758
76	0x3f0f2b8b	0.55925816
77	0x3f13b09c	0.5769136
78	0xbf66a361	-0.90093046
79	0xbf386221	-0.7202473
80	0x3f2c02bf	0.6719169
81	0x3d93e549	0.07221467
82	0xbdaed055	-0.0853583
83	0x3ed3e200	0.41383362
84	0x3f9e7e59	1.2382308
85	0xbf9f6201	-1.2451783
86	0xbeca3c9a	-0.3949936
87	0x3ee516f7	0.44744083
88	0x3f8adbf5	1.0848376
89	0xbf4e1fb8	-0.8051715
90	0xbe3ddc49	-0.18541063
91	0xbf853e07	-1.0409554
92	0x3e8a83e0	0.27053738
93	0x3fc3c152	1.5293372
94	0xbf027f46	-0.50975454
95	0x3fc45c29	1.5340625
96	0x3f797a41	0.9745217
97	0xbf8a6ec4	-1.0815053
98	0x3d25cfe4	0.040481463
99	0xbf58db34	-0.8470948
100	0xbf4730d4	-0.7780888
101	0xbe934bdb	-0.2876881
102	0x4018855e	2.38314
103	0x3cb5194f	0.022106795
104	0xbf928de2	-1.1449549
105	0xbe8a9d6e	-0.27073234
106	0x3ee9d809	0.45672634
107	0x3f18ea9f	0.59733003
108	0xbe6c3d7a	-0.23070326
109	0xbfb3db10	-1.4051228
110	0xbf4ac2cd	-0.7920349
111	0x3f1a1c9f	0.6019992
112	0x3fc96832	1.5734923
113	0xbf0ff1b9	-0.56228215
114	0x3e12b685	0.14327438
115	0xbfa8cd16	-1.3187587
116	0x3f05c452	0.52252686
117	0xbfb06f7d	-1.3784024
118	0xbfb7b0bd	-1.4350811
119	0xbe93bf49	-0.28856876
120	0x3f0d05db	0.5508706
121	0x3f33ad15	0.7018598
122	0x3f98e580	1.1945038
123	0x3f29161d	0.6604937
124	0xbef64cb4	-0.48105395
125	0xbfabbe7a	-1.3417504
126	0x3fcc5541	1.5963517
127	0x3f576f2b	0.84154004
128	0x3f6cde13	0.9252636
129	0xbf4d6834	-0.80237126
130	0x3f0fd4af	0.56183904
131	0x3ec0523d	0.37562743
132	0xbf8cc534	-1.0997682
133	0xbf3b468a	-0.7315451
134	0xbe9488bc	-0.2901057
135	0x3ea60bc3	0.32430848
136	0x3ecbce58	0.39805865
137	0x3f991f66	1.1962707
138	0x3ef9f292	0.4881788
139	0x3fa5887e	1.2932279
140	0x3fb83544	1.4391255
141	0xbfa0ec09	-1.2572032
142	0xbd422f90	-0.04740864
143	0xbf5fa522	-0.8736135
144	0x3e804fba	0.25060827
145	0x3f474692	0.77842057
146	0xbee0e0e7	-0.43921587
147	0xbf6303d6	-0.8867773
148	0xbd46f3b9	-0.048572276
149	0x3f9a2da9	1.2045184
150	0xbee3e196	-0.44508046
151	0xbf41a832	-0.7564727
152	0xbf5bae2f	-0.8581266
153	0xbf3f1e5b	-0.74655694
154	0x3fe5eff1	1.7963849
155	0x3faed3ba	1.3658364
156	0xbf3224ed	-0.69587594
157	0xbf85c18a	-1.0449688
158	0xbf242dfc	-0.64132667
159	0xbf6e8e9d	-0.9318636
160	0x3f0616d1	0.52378565
161	0x3f78a6f5	0.97129756
162	0x3e63cedf	0.22246884
163	0xbd2fa858	-0.042885154
164	0x3fcabf49	1.5839626
165	0x3f409a26	0.7523521
166	0xbf3039aa	-0.6883799
167	0x3fb7d9aa	1.4363301
168	0x3ed4ed0c	0.41587102
169	0x3f01f9ae	0.50771606
170	0x3f6251f7	0.8840632
171	0x3f7dcc7e	0.99140155
172	0x3f88e597	1.0695065
173	0x3f874b6c	1.0569892
174	0x3d880131	0.06640852
175	0xbf96d704	-1.1784368
176	0xbbc07b55	-0.0058740773
177	0x3f3500ca	0.7070433
178	0x3f98e7af	1.1945704
179	0xbf369fe1	-0.71337706
180	0xbf0426c2	-0.5162164
181	0xbf1e7ed1	-0.61912256
182	0xbea4fa8b	-0.322224
183	0x3fd84dbe	1.6898725
184	0xbd9bd49c	-0.076089114
185	0x3fdf77aa	1.7458394
186	0xbf77c936	-0.967914
187	0x3fbc803f	1.4726638
188	0xbfc2f87f	-1.5232085
189	0xbf65e47b	-0.8980176
190	0x3f924df6	1.1430042
191	0xbff56b2f	-1.9173335
192	0x3e1783de	0.14796397
193	0xbf0b2691	-0.5435572
194	0xbf139c9c	-0.5766084
195	0x3eddc7e7	0.43316576
196	0xbd471aa6	-0.0486094
197	0xbe4f0bb3	-0.20219307
198	0x3f3783dd	0.7168558
199	0xbf481150	-0.78151417

bias f4 [10]
0	0xbf244b61	-0.6417752
1	0x3eec6281	0.46168903
2	0x3f32b1f3	0.6980278
3	0x3e0fa0e4	0.14026219
4	0xbf0d462b	-0.5518519
5	0x3f2c89aa	0.6739756
6	0xbe715852	-0.23568848
7	0x3e96e737	0.29473278
8	0xbf4e27fe	-0.80529773
9	0xbe6ef3ae	-0.23335144
