mlartifacts/0/c6301fa980fd4e3ea1cc7b15a2914019/artifacts/mnist_mlp/data/model.pth (torch, 69248 bytes, 4 tensors)

weight f4 [20, 784]
0	0x3cbaec7a	0.022817839
1	0xbcd5800a	-0.02606203
2	0x3c600981	0.013674141
3	0x3b4bd437	0.0031101832
4	0xbd0553ef	-0.03255075
5	0xbcfc2701	-0.030780317
6	0xba6375b8	-0.0008676904
7	0xbb6cf24a	-0.0036155158
8	0x3bfae42e	0.0076565957
9	0xbc85a117	-0.016312165
10	0xbccf249c	-0.025286011
11	0x3c8b4b85	0.017003784
12	0xbd03573d	-0.03206562
13	0x3cdd2b3d	0.026998157
14	0x3c759b9f	0.014990716
15	0xbcb2429d	-0.02176028
16	0xbced8478	-0.02899383
17	0x3a898100	0.0010490716
18	0x3c87118c	0.01648786
19	0xbbe3d5ae	-0.006952963
20	0x3be914ca	0.007113074
21	0x3c94f1d7	0.018181724
22	0xbc57b0d7	-0.0131647205
23	0x3cb1ed0e	0.021719482
24	0x3c78b4bc	0.015179809
25	0xbb136d25	-0.0022495475
26	0x3cc2ec47	0.023794306
27	0x3cf0c983	0.029392963
28	0x3ca29ea3	0.019851035
29	0x3a8c8993	0.0010722153
30	0x3c60559c	0.013692286
31	0xbc5480e5	-0.012970184
32	0x3d031432	0.03200168
33	0x3c85d41f	0.016336499
34	0xbaf98e1c	-0.0019039544
35	0x3cb0a56d	0.021563256
36	0x3c5ed78c	0.013601195
37	0xbd0eb4a7	-0.034840252
38	0xbacd860b	-0.0015680207
39	0x3b417fe0	0.0029525682
40	0xbc5dfd24	-0.013549123
41	0x3d12a3b6	0.03580066
42	0x3b04f95b	0.002029023
43	0xbd0a3b9b	-0.03374825
44	0xbcd56d10	-0.026052982
45	0xbcd81f02	-0.026381973
46	0x3c4aeeb9	0.0123860175
47	0x3b9ffecf	0.0048826705
48	0xbc1e36cc	-0.009656619
49	0xb9ca7c93	-0.00038621257
50	0x3c13c760	0.009019703
51	0x3ce8a57e	0.028399225
52	0xbca26fbe	-0.019828673
53	0x3cf81f7e	0.030288454
54	0x3c7bcbf8	0.015368454
55	0xbcaa221a	-0.020768214
56	0xbce79caa	-0.028272945
57	0x3c87e677	0.016589386
58	0xbc997218	-0.018731162
59	0xbc3b6148	-0.011436768
60	0x3c0f0cfb	0.008731122
61	0xbcc2a63b	-0.023760905
62	0xbc960882	-0.018314604
63	0x3cc576c6	0.024104487
64	0xbc2560d2	-0.010093885
65	0x3c16c61f	0.009202509
66	0x3d0f69e9	0.035013113
67	0x3cb86c77	0.022512658
68	0xbc151e00	-0.009101391
69	0xbc8140f5	-0.015778044
70	0xbaec5d9b	-0.0018033268
71	0x3d48c1dd	0.049013007
72	0x3d142736	0.036170207
73	0x3c3c0c29	0.011477509
74	0xbbe7d69f	-0.0070751454
75	0x3c9d4a7c	0.019200556
76	0x3d012918	0.03153333
77	0xbcbca272	-0.023026679
78	0xbc9bdfc2	-0.019027594
79	0xbb3db6ff	-0.0028948185
80	0x3b3e61a3	0.0029049895
81	0x3c061364	0.008183334
82	0xbcd1b827	-0.025600506
83	0x3d06a873	0.03287549
84	0x3c8f4cca	0.01749267
85	0xbd07fa68	-0.03319779
86	0xbccb07f8	-0.024784073
87	0x3b0e46af	0.0021709611
88	0x3ca53f3c	0.020171754
89	0xbc700753	-0.014650184
90	0xbcfc0094	-0.030761994
91	0xbc90fc15	-0.017698327
92	0x3c6b0a2b	0.014345686
93	0xbc2487ed	-0.010042173
94	0x3d31f406	0.04344561
95	0xbcd32a73	-0.025777077
96	0xbd0365b5	-0.032079417
97	0xbccd9792	-0.025096688
98	0xbbb939f8	-0.0056526624
99	0x3cc6d67a	0.024272192
100	0x3b90e0ff	0.004421353
101	0x3d561693	0.052267622
102	0x3d6ecdea	0.058301844
103	0x3d86f645	0.06589941
104	0x3d8367f3	0.06416311
105	0x3ce5fffb	0.028076163
106	0x3b376d33	0.0027988672
107	0xbc0b5f37	-0.008506588
108	0x3c01aa7d	0.007914183
109	0x37c96e67	2.4012477e-05
110	0xbb5b3b09	-0.0033451936
111	0xbc82031e	-0.015870627
112	0x3bb92b4a	0.0056509124
113	0x3cfe1520	0.031015933
114	0xbc7d74e5	-0.015469764
115	0xbca74376	-0.02041791
116	0xbd05815b	-0.032594066
117	0x3cb2cb84	0.02182556
118	0x3c2d92ad	0.010594052
119	0xbc47a446	-0.012185162
120	0xbb700255	-0.0036622484
121	0x3c3ab754	0.011396248
122	0xbd114d0c	-0.03547387
123	0xbbb1d941	-0.00542751
124	0xbb535878	-0.0032248776
125	0x3c51c59f	0.012803464
126	0xbd0192ca	-0.03163413
127	0xbc2d4e02	-0.010577681
128	0xbb931b15	-0.0044893124
129	0x3d378b9e	0.044810884
130	0x3b35728a	0.0027686679
131	0x3d2c86bf	0.04212069
132	0x3daf1a80	0.08549976
133	0x3dac1077	0.08401578
134	0x3d3e69ab	0.04648749
135	0x3bfd0542	0.007721574
136	0x3ceac6de	0.02865928
137	0x3baff242	0.0053694556
138	0x3c72f7e4	0.01482961
139	0x3aa37dbc	0.0012473385
140	0xbb5afc01	-0.0033414366
141	0xbbaaaad3	-0.005208352
142	0xbbcb97ad	-0.0062131495
143	0x3c2071fe	0.009792803
144	0xbc1a6985	-0.009424572
145	0x3c66ae12	0.0140795875
146	0xbc629223	-0.013828787
147	0x3cfe7549	0.031061785
148	0x3c3a9787	0.011388666
149	0x3d3daf92	0.046310015
150	0x3d560321	0.052249078
151	0xbbbee48c	-0.0058255848
152	0xbd414cd6	-0.047192417
153	0xbc4d62c5	-0.0125357555
154	0x3c10bd68	0.0088342205
155	0xbc18cefd	-0.009326694
156	0x3cdd07da	0.026981283
157	0x3d1f6d6d	0.038922716
158	0x3d4f6cf5	0.05064102
159	0x3d03d7e0	0.032188296
160	0x3d845556	0.06461589
161	0x3c4e893d	0.012605962
162	0x3d44a6e0	0.048010707
163	0x3d0e42b7	0.034731593
164	0x3ca4766d	0.020076001
165	0xb85ba860	-5.237048e-05
166	0x3c9f335c	0.01943367
167	0xbc99b6eb	-0.01876398
168	0xbd02bace	-0.031916432
169	0x3ceab9ed	0.02865311
170	0xbc5f2261	-0.013619036
171	0xbce03147	-0.027367247
172	0x3c3f56f1	0.011678443
173	0xbd175ea9	-0.03695551
174	0x3bc72226	0.006077069
175	0x3cb58311	0.022157224
176	0x3d0d9f85	0.034575958
177	0x3c1a10c3	0.00940341
178	0xbd1b01b2	-0.037843414
179	0xbd0fa83b	-0.035072546
180	0xbdb1d141	-0.0868249
181	0xbe00920c	-0.12555712
182	0xbe07cd71	-0.13261963
183	0xbdcd1fb0	-0.100158095
184	0xbe08852b	-0.1333205
185	0xbd93334f	-0.07187521
186	0xbd8d9684	-0.06913474
187	0xbd53b324	-0.051684514
188	0xbdb13340	-0.08652353
189	0x3c21daf7	0.009878865
190	0x3cafdced	0.02146765
191	0x3d831141	0.06399775
192	0x3d439fa1	0.047759656
193	0x3c5d1bcd	0.013495398
194	0x3d064747	0.03278282
195	0x3c291723	0.010320458
196	0x3cebb667	0.0287735
197	0xbc454c50	-0.01204212
198	0xbcd999a0	-0.026562512
199	0x3c261ecd	0.010139179
200	0xbcf9df17	-0.030501885
201	0xbbeb4191	-0.007179447
202	0xbd0616e8	-0.03273669
203	0x3d1e6518	0.03867063
204	0x3cc3f706	0.0239215
205	0xbc40216f	-0.011726721
206	0xbd963092	-0.07333483
207	0xbd767edb	-0.060179573
208	0xbe048430	-0.1294105
209	0xbdff653e	-0.12470482
210	0xbe199af8	-0.15000522
211	0xbe71adab	-0.23601405
212	0xbe15a3ab	-0.14613216
213	0xbe1ce196	-0.15320429
214	0xbe21e2b4	-0.15809137
215	0xbdac8945	-0.084246196
216	0xbe07ae8b	-0.13250177
217	0xbd339497	-0.04384288
218	0xbc0a9d3c	-0.008460339
219	0xbba6341d	-0.0050721304
220	0x3d17dbd3	0.037074875
221	0x3c5be192	0.013420479
222	0xbba950a2	-0.005167083
223	0xbcf94bef	-0.030431716
224	0xbc22d51b	-0.009938504
225	0xbcfbbd39	-0.030729877
226	0xbcbe700f	-0.023246793
227	0xbbc97255	-0.0061476626
228	0xbc58925c	-0.013218489
229	0xbc2cc585	-0.010545139
230	0xbd36c4b4	-0.044621184
231	0x3c9e1c83	0.019300705
232	0xbd3b53d8	-0.045734257
233	0x3c64a104	0.013954405
234	0xbc6623b3	-0.014046597
235	0x3a5444ba	0.0008097399
236	0xbd9e8e43	-0.07741978
237	0xbdbfce52	-0.09365524
238	0xbe00b43f	-0.12568758
239	0xbe0d792f	-0.13815759
240	0xbe196a89	-0.14982046
241	0xbdb22278	-0.08697981
242	0xbdea51b8	-0.11441368
243	0xbda1ff61	-0.07910038
244	0xbdc5bb7a	-0.09654899
245	0xbc8378ee	-0.016048875
246	0xbd2d489d	-0.042305578
247	0xbcbb347c	-0.022852175
248	0x3b5c73e7	0.003363842
249	0xbc32eddf	-0.010920971
250	0xbcb31e96	-0.02186517
251	0xbca758ca	-0.02042808
252	0xbb84031e	-0.004028692
253	0xbbe6c96b	-0.007043054
254	0xbb92b74b	-0.0044774166
255	0x3c4f086d	0.012636286

bias f4 [20]
0	0x3e82fc08	0.2558291
1	0x3d83bf57	0.064329796
2	0xbe4821cd	-0.19544144
3	0xbe0f3492	-0.13984898
4	0xbddeda84	-0.10881522
5	0x3e8c5376	0.27407426
6	0xbe8c33e4	-0.2738334
7	0xbe21df40	-0.1580782
8	0x3e43e0a3	0.19128661
9	0x3e2a660e	0.16640493
10	0xbe42f849	-0.19040026
11	0x3e3342f7	0.17506014
12	0x3d5fb0ce	0.054611973
13	0x3e6f3931	0.2336166
14	0x3e4be007	0.19909678
15	0xbe72c8ec	-0.23709458
16	0x3d50e35e	0.050998084
17	0x39db7a51	0.00041862068
18	0xbed78bab	-0.42098746
19	0x3e719cc4	0.23594958

weight f4 [10, 20]
0	0xbe9f0a2d	-0.3106245
1	0xbf12dee9	-0.57371384
2	0xbf1c9997	-0.6117186
3	0x3f810e03	1.0082401
4	0x3eb3bd7d	0.35105506
5	0x3f1e88d2	0.6192752
6	0x3ede6691	0.43437627
7	0x3f3d5182	0.73952496
8	0xbeefee85	-0.46861663
9	0x3dec0ad8	0.11525506
10	0x3f1ed45b	0.6204278
11	0x3efabdf6	0.48973054
12	0xbf30ef30	-0.6911497
13	0x3e6a3428	0.22871459
14	0x3f6eb087	0.9323811
15	0xbf10f962	-0.5663053
16	0x3d792637	0.06082746
17	0xbf4416a8	-0.7659707
18	0x3e9ff4d5	0.3124148
19	0x3f32964b	0.6976058
20	0x3e80be46	0.25145167
21	0xbdb249ad	-0.08705459
22	0xbdb877d8	-0.090072334
23	0xbf042d96	-0.5163206
24	0xbe228524	-0.15871102
25	0xbf48a75e	-0.7838038
26	0xbea7d846	-0.3278219
27	0xbea31806	-0.31854266
28	0xbedd345a	-0.43204004
29	0x3ef0ed37	0.4705598
30	0xbf8ee866	-1.1164672
31	0xbe340c85	-0.17582901
32	0xbf93bf5f	-1.1542777
33	0xbf48e58e	-0.7847527
34	0xbeed4b24	-0.4634639
35	0x3f68dfff	0.9096679
36	0xbf1a3aa5	-0.60245734
37	0x3f2d9b3e	0.67815006
38	0xbf7c876f	-0.98644155
39	0xbb571c64	-0.0032823319
40	0x3f72d1f9	0.9485164
41	0x3ede9c93	0.43478832
42	0x3f4a5809	0.7904058
43	0x3f93db08	1.1551218
44	0xbe95bf96	-0.2924773
45	0xbf67d565	-0.9055999
46	0x3eba5a06	0.36396807
47	0x3f0a1de0	0.53951836
48	0xbeb34c47	-0.35019132
49	0xbf23f567	-0.6404633
50	0x3e89d236	0.2691819
51	0x3f295628	0.6614709
52	0x3dad2df1	0.08456028
53	0xbf8b61cd	-1.0889221
54	0xbd86946d	-0.06571279
55	0xbf7e5b5a	-0.9935814
56	0xbf0f0788	-0.55870867
57	0x3e07949e	0.13240287
58	0x3eceb67c	0.403736
59	0x3e80925a	0.25111657
60	0xbf332620	-0.6998005
61	0x3f2f7a23	0.6854574
62	0x3d5c74cc	0.053822324
63	0x3f393ed1	0.72361475
64	0xbf60b498	-0.87775564
65	0xbf0aefbf	-0.54272074
66	0xbf6593f1	-0.89678866
67	0xbf2ea99a	-0.6822754
68	0xbeccb6c2	-0.39983183
69	0xbda0b048	-0.07846123
70	0x3cf17b39	0.029477702
71	0xbebaa6fc	-0.36455524
72	0x3f142de9	0.57882553
73	0x3ef077ef	0.46966502
74	0x3dab47b7	0.08363288
75	0x3f140bac	0.5783031
76	0xbf357aa2	-0.7089025
77	0x3f12a7de	0.57287395
78	0x3f415f0f	0.7553567
79	0x3ee04d9b	0.43809208
80	0x3f09a3a4	0.5376532
81	0xbf24e7f4	-0.6441643
82	0x3e8cedb6	0.2752511
83	0xbf0def25	-0.5544303
84	0x3f1492e9	0.5803667
85	0x3efe9656	0.49724072
86	0xbb8a462d	-0.0042197914
87	0x3f3b4a55	0.73160297
88	0x3f572c14	0.8405163
89	0xbf688084	-0.908211
90	0x3f0afec1	0.54294974
91	0xbf8fdd3c	-1.123939
92	0x3eccef95	0.40026537
93	0x3f82f192	1.0229971
94	0xbf246299	-0.6421295
95	0x3dabc60e	0.08387385
96	0x3f15c794	0.5850766
97	0x3ef64e9d	0.48106852
98	0xbf12a74a	-0.5728651
99	0xbdfccdb8	-0.12343925
100	0x3e8120d1	0.2522035
101	0x3f93c876	1.1545551
102	0xbf7bb214	-0.983186
103	0xbf15f08b	-0.58570164
104	0x3ef636de	0.48088735
105	0x3f59f874	0.85144734
106	0x3e1067db	0.14102118
107	0xbf8f3f29	-1.119115
108	0x3d8e0c27	0.069359116
109	0xbbb6aacf	-0.005574561
110	0xbe761300	-0.24030685
111	0x3ead04a5	0.33792606
112	0x3f4406a8	0.76572657
113	0x3f2cd026	0.6750511
114	0x3f01a901	0.50648504
115	0x3d4cfd14	0.05004604
116	0xbf71f321	-0.9451161
117	0xbf93729c	-1.1519351
118	0xbf1eb2b5	-0.61991435
119	0x3eaec518	0.34134746
120	0x3f7c1f42	0.98485196
121	0xbcf9a0c8	-0.030472174
122	0xbf245132	-0.64186394
123	0xbf860880	-1.0471344
124	0x3f0bbc73	0.54584426
125	0xbf33b8fe	-0.7020415
126	0xbe336537	-0.17519079
127	0x3f6e7fb5	0.93163615
128	0xbeee9a84	-0.4660226
129	0xbed842c9	-0.42238453
130	0xbf5fdb5f	-0.8744411
131	0x3f04b505	0.51838714
132	0x3d918dce	0.07107125
133	0x3e654b43	0.22391991
134	0xbebda28d	-0.3703808
135	0xbed19107	-0.4093096
136	0x3f6a8203	0.9160463
137	0xbe1c95ed	-0.15291567
138	0x3edad7c5	0.42742744
139	0x3f05277b	0.5201337
140	0xbe27b6ac	-0.16378278
141	0xbf1ebc83	-0.62006396
142	0x3ed0211e	0.40650266
143	0x3ec28993	0.37995586
144	0xbf966ffc	-1.1752925
145	0xbe5bc833	-0.21463089
146	0xbf26d206	-0.6516422
147	0xbf39cdbe	-0.7257956
148	0x3f216a5d	0.6305292
149	0x3f593dbc	0.84859824
150	0x3f146219	0.57962185
151	0x3f044198	0.5166259
152	0x3db2e79d	0.08735583
153	0x3dcf639f	0.10126423
154	0x3f58298d	0.844384
155	0xbf253ad1	-0.6454287
156	0x3f87d261	1.0611078
157	0x3de0fc9f	0.10985684
158	0xbf896dfa	-1.0736687
159	0xbee70b3f	-0.45125768
160	0xbeee9a7b	-0.46602234
161	0xbea10175	-0.31446424
162	0x3eaa4a98	0.33260036
163	0xbf1eaa7e	-0.619789
164	0x3eac977d	0.33709326
165	0xbe06e079	-0.13171567
166	0x3f583f94	0.8447201
167	0xbf01e470	-0.5073919
168	0xbf664d8d	-0.89962083
169	0xbeccec94	-0.40024245
170	0x3efab3d7	0.48965332
171	0x3e5e21a3	0.21692519
172	0x3ecfe1aa	0.40601856
173	0xbf0e945d	-0.55695134
174	0xbf6e3e90	-0.9306421
175	0x3f22f747	0.63658565
176	0xbf0b1ddf	-0.54342455
177	0xbf27bee9	-0.6552568
178	0x3edbfa63	0.42964467
179	0xbf4d516c	-0.80202365
180	0xbf6eb056	-0.9323782
181	0xbeaf68dd	-0.34259692
182	0x3e61af4a	0.22039524
183	0xbf51fd7f	-0.8202743
184	0x3ef8b738	0.48577285
185	0x3f020d9d	0.5080202
186	0xbd933c08	-0.071891844
187	0x3eac8dd3	0.33701953
188	0x3f533b44	0.8251231
189	0x3fa3c7bc	1.2795329
190	0x3ee58548	0.44828248
191	0xbe90d3dc	-0.28286636
192	0x3df006ee	0.11720072
193	0xbeac3c3d	-0.33639708
194	0xbeade14f	-0.3396096
195	0x3da546d8	0.08070153
196	0x3f185b31	0.5951415
197	0x3f4b4861	0.79407316
198	0x3f3e7fe9	0.74413925
199	0xbf57bce6	-0.8427261

bias f4 [10]
0	0xbe771445	-0.24128826
1	0x3e560a98	0.20902479
2	0x3ea19ecb	0.31566462
3	0x3e1c78a8	0.15280402
4	0xbe70a8c8	-0.23501885
5	0x3f20761f	0.6268024
6	0xbea9e271	-0.33180574
7	0x3e2e6e12	0.17034176
8	0xbeae659b	-0.34061894
9	0xbd3b5f2d	-0.045745064
