mlartifacts/0/cd7b1501a44b436f8949498cb4b70913/artifacts/mnist_mlp/data/model.pth (torch, 69248 bytes, 4 tensors)

weight f4 [20, 784]
0	0xbc2f04ca	-0.010682294
1	0xbb9dc865	-0.0048151487
2	0x3cc8cdde	0.024512228
3	0x3d11f0a0	0.03562987
4	0xbcca1bb1	-0.024671407
5	0x3cd15bf1	0.025556536
6	0xbcbaa763	-0.022784894
7	0x3c34a96a	0.01102672
8	0xbd0a8b78	-0.033824414
9	0xbcd377ee	-0.025814023
10	0x3c9b5ff7	0.018966658
11	0x3c88c75e	0.016696628
12	0x3cc98433	0.02459917
13	0xbcd5e1d3	-0.026108658
14	0xbb886f42	-0.0041636536
15	0xbd094270	-0.033510625
16	0xbc28ade5	-0.010295366
17	0xbce615c8	-0.028086558
18	0x3bf8966e	0.007586292
19	0x3d0829db	0.03324304
20	0x3becb5e5	0.007223832
21	0x3c6039c1	0.013685645
22	0xbb9f4c93	-0.0048614233
23	0xbcfbe82e	-0.03075036
24	0xbc802dd0	-0.015646845
25	0xbd118f15	-0.035536844
26	0x3c56650e	0.013085617
27	0x3c0cbf77	0.008590571
28	0x3c8ebc3a	0.017423738
29	0xbc814587	-0.015780224
30	0x3d03fbb6	0.032222472
31	0xbb739a93	-0.003717099
32	0x3c4c5777	0.012472025
33	0x3c35924c	0.011082243
34	0x3d02910f	0.03187662
35	0x3a750998	0.0009347438
36	0x3cc0b974	0.023525931
37	0x3d04b758	0.032401413
38	0x3d0d5110	0.034501135
39	0x3aa5accd	0.001264
40	0x3cfd4c4e	0.030920174
41	0xb907e65b	-0.00012960417
42	0x3d0416d3	0.03224833
43	0x3ceeec04	0.029165275
44	0x3cb07f54	0.02154509
45	0xbc164ffb	-0.009174342
46	0xbc807e95	-0.015685359
47	0xbc09e5a5	-0.008416568
48	0x3c9b2947	0.018940581
49	0x3d076f78	0.03306529
50	0x3d03aaa2	0.03214515
51	0x3c67fe44	0.014159743
52	0x3b4d0081	0.0031280818
53	0x3a8b88b7	0.0010645603
54	0x3c86cbd7	0.01645462
55	0x3b9aa4f7	0.0047193724
56	0x3d109760	0.035300612
57	0x3b94ec6e	0.004544786
58	0x3d0ca61b	0.034338098
59	0x3cbb6060	0.022873104
60	0x3d0e4f06	0.03474333
61	0x3b21adb4	0.0024670186
62	0xb9043beb	-0.00012610822
63	0xbd02af70	-0.03190559
64	0xbcd0fdd0	-0.025511652
65	0xbc35c6f6	-0.011094799
66	0x3cbd9af4	0.023145176
67	0xbc511b24	-0.0127628185
68	0x3d039fb0	0.03213471
69	0x3cd3cda7	0.025854899
70	0xbba390c9	-0.004991625
71	0xbc55e998	-0.013056181
72	0x3ca86bc0	0.020559192
73	0x3cdbd09f	0.026832877
74	0xbbf57f2e	-0.0074919676
75	0x3aa49cc8	0.0012558931
76	0x3bcdbdff	0.006278753
77	0xbceff7b8	-0.029292926
78	0xbcfce6f6	-0.03087185
79	0xbbc71d6a	-0.0060765045
80	0x3cb22df3	0.021750426
81	0x3d00d152	0.031449623
82	0xbcc24013	-0.023712194
83	0x3d0a34bb	0.033741694
84	0xbd03335c	-0.032031402
85	0xba3009b7	-0.0006715315
86	0xbc993b21	-0.018704953
87	0xbb502de6	-0.003176564
88	0x3ca66854	0.02031342
89	0xbc8e72fc	-0.017388813
90	0x3caaaa6d	0.020833218
91	0x3ca90984	0.02063442
92	0x3b69431e	0.0035592983
93	0x3babd8a3	0.005244331
94	0xbc394c9c	-0.011309769
95	0xbbd26df6	-0.0064218
96	0xbd341cf8	-0.04397294
97	0xbccdc2a2	-0.025117222
98	0xbd0d3761	-0.03447664
99	0xbcc685b0	-0.024233669
100	0xbd959dcc	-0.07305488
101	0xbd70882e	-0.05872362
102	0xbd8576e0	-0.06516814
103	0xbd064e95	-0.032789785
104	0xbcc7f61e	-0.02440935
105	0x3c4392a6	0.011936819
106	0xbc8ae470	-0.01695463
107	0xbc752eb3	-0.014964747
108	0xbc3987ab	-0.01132385
109	0xbd10d113	-0.03535564
110	0xbce46def	-0.027884452
111	0x3ca13d70	0.019682616
112	0x3d032772	0.03202004
113	0x39252150	0.00015748036
114	0xbc2f4c51	-0.010699348
115	0x3c02136d	0.007939202
116	0xbd08206f	-0.033234056
117	0xbc849cbf	-0.016188024
118	0xbc9c4aac	-0.019078575
119	0xbbcc38e7	-0.006232369
120	0xbc18a89f	-0.009317546
121	0xbcb6227f	-0.022233246
122	0xbcdb2d66	-0.026755046
123	0x3be8f203	0.007108928
124	0xbd54ce44	-0.051954523
125	0xbc16404e	-0.009170605
126	0xbdb2d8e0	-0.08732772
127	0xbd1de5ac	-0.03854911
128	0xbdbb6356	-0.09149806
129	0xbd8fc5a0	-0.07020116
130	0xbd6f3a8f	-0.058405455
131	0xbd3553a8	-0.044269234
132	0xbd0ff1c8	-0.03514269
133	0xbc8bb3a2	-0.017053429
134	0xbccd8812	-0.025089297
135	0xbcaa08a2	-0.02075607
136	0x3ca96130	0.020676225
137	0xbc839ace	-0.016065028
138	0x3a017266	0.0004938006
139	0x3c8ef955	0.017452875
140	0xbccba781	-0.024860146
141	0xbc327f05	-0.010894542
142	0xbce9b319	-0.028527783
143	0xbc737fa3	-0.014861974
144	0xbced0f21	-0.028937878
145	0x3cad58a3	0.02116043
146	0xbb40c9d3	-0.0029417172
147	0x3c83d28b	0.016091606
148	0xbcd4596a	-0.025921542
149	0x3bc8f14c	0.0061322805
150	0xbc858409	-0.01629831
151	0xbd36508d	-0.044510413
152	0xbc0943a6	-0.008377945
153	0x3c8a7f88	0.016906515
154	0xbc4dbecf	-0.012557699
155	0x3c91358b	0.017725727
156	0xba878acf	-0.0010341051
157	0x3be644d6	0.007027249
158	0x3c81fd36	0.01586781
159	0xbcb236a3	-0.021754568
160	0xbcdbc967	-0.026829435
161	0xbbe77a38	-0.00706413
162	0xbd26f2d5	-0.040758926
163	0xbd0cbf6a	-0.034362234
164	0xbd3278ca	-0.043572225
165	0x3c394ca9	0.011309781
166	0xbd122e40	-0.03568864
167	0xbc3fa429	-0.011696854
168	0xbba7ac40	-0.0051169693
169	0xbb76448c	-0.0037577478
170	0x3c183142	0.009289088
171	0x3b43c2a6	0.0029870658
172	0x3bfcaecc	0.007711267
173	0x3cb01149	0.021492617
174	0xbca73c19	-0.020414399
175	0x3cebb3f4	0.028772332
176	0x3bba0568	0.005676914
177	0x3cb6159d	0.022227103
178	0x3c8b12dd	0.016976768
179	0x3c8ba239	0.017045127
180	0xbcb5424d	-0.022126341
181	0x3c1dcd99	0.009631538
182	0xbcbb53a7	-0.022867037
183	0xbd3afa69	-0.045648966
184	0xbd49edf3	-0.04929919
185	0xbd1d4712	-0.038397856
186	0x3d0025bf	0.031285997
187	0xbce2440e	-0.027620342
188	0xbb0980a4	-0.0020981217
189	0x3c554e6e	0.013019187
190	0x3b79ba09	0.003810527
191	0xbcbcf365	-0.023065278
192	0xbd187d8b	-0.037229102
193	0xbc7be6ec	-0.01537488
194	0xbd1730df	-0.03691184
195	0x3ba69727	0.0050839367
196	0xbb5e4ad4	-0.0033919113
197	0x3ccf1868	0.025280192
198	0xbce3bd15	-0.027800122
199	0x3cd9b6fb	0.02657651
200	0x3cff73c2	0.031183127
201	0x3698fd6a	4.5594543e-06
202	0x3d2b9213	0.041887354
203	0x3b98ebd4	0.004666785
204	0xbc5054b6	-0.012715509
205	0xbc1101a9	-0.0088504935
206	0x3cb2134e	0.02173772
207	0xbc111f58	-0.008857571
208	0xbb9cdd41	-0.0047871177
209	0xbc147ea9	-0.009063401
210	0xbd45ccb3	-0.04829092
211	0xbdabb9a0	-0.083850145
212	0xbd868609	-0.06568534
213	0x3b906e9b	0.0044077164
214	0xbcc3942b	-0.023874363
215	0x3d1b2214	0.037874296
216	0xbc9165e4	-0.01774878
217	0x3c9ac620	0.018893301
218	0x3c0ebbb3	0.008711743
219	0xbd45a454	-0.04825242
220	0xbd7365b7	-0.059423175
221	0xbd82893e	-0.06373833
222	0xbc429227	-0.011875666
223	0xbcec40d8	-0.028839514
224	0x3c94b0f8	0.018150792
225	0x3b9bf7f9	0.0047597853
226	0xbce490f7	-0.027901156
227	0xbc9459f0	-0.018109292
228	0x3cf0486a	0.029331405
229	0x3b015cb9	0.0019739105
230	0x3b2b9f8d	0.002618763
231	0xbac9f557	-0.00154082
232	0xbcc3ee89	-0.023917453
233	0xbc9664b4	-0.018358566
234	0x3cdb84d3	0.026796734
235	0x3bcef4ae	0.006315789
236	0xbc466659	-0.0121093625
237	0xbd2fc820	-0.042915463
238	0xbd2aace1	-0.041668776
239	0xbd8b44a2	-0.068002
240	0xbd0ba077	-0.034088578
241	0x3d23ae60	0.03996122
242	0x3c5f5097	0.013630054
243	0x3c7690af	0.015049144
244	0xbc589af9	-0.013220542
245	0x3d2d5489	0.042316947
246	0xbc3cfd29	-0.011534967
247	0xbd36ff8d	-0.044677306
248	0xbdadfdbe	-0.08495663
249	0xbd79e1fa	-0.061006524
250	0xbd27152d	-0.04079168
251	0x3c07ef38	0.00829678
252	0xbc154391	-0.009110347
253	0xbc322310	-0.010872617
254	0x3c8f89e1	0.0175218
255	0xbcb3263a	-0.021868814

bias f4 [20]
0	0xbdd47b77	-0.103751116
1	0xbd9ecbe3	-0.07753732
2	0x3e700b3c	0.23441786
3	0xbe3f0191	-0.18652941
4	0x3d84f5af	0.06492173
5	0xbce2fb63	-0.027707761
6	0xbdee9270	-0.116490245
7	0x3bce2775	0.0062913247
8	0xbe927962	-0.28608233
9	0xbc3e3cf9	-0.011611217
10	0xbec406f3	-0.38286552
11	0x3d8a3a8e	0.0674945
12	0x3de8ea9b	0.113728724
13	0xbeca5028	-0.3951428
14	0x3e227837	0.15866171
15	0x3d06f9d0	0.032953084
16	0xbe3850fb	-0.17999642
17	0x3e9df50f	0.30851027
18	0x3da31f52	0.07964958
19	0xbe21a21c	-0.15784496

weight f4 [10, 20]
0	0x3f3c9ac1	0.73673636
1	0xbf0e397a	-0.5555645
2	0xbf18d53c	-0.5970037
3	0x3f038595	0.51375705
4	0x3ea50556	0.32230633
5	0x3f53c475	0.82721645
6	0x3e83ef93	0.25768718
7	0xbe8b5907	-0.2721636
8	0x3f2d388f	0.67664427
9	0xbf009981	-0.5023423
10	0xbedd71b0	-0.432508
11	0xbf365bc1	-0.71233755
12	0x3f8ebb85	1.1150976
13	0xbe3d9102	-0.18512347
14	0xbeca3416	-0.39492863
15	0x3ee52d8f	0.4476132
16	0xbf472094	-0.77784085
17	0x3f12636c	0.57182956
18	0xbcb04a94	-0.021519937
19	0x3f16d6f6	0.58921754
20	0xbf15026f	-0.5820684
21	0xbf4edf40	-0.808094
22	0x3f5bb90c	0.85829234
23	0xbf1c510e	-0.6106118
24	0xbe80e412	-0.25174004
25	0xbf362858	-0.7115531
26	0xbf85a928	-1.0442247
27	0x3f8da0a8	1.1064653
28	0x3f1bd466	0.6087097
29	0x3f4d295f	0.8014125
30	0xbe0b4deb	-0.13603942
31	0x3f00fa65	0.5038207
32	0x3e02d584	0.12776762
33	0x3f22242e	0.63336456
34	0x3d3328ab	0.043739956
35	0xbd6fefa8	-0.058578163
36	0xbf5b475f	-0.8565578
37	0x3d99b010	0.075042844
38	0x3c2838ca	0.010267446
39	0xbf0a2cf7	-0.5397486
40	0x3e9b4c1c	0.30331504
41	0xbf0b27f7	-0.54357857
42	0xbf3495b4	-0.7054093
43	0xbf4fe259	-0.81204754
44	0xbf34cf4a	-0.706288
45	0xbf21345f	-0.62970537
46	0xbf1dd12f	-0.61647314
47	0xbf37648d	-0.71637803
48	0x3da7e826	0.08198576
49	0xbf97a1e9	-1.1846286
50	0x3df8f6c2	0.1215644
51	0x3f0ff247	0.5622906
52	0x3f15aba1	0.5846501
53	0x3f167595	0.58773166
54	0xbf25dd58	-0.6479087
55	0x3dfb843a	0.122810796
56	0x3f57e72d	0.8433712
57	0xbe2ca97b	-0.16861527
58	0x3f6f52c4	0.93485665
59	0xbeae57c4	-0.34051335
60	0xbf61894a	-0.8810011
61	0xbe9a7441	-0.3016682
62	0x3f716526	0.94294965
63	0x3d1277f2	0.03575892
64	0xbf23e507	-0.64021343
65	0xbf3ee17b	-0.74562806
66	0x3f1006d5	0.56260425
67	0xbf1e814d	-0.6191605
68	0x3eef5152	0.4674173
69	0x3ec6971a	0.38787156
70	0xbf119553	-0.56868476
71	0xbf49b333	-0.7878906
72	0xbde23555	-0.110453285
73	0xbebfa19b	-0.37427983
74	0xbf3ca2c2	-0.7368585
75	0xbe19e4df	-0.15028714
76	0x3f018863	0.50598735
77	0xbf20224b	-0.62552327
78	0x3f811b24	1.0086408
79	0x3ef9fd64	0.48826134
80	0x3f289d53	0.6586506
81	0x3f30c5cb	0.6905181
82	0xbc1d8ceb	-0.009616117
83	0x3f36f73b	0.71470994
84	0x3f05bab7	0.5223803
85	0x3f40fd83	0.7538683
86	0xbedda578	-0.43290305
87	0x3f82f8ad	1.023214
88	0xbf7a343a	-0.9773594
89	0xbdbc5749	-0.09196336
90	0x3f22432b	0.6338374
91	0x3e34e55b	0.17665617
92	0xbf2dbb51	-0.6786395
93	0xbf661fe3	-0.89892405
94	0xbe8bb721	-0.27288154
95	0x3f1e54fd	0.6184843
96	0x3f497dc0	0.78707504
97	0xbeecbca7	-0.4623768
98	0xbd16331d	-0.03666984
99	0xbf1bdc32	-0.60882866
100	0xbf8406d1	-1.031458
101	0xbf482b98	-0.7819152
102	0xbed168ac	-0.4090017
103	0xbeff32fa	-0.4984358
104	0xbd778531	-0.060429756
105	0x3e96013a	0.2929781
106	0x3eef1bd4	0.4670092
107	0xbf0a7ea2	-0.54099476
108	0xbf03ac63	-0.51434916
109	0x3f316799	0.692987
110	0xbf4fe25d	-0.8120478
111	0x3e8f96fd	0.28044882
112	0xbdcaaeb0	-0.098966
113	0xbf631379	-0.8870159
114	0x3f5bdd1c	0.8588426
115	0x3f72a973	0.9478981
116	0x3e0c6f69	0.13714375
117	0x3f774956	0.96596277
118	0xbeca8530	-0.3955474
119	0x3ecd3308	0.40077996
120	0x3e021e26	0.12706813
121	0x3ed24216	0.41066045
122	0xbed47e5b	-0.41502652
123	0x3ec9d91e	0.3942346
124	0x3f9a5a8a	1.205888
125	0xbf51d559	-0.8196617
126	0xbf28586c	-0.6575992
127	0xbe4a405f	-0.19751118
128	0x3f6b5e8f	0.9194116
129	0xbeeeabbe	-0.46615404
130	0xbe2776dc	-0.16353935
131	0x3f037cf3	0.5136253
132	0x3f5e9761	0.86949736
133	0xbedd4ff9	-0.43225077
134	0x3efa6a7b	0.48909363
135	0x3e3691ea	0.178291
136	0x3d8b33b3	0.0679697
137	0xbe9a3f27	-0.30126306
138	0xbf7e393e	-0.99306095
139	0xbf348268	-0.70511484
140	0x3f197603	0.59945697
141	0x3f4cfde0	0.8007488
142	0x3f86b63c	1.0524364
143	0xbf30391f	-0.6883716
144	0xbe9ca43a	-0.30594045
145	0xbccfa331	-0.02534637
146	0x3e20bcb9	0.15696992
147	0xbee89b27	-0.45430872
148	0xbf8e456b	-1.1114935
149	0xbf49ca18	-0.78823996
150	0xbeecbf2d	-0.46239606
151	0xbf88ce97	-1.0688046
152	0xbf2e5e58	-0.6811271
153	0x3e6c3953	0.23068742
154	0x3ea44003	0.32080087
155	0xbf23c908	-0.63978624
156	0xbf938807	-1.1525887
157	0x3eb057ed	0.34442082
158	0x3d943705	0.07237057
159	0xbefb5643	-0.4908925
160	0xbeabeab5	-0.33577505
161	0xbe928c31	-0.28622583
162	0xbf239043	-0.63892
163	0x3dcdf790	0.100569844
164	0xbf0dabfa	-0.5534054
165	0x3eb1b5a7	0.34708902
166	0x3f05ee61	0.5231686
167	0xbf33501d	-0.7004412
168	0x3f31a67b	0.69394654
169	0x3eb9e1fd	0.36305228
170	0x3f8db81b	1.107181
171	0x3e23fb8d	0.16013928
172	0xbf64976d	-0.8929356
173	0x3f766f70	0.9626379
174	0x3f091f57	0.53563446
175	0x3e91696b	0.2840074
176	0x3e68d1fc	0.22736353
177	0xbf3f1e21	-0.7465535
178	0xbf1fa7f8	-0.62365675
179	0x3ea2f149	0.3182471
180	0x3d0d80c2	0.03454662
181	0x3f18d7c6	0.59704244
182	0x3e0d7b51	0.13816573
183	0x3f3f4f6c	0.74730563
184	0x3f4e7a70	0.80655575
185	0x3f03dbdc	0.51507354
186	0x3f56a4b8	0.8384509
187	0x3f3bd322	0.7336904
188	0xbf45bd22	-0.7724172
189	0x3db2766e	0.08713995
190	0x3f1278ef	0.5721578
191	0x3d940d87	0.07229143
192	0xbeb32210	-0.34986925
193	0x3f78d412	0.97198594
194	0xbe50ff62	-0.20409921
195	0xbf88ae75	-1.067824
196	0xbe67f2a7	-0.22651158
197	0x3e057795	0.13033898
198	0x3f0e91f6	0.5569147
199	0x3f795cea	0.974074

bias f4 [10]
0	0xbec1766e	-0.37785667
1	0x3d995f5d	0.07488892
2	0x3e0ace55	0.13555272
3	0xbe37b3fb	-0.17939751
4	0x3cd40346	0.025880467
5	0x3eea2c43	0.45736894
6	0xbe7bda1d	-0.24594922
7	0x3ebb22ab	0.36549887
8	0xbef1f3db	-0.4725636
9	0x3eb19de3	0.3469077
