mlartifacts/0/50dd66a6c45741779385b0530901cf7e/artifacts/mnist_mlp/data/model.pth (torch, 69440 bytes, 4 tensors)

weight f4 [20, 784]
0	0x3c910a83	0.017705208
1	0x3d01e617	0.03171357
2	0x3b0aff37	0.0021209249
3	0x3c26de33	0.010184812
4	0xbd0d2fa3	-0.034469258
5	0x3d062d3d	0.032757986
6	0x3cda39e3	0.02663893
7	0x3c7d7a78	0.015471093
8	0x3c7f8965	0.015596722
9	0x3c476961	0.01217112
10	0x3bcf3ca5	0.006324368
11	0xbd000280	-0.031252384
12	0x3e119ad8	0.14219224
13	0x3e31ed03	0.17375569
14	0x3cbac280	0.022797823
15	0x3b96b665	0.00459938
16	0x3c802f0a	0.01564743
17	0x3caaee95	0.020865718
18	0x3ce338b3	0.027736997
19	0xbc2f219c	-0.010689165
20	0x3cb53b1e	0.022122916
21	0x3c3f2305	0.011666064
22	0xbcd79e8a	-0.026320715
23	0x3cc22b93	0.023702418
24	0xbccec013	-0.025238072
25	0xbaee3d01	-0.001817614
26	0xbbd54c5c	-0.006509347
27	0xbc54338a	-0.012951741
28	0x3983b000	0.00025117397
29	0x3c90f640	0.017695546
30	0x3c1dc60a	0.009629736
31	0xbc8b2d15	-0.01698927
32	0x3c91584c	0.017742299
33	0xbdaf83c8	-0.08570057
34	0xbef9a207	-0.4875643
35	0xbf07528e	-0.52860343
36	0xbeb207f0	-0.3477168
37	0x3e2ea397	0.17054592
38	0x3f34ce47	0.70627254
39	0x3f6cf592	0.9256221
40	0x3f31723e	0.69314945
41	0x3f294bfa	0.66131556
42	0x3f1c9370	0.6116247
43	0x3f0ced76	0.55049837
44	0x3ec2ae07	0.38023397
45	0x3f591b38	0.8480716
46	0x3f253656	0.64536035
47	0x3dd0cc08	0.10195166
48	0x3e9c5ab5	0.30537954
49	0xbe69b5ca	-0.22823253
50	0xbe7d4cc4	-0.24736315
51	0xbea39371	-0.31948426
52	0x3bc8a3c1	0.0061230366
53	0x3c11177c	0.008855697
54	0x3a33ce01	0.0006859005
55	0x3ce42445	0.027849326
56	0x3cb82775	0.022479752
57	0x3a7c4e01	0.00096246606
58	0x3ad2eb0e	0.001609178
59	0xbe8e72b6	-0.27821892
60	0x3e9696aa	0.29411823
61	0xbd84207e	-0.0645151
62	0xbe0dd225	-0.13849695
63	0xbf1717de	-0.59020793
64	0xbfa387ca	-1.2775815
65	0x3e03ad80	0.12859154
66	0x3f5fedb0	0.8747206
67	0x3fa1146d	1.2584358
68	0x3eafbf77	0.34325764
69	0x3f110329	0.56645447
70	0x3f16219c	0.58645034
71	0x3f01ddd9	0.5072914
72	0x3ecd0d53	0.40049228
73	0x3f853115	1.0405604
74	0x3e99c4b8	0.30032897
75	0x3f12f14d	0.57399446
76	0x3f48d659	0.7845207
77	0x3fa68691	1.3009816
78	0x3fb2ad4f	1.395914
79	0x3f0ea7ae	0.5572461
80	0xbec9e6a8	-0.3943379
81	0xbf118abf	-0.56852335
82	0x3c9ab9ee	0.018887486
83	0x3cc748b1	0.024326654
84	0x3d11626e	0.03549426
85	0xbcfc6945	-0.030811915
86	0xbde06eb7	-0.10958617
87	0xbf294c89	-0.6613241
88	0x3e0996ba	0.13436404
89	0x3e063d94	0.13109428
90	0x3ec4397e	0.38325113
91	0x3f3aeea7	0.73020405
92	0xbf26f822	-0.6522237
93	0xbfd5af4b	-1.669412
94	0xbe91cb87	-0.28475592
95	0x3f1790d0	0.5920534
96	0x3ee3bf40	0.4448185
97	0x3f0ec3a8	0.557673
98	0xbe61fa92	-0.22068241
99	0x3e3d54b5	0.18489344
100	0xbeb61202	-0.35560614
101	0xbc9af85d	-0.018917257
102	0x3f0d98e6	0.5531143
103	0xbd5c48f2	-0.053780504
104	0xbf145de7	-0.57955784
105	0x3e549179	0.20758618
106	0x400f3a6c	2.2379408
107	0x3ff1fa4f	1.8904513
108	0x3f2134f0	0.629714
109	0x3f536a67	0.8258423
110	0xbc7a7806	-0.015287405
111	0x3cccabaa	0.0249842
112	0x3cd08bde	0.025457319
113	0x3d0fcdf2	0.035108514
114	0xbdb748f6	-0.08949463
115	0x3e8a916d	0.27064076
116	0x3e6ecb86	0.23319826
117	0x3e4ae89b	0.19815294
118	0x3e67f517	0.22652088
119	0x3f1b2f3b	0.6061894
120	0x3dba4050	0.09094298
121	0xbf44c932	-0.768695
122	0xbf1ae4cb	-0.6050536
123	0x3e6be992	0.23038319
124	0xbea105db	-0.3144978
125	0xbe4a1c21	-0.19737293
126	0xbedbac7b	-0.4290503
127	0xbe872b38	-0.2640016
128	0xbf21baf5	-0.631759
129	0xbf394abd	-0.72379667
130	0xbf1ecc3f	-0.62030405
131	0xbed4b505	-0.41544357
132	0xbe4cd58d	-0.20003338
133	0xbedf2d6c	-0.43589342
134	0x3efcd377	0.49380085
135	0x3fba7edb	1.4569963
136	0xbe9ead88	-0.3099177
137	0xbf1576de	-0.583845
138	0xbdd1549d	-0.10221217
139	0xbd968f0d	-0.073515035
140	0xbcea6ac5	-0.028615365
141	0x394d9db7	0.00019609077
142	0xbe2f5787	-0.17123233
143	0x3eaab0bb	0.3333796
144	0xbdc92c55	-0.09822909
145	0xbf743533	-0.95393676
146	0xbf4c5812	-0.79821885
147	0xbf12f4ec	-0.5740497
148	0xbefe5c7d	-0.49679938
149	0xbec73354	-0.38906348
150	0x3e79902e	0.24371406
151	0x3dac72a1	0.08420301
152	0xbe00dd17	-0.12584339
153	0x3ea7d515	0.32779756
154	0xbc134720	-0.0089891255
155	0xbe22633b	-0.15858166
156	0xbf545ac9	-0.8295103
157	0xbf714f60	-0.9426174
158	0xbf39985b	-0.724981
159	0xbf12f66b	-0.57407254
160	0xbfa20775	-1.2658526
161	0xbf756fbb	-0.9587361
162	0xbdb3b667	-0.08775025
163	0x3e89ae84	0.26890957
164	0x3dc2c34f	0.095099084
165	0xbf9de97a	-1.2336876
166	0xbf24747b	-0.64240235
167	0x3d4e09e5	0.050302405
168	0xbd0e951d	-0.034810174
169	0xbd78453c	-0.060612902
170	0x3d3912f8	0.045184106
171	0xbea610ed	-0.32434788
172	0xbd3382da	-0.04382596
173	0xbf87f3d0	-1.0621281
174	0xbf5f3b77	-0.8720011
175	0xbf3b849e	-0.7324923
176	0xbf6d8696	-0.92783487
177	0xbefc5f63	-0.49291524
178	0xbe170fb9	-0.14752091
179	0x3f334b6b	0.70036954
180	0x3f061ddf	0.5238933
181	0x3ef2bae8	0.47408223
182	0x3ef0b27f	0.47011182
183	0x3e8d5519	0.27603987
184	0xbdacc2ab	-0.084355675
185	0xbebf5a55	-0.37373605
186	0xbef18775	-0.47173658
187	0xbd09f3ff	-0.03367996
188	0xbf61d3be	-0.8821372
189	0xbf830ccd	-1.0238281
190	0xbf1148f4	-0.5675194
191	0x3e97207c	0.2951697
192	0x3e7b25cf	0.24526142
193	0xbfb31752	-1.3991492
194	0xbf8db8f7	-1.1072072
195	0xbecfa759	-0.40557364
196	0x3ca27c77	0.01983474
197	0xbe24a694	-0.1607917
198	0xbebd16fc	-0.36931598
199	0xbf48daff	-0.7845916
200	0xbfb185e2	-1.3868983
201	0xbf78c71a	-0.97178805
202	0xbfcc57bf	-1.5964278
203	0xbf946a7a	-1.1594994
204	0xbf3ca651	-0.7369128
205	0x3e8c569f	0.27409837
206	0x3f883d09	1.0643626
207	0x3e0c2f43	0.13689904
208	0x3e4850e8	0.19562113
209	0x3eb88e34	0.36045992
210	0x3e31ab62	0.17350534
211	0x3e85238d	0.26003686
212	0x3eeeecc8	0.46665025
213	0x3f3c5b03	0.7357637
214	0x3f1bb241	0.6081887
215	0x3ee49b73	0.44649848
216	0x3ed6eb38	0.41976333
217	0x3f0fc039	0.56152683
218	0x3d88c640	0.06678438
219	0x3f79c1b3	0.97561187
220	0x3fced984	1.616013
221	0x3f088f29	0.53343445
222	0x3f5f5ec0	0.8725395
223	0xbf22fc1b	-0.6366593
224	0xbf00d2a3	-0.50321406
225	0xbf3532f3	-0.7078087
226	0x3dc04d07	0.09389692
227	0xbed79998	-0.4210937
228	0xc005a8a6	-2.0884185
229	0xbfb46981	-1.4094697
230	0xbf0cc20c	-0.5498359
231	0xbf2c5486	-0.6731647
232	0xbe03ca75	-0.128702
233	0x3f62ebf9	0.88641316
234	0x3f03fb98	0.51555777
235	0xbda368b8	-0.07978958
236	0x3d944744	0.07240155
237	0xbe923302	-0.2855454
238	0xbe391b46	-0.1807681
239	0x3e67903c	0.22613615
240	0x3f8f4daa	1.1195576
241	0x3f583093	0.8444912
242	0x3f97e695	1.1867243
243	0x3f1a1eac	0.6020305
244	0x3e53624b	0.20642965
245	0x3ed25f62	0.41088396
246	0xbedaac30	-0.42709494
247	0x3f02f160	0.5114956
248	0x4016beda	2.3553987
249	0xbe16297d	-0.14664264
250	0x3f9d1ff3	1.2275375
251	0xbf06a0c7	-0.52589077
252	0xbe39bfd6	-0.18139586
253	0xbe9ad41f	-0.3023996
254	0x3d4a9890	0.0494619
255	0xbe864133	-0.26221618

bias f4 [20]
0	0xbeedb124	-0.4642421
1	0x3eb936c3	0.36174592
2	0xbf5e0a7a	-0.86734736
3	0x3e33f45d	0.17573686
4	0xbf240f57	-0.64085907
5	0x3b43cd6a	0.0029877075
6	0x3fad71a0	1.3550301
7	0x3f8af8a9	1.0857135
8	0xbfd9c285	-1.7012488
9	0x3ee15910	0.44013262
10	0x3fb3e48c	1.4054122
11	0xbe013405	-0.126175
12	0x3f1f5beb	0.6224963
13	0x3f5ad0bd	0.8547476
14	0xbfb2e69e	-1.3976629
15	0xbf903e6b	-1.1269048
16	0xbf69213c	-0.91066337
17	0x3fca39c7	1.5798882
18	0xbcf769e1	-0.030201854
19	0x3fdda430	1.7315731

weight f4 [10, 20]
0	0x3f60a80e	0.8775643
1	0xbfbc655e	-1.4718435
2	0xbf93e17a	-1.1553185
3	0xbf096f91	-0.5368586
4	0xc02a817c	-2.664153
5	0xbff0e0c3	-1.8818592
6	0xbfb33067	-1.3999146
7	0xbf5ad5a9	-0.8548227
8	0x3f81d143	1.0141987
9	0xc018f906	-2.3901992
10	0x3f963e73	1.1737808
11	0x3f8a52a7	1.0806473
12	0x3f19daea	0.6009966
13	0xbf1948cf	-0.5987672
14	0xbf98e1a8	-1.1943865
15	0x3bbe86d0	0.0058144107
16	0x3f8a3daf	1.0800074
17	0xbea10cf8	-0.31455207
18	0xbfd0aca9	-1.6302692
19	0xbe646e44	-0.22307688
20	0xbfb53f03	-1.4159855
21	0xbf85b7a5	-1.0446669
22	0x3f9c5e6a	1.2216313
23	0x3f810508	1.007966
24	0x401c61c7	2.4434679
25	0x3ef5bfec	0.47997987
26	0xc01a3bdb	-2.4099033
27	0x3fb4b391	1.4117299
28	0xbe7eaa8c	-0.24869746
29	0xbe347ee2	-0.17626527
30	0xbed4db6d	-0.4157366
31	0xbfd1bf17	-1.6386441
32	0xbf098490	-0.537179
33	0x3f2c54bd	0.673168
34	0xbe9ea862	-0.3098784
35	0xbf534236	-0.82522905
36	0xbeb6aded	-0.3567957
37	0xbfaf04a7	-1.3673295
38	0xbeb732e0	-0.35781002
39	0xc060ae28	-3.5106297
40	0xbf13d1f8	-0.5774226
41	0xc032138f	-2.7824438
42	0x3f7632c8	0.96171236
43	0xbeaab997	-0.3334472
44	0x3d0c0b50	0.034190476
45	0x3e698344	0.2280398
46	0xbf740829	-0.9532495
47	0xc01cb78f	-2.4487035
48	0x3f14fd99	0.5819946
49	0x3fe4073f	1.7814711
50	0x3f936443	1.1514972
51	0xbfd86c9c	-1.6908145
52	0xc0067a72	-2.1012235
53	0xc00c848a	-2.1955895
54	0xbfe0179c	-1.7507205
55	0x3f3d85d2	0.7403232
56	0xbf56c7cd	-0.8389862
57	0xbf6b59f5	-0.9193414
58	0x3f45267a	0.77011836
59	0x3f8b61fd	1.0889279
60	0xc002c69f	-2.0433729
61	0xbde9d758	-0.11418027
62	0x3fbbb5f5	1.4664904
63	0xc00dad55	-2.2137043
64	0x3dc5ef73	0.09664812
65	0x3f4fd8e9	0.81190354
66	0xbfc20cb3	-1.5160125
67	0xbfa0a228	-1.2549486
68	0xbf29a77c	-0.66271186
69	0x3f4cb89f	0.7996921
70	0x3e91de5a	0.28489953
71	0x3f6e5f0a	0.9311377
72	0x3f5ba1a0	0.85793495
73	0xbfa0a5cd	-1.2550598
74	0x3f8c7975	1.0974566
75	0x3eecc594	0.4624449
76	0xbd1ac58f	-0.037786063
77	0xbfae7ba9	-1.3631488
78	0xbfc68a34	-1.5510926
79	0xbe579a3d	-0.21054931
80	0x3f565803	0.83728045
81	0xc00ed1ca	-2.2315545
82	0xbf02843b	-0.5098302
83	0x3f941dea	1.1571629
84	0x3f72f635	0.9490693
85	0xc024ef87	-2.5771196
86	0x3f507c50	0.81439686
87	0x3f2aa572	0.666587
88	0xbfa23142	-1.2671282
89	0xc018e058	-2.3886929
90	0xc04d0eff	-3.2040403
91	0xbf007b23	-0.5018789
92	0xc000587d	-2.005401
93	0xbfa0f7e0	-1.2575645
94	0x3e72acfb	0.236988
95	0xbf6ee54f	-0.9331865
96	0xbf1b3177	-0.6062235
97	0x3f7da325	0.99077064
98	0xbeb226bf	-0.34795186
99	0x3f959999	1.1687499
100	0xbf4d17c2	-0.80114377
101	0x401135e5	2.2689145
102	0xbff88d95	-1.9418207
103	0xbe588794	-0.21145469
104	0xc06bc2f0	-3.683773
105	0x3f61d75c	0.8821924
106	0x3f892ea4	1.0717359
107	0x3ea127ab	0.31475577
108	0xbf38d281	-0.72196203
109	0xbf172da2	-0.59054005
110	0x3f791604	0.9729922
111	0x3f501ffc	0.81298804
112	0x3e3834c3	0.17988877
113	0x3fc6cb84	1.5530858
114	0xbd964993	-0.07338252
115	0xbc552783	-0.013009909
116	0xbd85edc7	-0.06539493
117	0xbfcf16e7	-1.6178864
118	0xc02e7516	-2.7258964
119	0xbda2308a	-0.07919414
120	0x3dc20179	0.09472937
121	0x3fd96fae	1.6987207
122	0xbfdbaefb	-1.7162775
123	0x3f525a14	0.821687
124	0xbf421857	-0.7581839
125	0x3efe7211	0.496964
126	0xc0089292	-2.133946
127	0xbf185498	-0.5950408
128	0x3f306cae	0.6891583
129	0xbff39a42	-1.9031451
130	0xbf5fcff0	-0.8742666
131	0xc001d306	-2.0285048
132	0xbe8fa316	-0.28054112
133	0x3faeee76	1.3666523
134	0xc00720ff	-2.111389
135	0xbfa7a93e	-1.3098524
136	0x3fb795d8	1.4342604
137	0xbf873c1e	-1.0565221
138	0x3f22b5d3	0.6355869
139	0x3fb7a68f	1.4347705
140	0x3cbeb3e1	0.023279132
141	0xbf435b1c	-0.76310897
142	0xbf8041da	-1.0020096
143	0xbea9c51e	-0.331582
144	0x3f58a158	0.8462119
145	0xc0042f16	-2.065374
146	0x3e91ac34	0.28451693
147	0x3fa3bb36	1.2791507
148	0xc00c7d75	-2.1951573
149	0x3ff45a47	1.909005
150	0x3eaa48c3	0.33258638
151	0x3ed63677	0.41838428
152	0x3fce7037	1.6127995
153	0xbf905daa	-1.1278584
154	0xbe8e80ba	-0.27832586
155	0xbfd32fad	-1.6498924
156	0xbf2af78f	-0.66783994
157	0x3f15bab4	0.5848801
158	0x3f3912ce	0.7229432
159	0xbfa9f94a	-1.3279202
160	0xbeb3a101	-0.35083774
161	0xbe929692	-0.286305
162	0xbf5db086	-0.8659748
163	0x3f417eda	0.75584185
164	0xbfac620b	-1.346742
165	0x3c9e8e60	0.019354999
166	0x3f04ff67	0.51952213
167	0xbfdc297a	-1.7200158
168	0x3f5a45d9	0.8526283
169	0xbfb4934c	-1.4107451
170	0xbfc5c9d1	-1.5452214
171	0x3e8a6787	0.2703211
172	0xbf8739da	-1.056453
173	0x3e45c551	0.19313551
174	0x3f330e51	0.6994372
175	0x3f2855cd	0.6575592
176	0xbf68eb74	-0.9098427
177	0xc0171c3e	-2.3610988
178	0x3f27a41b	0.6548478
179	0xbf29b10c	-0.6628578
180	0x3fa09dce	1.2548158
181	0xbe7ea7b7	-0.24868666
182	0xbfd55642	-1.6666949
183	0xbfa8b596	-1.3180416
184	0xbf96304a	-1.1733487
185	0xc0474339	-3.113478
186	0x3ebba917	0.36652443
187	0x3f5f5256	0.8723501
188	0xbe200e83	-0.15630536
189	0xc0365159	-2.848715
190	0xc02ea10c	-2.7285795
191	0xbe8e5d28	-0.27805448
192	0x3dd0be3d	0.10192535
193	0x3eef3bfb	0.4672545
194	0x3f1fa42d	0.6235989
195	0xbd832736	-0.06403963
196	0x3e5e84c3	0.21730332
197	0x3f9e27b0	1.2355862
198	0x3eb16ffa	0.34655744
199	0xc03fd39a	-2.9972901

bias f4 [10]
0	0xbf7365ad	-0.9507702
1	0xbf143739	-0.57896763
2	0x3eb0ec45	0.3455526
3	0xbe6045de	-0.21901652
4	0x3f75a8d5	0.9596074
5	0x3f13e557	0.5777182
6	0xbeebf972	-0.4608875
7	0x3d186a4d	0.03721075
8	0xbb059112	-0.0020380658
9	0x3edd2598	0.43192744
